dqn_gridworld.pt (torch, 135948 bytes, 10 tensors)

conv.0.weight f4 [16, 7, 3, 3]
00000000: c690 083f d8d1 c73d 9e8e afbd 248a 2b3e
00000010: 55db ccbd 8861 b03e 760e c03c 1d62 a33e
00000020: 0e2f d13e 8e8c fe3d 9df4 8ebe f2f9 003e
00000030: 60c5 953d e1e8 9dbe 9a60 b23e b0af 2bbe
00000040: 4ea4 2dbe c7c6 023f d86c ccbe 6cf8 ea3d
00000050: 2054 84bd 92e3 46bf 9d31 92bc c62e f03c
00000060: ceb6 edbd c235 4fbe 4dc8 9fbe 1d46 3b3e
00000070: 5657 25bd caa0 fabd b753 1cbe 2ce0 c8be
00000080: 8b3b e33c e302 d8be 6890 cfbe 609f f13d
00000090: 9783 f6be 14a7 bd3e 70f0 8b3e ec09 46be
000000a0: 80a7 ee3e 1f0a 083e cd07 48be 4e17 0fbe
000000b0: 779a 1e3f ae9f ea3d 444d 1b3f 6530 9a3d
000000c0: 62e1 fcbc c858 cabe 92ab 91be 96a3 e53c
000000d0: 6cac cabe 327d 22bd 8976 093d c978 d43e
000000e0: 6759 d73e 2838 e93c 6ad7 993c f12f ac3d
000000f0: 2b23 cabe 8d89 0ebf 606a 8d3e ccf6 2fbe
00000100: 5a91 c93e 120e 2b3d fc41 1d3f 6471 12bf
00000110: abf0 87be 9f1b 5cbe df2b 4e3e 663d a83a
00000120: 65b2 fc3d b26b 953e 77ed ffbd dd0c aa3c
00000130: a466 90be 2f23 813d 25d4 82bd 2c30 133e
00000140: b1df f53e 2bd8 14bd eaba b3bd 273c 64bf
00000150: 3ed5 693e b366 233a 0067 a93d 717a 093d
00000160: 432a 863e 9b34 43be d744 0fbf be8f 2b3e
00000170: 0d24 5e3c ce92 953e c9c3 da3d 16e9 323a
00000180: 50f1 0ebf 09c0 843e 6627 fb3e a1c7 cd3d
00000190: 029d 12be 86e9 2abc 2803 813d f9df e83c
000001a0: 0fb8 80be 42ca a63e 9175 543e 245e e8be
000001b0: 2ac1 89be a4df 9ebe b655 6b3d 3362 bc3c
000001c0: 46c6 0f3e 8920 9d3d c268 84be ef5e 03bf
000001d0: 875c 083f 9cb6 13bf 30fa 0abd cdae 1b3d
000001e0: b430 0fbf aab3 0dbf ab83 0b3d ffa8 c3be
000001f0: d39d 54be 8388 033e bd0c adbd 3ee6 22be
00000200: 277b c2bc 8d94 1abe 92ca 1bbd f9ed 20bd
00000210: 1447 f63d 6730 853e 679c 5c3d a57e 0ebd
00000220: 7c36 8dbe 2dba dfbd a588 673e f04b 8abe
00000230: 722a cbbd 381c 1d3e ab76 e1bc 3e67 bdbd
00000240: b41a 633e ea5a 0b3f 8d91 6a3f 3963 a03e
00000250: 99b5 1d3f 0de7 ae3d 4ec8 b2bc ae72 143f
00000260: 8a56 7a3f d220 c1bd 3a87 b33e 44f5 873e
00000270: d7bb e4bc bc89 b13d 2223 383e 5aef cabd
00000280: de66 70be b5be d2bb 36ed 263e 1720 a5be
00000290: 3cff cabd dbf8 4a3d 749d be3c a420 98bd
000002a0: 09a2 e03d d384 92be ac8f c73c f060 09bd
000002b0: 6675 6f3e 4144 b83c 08d8 a03d cf6a 80be
000002c0: 96ae d53c 6ab0 a93d b598 b73d 057d 8bbe
000002d0: d38d 8b3e f2ac 2cbf 4af2 be3d 229a 8fbe
000002e0: 251e c93b ac26 e9be f6e4 3b3c c8a9 84be
000002f0: 5192 073d 3c55 3bbf 2702 12be c61c 51bf
00000300: 4310 573e ed14 bd3e 1cc1 5a3e 1598 e93e
00000310: ce42 3a3e e1f6 2b3e 04b8 a33b fa12 a33e
00000320: ce04 8abe 4ab7 6a3e 08d4 c43e 3601 fe3e
00000330: 3690 323f 618a 273f e3b2 72be 6699 fdbe
00000340: e10a 0d3e c105 063f baae 273f bc0d 933e
00000350: 0b37 d93e 5e7a 1e3f fe02 923e 1f24 3c3f
00000360: 62e5 d83e 97f1 10bd ef3f 803d a797 efbe
00000370: f558 aabe 429d 8abe 43bd f0be e30a cabe
00000380: 032f 8cbe a5c5 e93b a545 053c 38f5 ecbe
00000390: 6fe2 a83c eaa9 853c 719e b2bd e29e 4dbe
000003a0: 2e99 4dbd 4e93 e13e 5edf 8cbd 769e bcbc
000003b0: 857c 253c 2715 45be 2f8e a9bd e382 02bf
000003c0: 61a4 c33d 87c3 eebe ee39 3bbe 84f5 eebc
000003d0: 01cb 033e 519a 82be 68c2 ebbe 2267 a33d
000003e0: 747f 9e3c 3f3c 4d3b e53b b8be 9cb5 6abe
000003f0: 12a5 833e c855 e0bc 408f e63c ae78 25be
0.53345907 0.097568214 -0.08572124 0.16751915 -0.10002772 0.3444941 0.023444396 0.31910792
0.40856212 0.124291524 -0.27921 0.12595347 0.07313037 -0.30841735 0.34839326 -0.16766238
-0.16957209 0.5108456 -0.3992679 0.11473164 -0.06461358 -0.77690995 -0.017845923 0.029319178
-0.11607133 -0.2023535 -0.31207505 0.18288465 -0.040366493 -0.12237699 -0.1526631 -0.3923353
0.027738353 -0.42189702 -0.4053986 0.117979765 -0.4814727 0.37041533 0.27331877 -0.19339722
0.46612167 0.13285111 -0.19534226 -0.13973734 0.61954445 0.11456238 0.60664773 0.07528762
-0.03086919 -0.3952086 -0.2845121 0.028032105 -0.39584672 -0.039670177 0.03356031 0.41498402
0.42060396 0.02846916 0.018779475 0.084075816 -0.39479956 -0.55678636 0.2762022 -0.1718399
0.39368707 0.041761465 0.6142881 -0.5720427 -0.26550803 -0.21494912 0.20133923 0.0012835681
0.123387136 0.29183728 -0.12496465 0.020758087 -0.2820331 0.06305539 -0.063881196 0.14373845
0.48022225 -0.036338966 -0.087758854 -0.89154285 0.22835252 0.000623326 0.08271599 0.033564035
0.26204118 -0.19063036 -0.55964416 0.16754052 0.0135584 0.29213566 0.10681874 0.00068248936
-0.55836964 0.2592776 0.49053496 0.10047842 -0.14317706 -0.010431653 0.0629943 0.028427111
-0.25140426 0.32576185 0.20747973 -0.45384324 -0.26905185 -0.3103 0.057454787 0.022996044
0.14040479 0.07672221 -0.25861174 -0.5131673 0.53266186 -0.57700515 -0.033930004 0.0380085
-0.5593369 -0.5535227 0.034061115 -0.3821487 -0.2076333 0.12845044 -0.08449695 -0.15908143
-0.023740364 -0.1509573 -0.038034983 -0.03928945 0.12025276 0.2601349 0.053860094 -0.034788746
-0.2758063 -0.10924182 0.2261072 -0.2701106 -0.09920205 0.15342796 -0.027522406 -0.092482075
0.22178155 0.544356 0.9162834 0.313257 0.6160522 0.08540163 -0.021824028 0.5798749
0.977883 -0.09430088 0.35064107 0.2655431 -0.0279216 0.08668849 0.17982152 -0.09908934
-0.2347674 -0.0064314255 0.16301426 -0.32251045 -0.09911963 0.049553733 0.023268439 -0.07428101
0.10968406 -0.28616962 0.0243605 -0.033539712 0.23384628 0.022493483 0.07853705 -0.25081488
0.026084226 0.082856014 0.089646734 -0.2724382 0.2725664 -0.67451394 0.09323557 -0.28047282
0.0061376267 -0.45537317 0.011468163 -0.25910783 0.033098523 -0.7317693 -0.14258634 -0.8168453
0.21002297 0.36930028 0.21362728 0.45623842 0.18189546 0.16793396 0.0049963016 0.31850415
-0.2695679 0.22921482 0.38443017 0.496103 0.697513 0.65445524 -0.23701052 -0.49531096
0.13773681 0.5235253 0.65500987 0.28721416 0.42424807 0.6190547 0.28517908 0.73492616
0.42362505 -0.035386648 0.06262194 -0.4679539 -0.33270994 -0.27073103 -0.47019395 -0.3946143
-0.27379617 0.007134157 0.00813428 -0.46280837 0.020615784 0.016316373 -0.087216265 -0.2008014
-0.05019491 0.44057697 -0.068785414 -0.023024779 0.010100489 -0.1924635 -0.082790725 -0.5098097
0.09552837 -0.4663355 -0.18283817 -0.029169805 0.12870409 -0.2550836 -0.46046758 0.079786554
0.019347884 0.0031316427 -0.35983196 -0.22920841 0.25711876 -0.027384654 0.028144479 -0.16159317

conv.0.bias f4 [16]
00000000: db4e 25be d591 14be 8e26 c5bd 15f3 1abd
00000010: 497d 87bd d9fc 99bd ca12 bdbd 2033 293e
00000020: 49e3 03be 70c5 153e f764 fa3d 3094 40bd
00000030: 26d6 b0bd 9d86 f2bd 2ff1 62bd e836 2dbd
-0.16143362 -0.14508756 -0.09626494 -0.037829477 -0.06615693 -0.0751893 -0.09232099 0.16523409
-0.12879671 0.14626098 0.12226289 -0.047016323 -0.086345956 -0.11842082 -0.05540579 -0.04228869

conv.2.weight f4 [32, 16, 3, 3]
00000000: 5445 003d 812b 81bd 2895 8e3d cff2 8dbe
00000010: 0f6e 31bf 7af6 f1bd 9a70 4bbd 6e7b 2cbe
00000020: 8fd1 d53e a034 d4bc b582 a43e 8869 d7bd
00000030: ab88 d9be 3750 05bf ec1b ff3d c877 dfbd
00000040: 4898 9abc 1006 bd3e c68c c5bb 8e5a 09be
00000050: 8bff 9ebe 90f3 0a3d 8d01 803d 6e7c 6ebe
00000060: c1d1 de3d af40 b33e 397e 0a3f f6b5 e8be
00000070: 562e ebbe 7bb9 e6be 6ba6 84be 0bb9 a4be
00000080: f78a a0be cdf9 7fbf 1064 a2bd af0c 543c
00000090: 7213 c83c f7de c83d 7067 99be e2d6 833d
000000a0: 5aa0 99be a405 15be fe51 2dbe 899d 9f3d
000000b0: 473a 343f 0220 c83d b378 6abe b0f7 dfbc
000000c0: ac9b 563e d053 20bd 2c77 3ebd ef14 343e
000000d0: cc73 28bd e7f0 143e b0fc df3d 0006 2fbe
000000e0: cd4a b33c e6ff abbe 5c09 3fbf eab4 85be
000000f0: 30cb 30be 33e4 a43d eff4 b33e 07f3 963c
00000100: 2c95 673d c4e9 ed3d 04f5 52be 90a5 b6bc
00000110: 329b bcbe 7275 223d bd8f 7e3e 019b 09bf
00000120: d4a4 203e 1f98 6b3e dbd5 233e b816 0ebf
00000130: f36b c8bd 7abe 4abe b3d0 f63d f68c b13e
00000140: b1d5 8dbd 80e0 373e af2b a23d 81bd ff3d
00000150: 6f22 22be 72ac 0fbd 56b9 9dbd 45ae be3d
00000160: 57fe 08be 5edb a73e 8300 4bbd eef4 53bc
00000170: d124 11be ae6a 903c 7455 36bd 309c 103d
00000180: fb87 76be 2d50 3abf 1aa0 c2be 3a48 9c3e
00000190: 6e2f 5a3e f849 c6be 035b 5a3e 1432 293e
000001a0: fe25 083b f665 3f3e 3e84 27bf e22b d13d
000001b0: 8120 1abe 3eab 9dbc a1aa 513e f0f2 5d3e
000001c0: b078 633b 20f0 8f3d 9cda cabc ef2f 063f
000001d0: b425 05be 675b dbbd 9223 8f3e d3c9 863d
000001e0: 9e68 c4bb 2b6e 09be f680 2dbe 50ec 653e
000001f0: f5b4 863e 06d3 ed3e 1366 9a3b 9a1f b9bd
00000200: 1c76 253e 047b b9ba f054 073e 1aa4 f1bc
00000210: 0973 803d 8b55 1c3e 2b66 8cbe b2e8 1f3d
00000220: a3e8 8c3e b05f 9d3e 75bb 9abe 366c 11bd
00000230: 6b36 23be cc5c 87be 361b 9ebe 4331 3a3b
00000240: 412d 9ebd a688 79bd 6c37 fabc face 4dbd
00000250: 543d 94bd 2fba 19bd a0c9 3a3d b30c 143c
00000260: 7349 893c d865 7ebb 17b7 7d3c 6901 8dbc
00000270: 5104 fcbc 2e0e 9fbc b114 e8bd 4914 adbd
00000280: ffc7 3ebc bef6 87bd 974d 15bd 759b 44bd
00000290: dd01 54bc 7f16 073d d708 37bd c95e 0f3c
000002a0: d42f 0e3d 1587 acbd 3b5c acbd 1e34 8ebd
000002b0: 1d9d 97bd a09f 3cbd d216 09bc 6161 71bd
000002c0: 450b c9bd 73df 9abd 5af6 79bd d756 bab9
000002d0: 8899 39bd a90e 75bd 85c0 af3c 174a c5bc
000002e0: ecca d33c 345e df3b 35c8 6f3d ebd8 a8bd
000002f0: 1304 bb3b c415 bf3c ac90 79bd 0880 673d
00000300: 0570 ff3c 727c d0bc 60af 86bc fa89 33bd
00000310: 2825 d6bd d5f2 8d3a 4618 6939 ffa0 8dbd
00000320: 93f7 9fba 3cf1 b2bd 3905 d93c 82bc 833c
00000330: 7e41 d4bb 1773 95bd d699 eabb 6709 2ebc
00000340: 9771 3038 67a0 c83b 4d2c 973c c832 95bd
00000350: d75e 25bd fe14 debb 200a 8fbc 6977 243d
00000360: 69d6 72bd 615e bdbc 7678 263b 35db 8abd
00000370: 3aec b03b bb51 87ba ec60 d3bd 3089 c9bc
00000380: 4557 78bd 9ea7 dabc 60cc 04bd 362a c8bd
00000390: 6456 85bd 103c 1dbd 1567 64bd 9d0b e83c
000003a0: 5cc8 55bd 3132 db3c 9881 68bc 7e30 c5bd
000003b0: 0c4c 6aba 7524 f43c fa04 9bbd ae13 9bbd
000003c0: fc2a 753d c833 2d3d 5cce bebd f141 cf3c
000003d0: 27b1 21bd 39b3 c8bd 693c 5ebc 3882 9e3b
000003e0: ba2c 2fbd 6183 11bc 4a1f c1bd ee7b fb3c
000003f0: aff4 3b3d 6457 6b3c a1b5 c13b 1379 c33c
0.031316116 -0.06307126 0.06962043 -0.2772431 -0.6930856 -0.1181459 -0.049667932 -0.1684396
0.41761443 -0.025904 0.32130972 -0.10518175 -0.42487082 -0.52075523 0.124564976 -0.10911518
-0.018871441 0.36918688 -0.0060287444 -0.1341345 -0.3105434 0.033923686 0.06250296 -0.23289654
0.10879851 0.35010287 0.5409885 -0.45451325 -0.4593379 -0.45063385 -0.25908217 -0.32172427
-0.31356022 -0.9999054 -0.07929242 0.012942477 0.024423335 0.09808152 -0.2996173 0.0643747
-0.3000515 -0.14552933 -0.16925809 0.07793719 0.70401424 0.0977173 -0.22897606 -0.027339786
0.20957822 -0.03914243 -0.04650037 0.1758611 -0.041126058 0.14545022 0.10936868 -0.17092133
0.021886254 -0.33593673 -0.74623656 -0.2611459 -0.1726501 0.08051338 0.35147807 0.018426431
0.056538746 0.11616853 -0.20601279 -0.022295743 -0.36837155 0.039662786 0.2485952 -0.5375214
0.15687877 0.23007248 0.15999548 -0.55503416 -0.09786215 -0.19799224 0.12051525 0.34677857
-0.06925524 0.17956734 0.07918488 0.12487317 -0.15833448 -0.035076566 -0.07701366 0.09310583
-0.13378273 0.3278455 -0.049561035 -0.012936814 -0.141742 0.017628994 -0.04451509 0.035305202
-0.2407531 -0.7277859 -0.38012773 0.30523854 0.21307155 -0.3872831 0.2132378 0.1652301
0.0020774598 0.18691239 -0.6543616 0.10213448 -0.15051462 -0.019246694 0.20475246 0.21674705
0.0034709387 0.07028222 -0.024762444 0.5241689 -0.13002664 -0.10710793 0.27956825 0.06581464
-0.0059939167 -0.13420932 -0.16943726 0.22453427 0.26309934 0.4645006 0.004711875 -0.09039231
0.16158336 -0.0014151041 0.13215995 -0.029497195 0.06271941 0.15267007 -0.27421698 0.039040275
0.27521238 0.30737066 -0.30221143 -0.03550359 -0.15938728 -0.26437986 -0.30880135 0.002841071
-0.07723475 -0.060921334 -0.030544005 -0.050246216 -0.0723826 -0.037531074 0.04560244 0.009036231
0.016758656 -0.0038818028 0.015485547 -0.017212586 -0.030763777 -0.019415941 -0.113320716 -0.08451135
-0.0116443625 -0.06638859 -0.03645095 -0.047999818 -0.012939897 0.03298044 -0.044686165 0.008750626
0.03471358 -0.08424202 -0.08416029 -0.06943534 -0.07403014 -0.046050668 -0.008367257 -0.05893076
-0.098166026 -0.07562151 -0.061025955 -0.00035541385 -0.045312434 -0.059828434 0.021454105 -0.02408318
0.025853597 0.00681665 0.05854054 -0.08244499 0.005707273 0.023325808 -0.060928985 0.056518584
0.031181345 -0.025449965 -0.016441047 -0.043832757 -0.10456306 0.0010829816 0.00022229654 -0.06915473
-0.001220452 -0.08737418 0.026491748 0.016081098 -0.006477534 -0.07297342 -0.007159452 -0.010622359
4.206746e-05 0.006122637 0.018453741 -0.072850764 -0.04037365 -0.006777405 -0.017460883 0.04015294
-0.05928651 -0.023116292 0.002540139 -0.06780092 0.005399254 -0.001032404 -0.10321221 -0.024601549
-0.0606301 -0.026691254 -0.03242147 -0.09773676 -0.06510618 -0.03838736 -0.05576237 0.02832585
-0.05219303 0.026757332 -0.014191054 -0.0962839 -0.00089377235 0.02980254 -0.075693086 -0.07572113
0.059855446 0.04228571 -0.09316704 0.025299998 -0.039475586 -0.09799809 -0.013564208 0.0048373006
-0.042767264 -0.008881421 -0.09429796 0.030698743 0.045887645 0.014364097 0.0059115444 0.023861444

conv.2.bias f4 [32]
00000000: e266 d0bd 9bf3 91bd 3fb8 0cbe 9e1c 5e3e
00000010: c66e 00be 6990 cf3c 88bf a3bd 00f4 14be
00000020: 0701 95bd d10d fabd c931 03be 8712 01be
00000030: 597b febc f63a b8bc afb6 8e3e 995b b43c
00000040: b68c 22be 713d 783c 0e7f 61be 8640 f9bd
00000050: 9f4f 8cbd 792d 863d 6537 f3bd bdb7 35bd
00000060: a0c5 ab3d 8e3e 913e deaf 9e3d f77c 2bbe
00000070: 48ce 21be b9e9 1abe e904 2bbd 5251 29be
-0.10175873 -0.07126542 -0.1374216 0.21690604 -0.12542257 0.025337415 -0.07995516 -0.14546204
-0.072755866 -0.122096665 -0.1281196 -0.12604724 -0.031064676 -0.022489052 0.27873752 0.022016333
-0.1587399 0.0151513675 -0.22021124 -0.1217051 -0.06851124 0.06551642 -0.118758 -0.04436468
0.08387303 0.28368038 0.07748388 -0.16746889 -0.15801346 -0.1512822 -0.04175273 -0.16534927

conv.4.weight f4 [64, 32, 3, 3]
00000000: 9538 9f3e 89ab a43e 7dfb cd3e 3cb8 d93e
00000010: 9dda a53e 6b70 e53d e363 d03e 7f4d a33e
00000020: 6161 88be 0785 af3c 3dfc a63b 9402 bebc
00000030: 524b 2f3d 3613 82bc 0ba1 0cbd 5c3d db3c
00000040: deac 403b ebfe d3bc b32b 45be 96be 39be
00000050: 198d 0fbd 9db0 4a3b 927e 923b efa4 a0be
00000060: 3c54 183f ae3a a23e 6e4b a3bd f056 673e
00000070: f36c 413e 5b3e 20bd a7d8 bebc 926e 72be
00000080: fd98 d7be 7a97 afbe 455c cdbe 3a02 28bf
00000090: 5e3a 7ebe c60a ee3e 3277 093f b1ba 343e
000000a0: f6da df3d 95fe 1abd b157 b83e e4a4 d73e
000000b0: 11d7 113f 2616 ecbe 5077 1cbf 4ea8 38be
000000c0: d869 03bf bee0 26bf 19c5 febe 2b97 dfbe
000000d0: 2785 6dbe 95af 52be 5ee8 5fbf cef1 f7be
000000e0: f6bc febe f7d1 98be fda4 12be 30b1 d2be
000000f0: a66b fabe 769a 3b3e 9c0d ff3c 55a7 83bf
00000100: df3f cbbe 2606 64be 61ca f03e d768 15be
00000110: a15a f6bc 5169 303e 52ab efbd dab2 043f
00000120: 37e4 f1be ac5a b23e b3ff fe3e 59fd de3d
00000130: df26 ca3e 2b6e f2be 2c7f dcbd de82 303f
00000140: d6e4 b63e 82dd d4be 8634 9cbe 68da 2bbf
00000150: b290 40be 580d bb3e aee9 51bd 22d6 3f3d
00000160: a6ff b03d cffd a8be 2621 94be 90b3 eebe
00000170: ec27 10bf fcf7 89be 77cb b3be 8603 17bf
00000180: 0373 e73d 488c e5be 5339 edbe b287 7dbc
00000190: 79eb 7ebd 81a8 413d 306c 33bd 8e7b b9bc
000001a0: 614c 9a3c 71e8 ba3c 9478 2d3d 7a53 cfbc
000001b0: 5b30 99be 17a2 43be 8590 683e 3a8c acbe
000001c0: 1087 c43e 83b1 f43d ab30 12be 7a01 8bbd
000001d0: bdec f8be 4c53 ad3e cdad 96bc ec50 093f
000001e0: a60d d13e bb0b ea3e 3778 823e 64d0 b33d
000001f0: b08b 32bf 353b e93e 8672 b43d 6398 c9bd
00000200: fea7 913d d8ee 37bd 771c a0bd 5130 5d3c
00000210: cf2c 12bd b19c a0be 58da 5ebe 568d 33bf
00000220: 5221 983b debc cc3d 5270 05bd 89e9 85be
00000230: 13a3 9bbd d9c4 1abf 4274 163e 68d9 c43e
00000240: 3c59 13be 12b5 a3be aa19 20bf 8a95 40bf
00000250: db34 abbe 852a d1be d51d 73ba 9a1e 42bf
00000260: d7ba 92bf 8074 e9bd afbd f6be fee3 e0be
00000270: a303 373d fa91 8bbe a3b3 19be 7bdc 30be
00000280: 3c2d fdbd 5102 b73e a363 47bf c167 ac3a
00000290: 44bd d5bd aa6c 8a3f d122 aa3e c884 113e
000002a0: dd10 86bf 7cc2 853e 0458 df3d 7f2d a6be
000002b0: 739d 46bd 5647 0fbe 9111 863b 7b90 313d
000002c0: 56a3 6cbb 8277 72bd d238 223e dd92 7a3d
000002d0: 8b13 0bbf 15a9 d6be f469 0cbf 5c67 91be
000002e0: 3866 45be 4926 91be ddf8 1ebe 3cd4 e5bd
000002f0: afad 1ebf 9966 373d 7199 e1bd 0c44 c3bd
00000300: 7483 013e b604 94bd 5fb9 a9bd 25f0 c6bd
00000310: 1b95 563d 142f c6bd 3d2e 753e 2ffc 8ebd
00000320: 7494 0a3f 59a7 813e b741 b13e f4cb 103f
00000330: 9b7c d13e 7906 9c3e 2a9b fd3e 5635 3fbf
00000340: 77e8 8bbe 74b1 babe 0f95 85be 7e34 893e
00000350: 9a8f 56be a14f 72be 8c9d 863e 6c84 06be
00000360: d65f bf3e e1b5 123e dbb4 693d d59e 953c
00000370: 8573 a1be 7955 a9be 87fb 7c3e 1095 56be
00000380: 6f12 62be 09f2 d73c 5ccb 63bc 52f2 233e
00000390: 3b0b a23d 7d61 80bd 32de 963d 0af2 c1bc
000003a0: 8fe3 1c3d 8c84 513e 4018 e83c 78ac b5bd
000003b0: 2671 a63d dc96 0b3d 1ec0 a1be b30b 04be
000003c0: 5a76 893e ed6a 2b3e 614e 09be f135 e9be
000003d0: 8955 9cbd c4ea 693e f229 a8be b63e c2be
000003e0: 59df f5be 56c0 bbbd 9d7a 37bf cbff bcbd
000003f0: d648 ccbf eaaf b0be 7641 41bf 01c4 15bf
0.31097856 0.3216212 0.40230933 0.42523372 0.3239335 0.11203083 0.40701208 0.31895062
-0.26636794 0.021425737 0.005095987 -0.023194589 0.04279644 -0.015878301 -0.03433327 0.026762657
0.0029399912 -0.02587839 -0.19254951 -0.18139109 -0.03504667 0.0030928024 0.0044706548 -0.31375834
0.5950353 0.31685394 -0.079733714 0.22591758 0.18889217 -0.039121967 -0.023296667 -0.23674992
-0.42108908 -0.34295255 -0.4010946 -0.656284 -0.24826953 0.46492594 0.536975 0.17649342
0.10930435 -0.037840445 0.36004403 0.4211799 0.5696879 -0.46110648 -0.61119556 -0.18032953
-0.5133338 -0.6518668 -0.4975975 -0.4367002 -0.23195325 -0.20574792 -0.8746394 -0.4842667
-0.4975354 -0.2984769 -0.1432075 -0.41150808 -0.48910254 0.18320641 0.03113442 -1.0285441
-0.39697167 -0.2226797 0.47029403 -0.14590774 -0.030072512 0.17227675 -0.11702599 0.51835406
-0.47244427 0.34834802 0.49804458 0.10888166 0.3948278 -0.47349676 -0.107664436 0.6894969
0.35721463 -0.41575247 -0.30508822 -0.67130136 -0.18805197 0.36533618 -0.051248245 0.046835072
0.08642511 -0.3300614 -0.2893154 -0.4662137 -0.56310916 -0.2694701 -0.3511617 -0.5898975
0.113012336 -0.4483359 -0.46332797 -0.015474247 -0.062236283 0.04727984 -0.043804348 -0.022641923
0.018835248 0.022815915 0.04235132 -0.02530836 -0.29919705 -0.19104801 0.2271138 -0.33700734
0.38384295 0.1194792 -0.14276378 -0.06787391 -0.48618117 0.33852613 -0.018393422 0.536391
0.40830725 0.45712075 0.25482342 0.08779982 -0.69744396 0.45552984 0.08810906 -0.098435186
0.0711212 -0.044905514 -0.07817929 0.013500289 -0.035687264 -0.31369546 -0.21762979 -0.70137537
0.004642644 0.09996961 -0.03257782 -0.26154736 -0.07599463 -0.60456616 0.14692786 0.38447118
-0.14389509 -0.31974083 -0.6253916 -0.7522818 -0.33438763 -0.40852752 -0.00092741597 -0.75827944
-1.1463269 -0.11399174 -0.48191592 -0.43923944 0.044681203 -0.2725981 -0.15009932 -0.17271607
-0.123621434 0.35743955 -0.7788641 0.001315348 -0.1043649 1.0814412 0.33229688 0.14210808
-1.0473896 0.26124942 0.109054595 -0.32456586 -0.04849 -0.13992056 0.0040914495 0.043350678
-0.0036108098 -0.059196003 0.15841988 0.061175216 -0.54326695 -0.41925874 -0.5484917 -0.2839917
-0.19277275 -0.28349522 -0.15524621 -0.11222121 -0.6198377 0.04477558 -0.11015595 -0.09534463
0.12647802 -0.07227461 -0.0828731 -0.09713773 0.05238829 -0.09676948 0.2394342 -0.06981694
0.5413277 0.2532299 0.3462045 0.5656121 0.4091538 0.30473688 0.49532443 -0.7469076
-0.27325794 -0.3646351 -0.26090285 0.2679786 -0.20953217 -0.23663189 0.26292074 -0.13136452
0.37377805 0.14327194 0.057057243 0.018264214 -0.31533447 -0.33073023 0.24705325 -0.209553
-0.22077344 0.026360529 -0.013903465 0.16010407 0.07912298 -0.062685944 0.07366599 -0.023674984
0.038302954 0.20460719 0.028331876 -0.088707864 0.0812705 0.034079418 -0.31591886 -0.12895088
0.26848108 0.16740008 -0.13408805 -0.45548967 -0.07633502 0.22843462 -0.32844502 -0.3793847
-0.48021963 -0.091675445 -0.7167147 -0.09228476 -1.5959728 -0.34509212 -0.7549051 -0.58502203

conv.4.bias f4 [64]
00000000: fd29 0ebe 18a5 27be 061b 033c 71a7 17be
00000010: 1c16 eebc c5cd c3bd 2c62 a7bd a1ae 14be
00000020: 334d 24be 2f3d 5bbd f957 77bd 413b 30be
00000030: cd23 bbbd 9444 53bc fb2a 9ebd 3da0 64be
00000040: 957c cabd 5fda 00bd 5eb1 abbc bcb2 d5bd
00000050: 4698 2abe 2f68 94bd 6b13 f1bd a4c6 37be
00000060: 6eb7 c7bc 9627 b63d b5bc 13be 3370 2ebe
00000070: e35c 78be acb0 2dbe a23b ebbd 47eb aebd
00000080: 9a8f b6bd 1331 96be 3fba fdbd c90d afbd
00000090: a606 37be 3d50 c73b fffb b9bd b28d 00bd
000000a0: ee0b 1cbe 2594 2ebe 46d3 27be ebc0 ba3c
000000b0: 676c eebd 6f75 a2bd 75a1 95bd a06f 72bd
000000c0: 1f2d 0abe 32a7 0ebe a1b1 dfbd c152 64be
000000d0: 5353 64be fd3e dfbd de98 afbd 8f02 8bbb
000000e0: 950b 40be 22ab 1abd fa41 37be 6521 edbd
000000f0: 49e6 d1bd 3fb8 86bd 234f 90bd d429 13be
-0.13883205 -0.16371572 0.008002048 -0.14809968 -0.029063277 -0.09560732 -0.08173022 -0.1451974
-0.16045074 -0.053525146 -0.06038663 -0.17210104 -0.09137688 -0.012894768 -0.077230416 -0.22326751
-0.098870434 -0.031458255 -0.020958599 -0.104344815 -0.1665965 -0.07246434 -0.11771282 -0.17946869
-0.024379458 0.08894269 -0.14427455 -0.17034988 -0.24254183 -0.16961926 -0.114859834 -0.08540969
-0.089141086 -0.29334316 -0.12389039 -0.08547551 -0.1787363 0.006082563 -0.090812676 -0.03138513
-0.15238926 -0.170487 -0.16389188 0.022797069 -0.1164177 -0.07932555 -0.07306186 -0.059188485
-0.13493775 -0.13930967 -0.10922552 -0.22297193 -0.2229741 -0.10900686 -0.08574079 -0.0042422484
-0.18754418 -0.03776086 -0.17896262 -0.11578635 -0.102490015 -0.06578111 -0.07046344 -0.14371425

lin.2.weight f4 [128, 64]
00000000: 1a5c 953b 3d5b 04be 03ee c2bd 5a72 423d
00000010: 9b60 c7bd 3da2 373d ec33 1abe 751e 55bd
00000020: 2ab6 22be 09a1 353d 56e5 8d3d 1cf8 433d
00000030: 375f ef3b 8977 3f3d e666 b83d f9da 093d
00000040: 2f29 863c 1931 a83b 0d14 0f3c 77c8 883d
00000050: 8bb2 993d ee4d 77bd 0ebf 41bb 0640 203d
00000060: b5c7 0bbe 98ef c7bd 5d25 86bd 0c1b 99bb
00000070: 98c5 4c3d dd50 133d 4e27 993c 50aa 2bbd
00000080: 4941 6abd 69ac 28be dc4c 50bd e83f 7fbd
00000090: f9b9 efbd 8b41 de3c 7ab7 7c3d 6c4d 05bd
000000a0: d881 afbd ba47 fabd f18b 41be 9b19 62bd
000000b0: 2c72 033d 9dfb 883d 5a8d e0bd 9882 84bd
000000c0: 3347 95bd 3d45 893d d341 ab3d 125d 0cbe
000000d0: ca9b a4bd 2687 a9bc 7148 17be f816 1abe
000000e0: f76b f0bd 9371 353d 0a79 32bc 3296 a9bd
000000f0: ca21 7cbd 0959 853d 269c 21be 6dce 263a
00000100: af3a c4bb 7088 f0bd 63b7 cd3d 78a5 37bd
00000110: 0e9a 8a3d 4a86 21bb 92b9 f93c c92c c1bc
00000120: b44c 25be fc13 1c3d 5889 84bd e5aa c83c
00000130: 9964 c63d f545 06bd 78f9 3d3c acc7 1e3d
00000140: f274 70bd c220 353c ca81 c0bd 3669 bd3d
00000150: 58ed 79bd f69f 35bb 1924 b4bd d137 713c
00000160: 1624 cc3d f1cf 0a3d 55e4 f1bc 8b7f db3d
00000170: af90 ff3d 97a1 18bd 90f0 bbbd 693b babd
00000180: a583 0e3c 60ba c03d 28f7 9f3c 1a99 1b3d
00000190: 141b 1ebe f4b4 d73b 1804 123d dd3f 3fbd
000001a0: ee7b 9fbd 5d2b f9bc 77ac e1bd 2d5a c33d
000001b0: 3a3f a6bd 4bed dd3d 699d 25be e209 813d
000001c0: 1044 aabd 916b e0bd c9e2 863c 66fc e23d
000001d0: a9d6 bfbd fd72 883c 0463 e1bd 5c5e 733d
000001e0: d8ac b73d 45ba 82bd 7263 913d bfba 303d
000001f0: 116f 1c3c f912 96bd d99e bd3d 51ec 45bc
00000200: 9bd5 e1bd c1b1 10be 4855 b1bd 6c1b 203e
00000210: 8e6e 06be 82fd bebd 1489 9e3d 8aba 8ebd
00000220: 2b27 e8bd 9425 e23c 3631 0a3b 4a01 053d
00000230: ccae df3d bdb1 a8bd 8f70 433d 1801 863a
00000240: cdf5 c0bd 9cb1 31bc 26df cebd 5fbb 44bd
00000250: 7dc3 8d3d 1435 d6bd c8b9 cdbb fb77 c53d
00000260: b537 94bd b66a 9f3c 42a9 403d b209 81bd
00000270: 4541 c7bd 527d 83bc ccef 2abd f8a0 39bc
00000280: 00e8 f3bc 7bed dabd 4422 b33d 0961 04be
00000290: dcd5 8abd d81e a3bd c776 3ebd a6f1 41bc
000002a0: 887f f6bd 6db7 4c3c 6f2d dfbd 4a07 12bc
000002b0: bda8 843c 6f85 dabd b50d b43d ae59 8ebd
000002c0: ffc8 183d fad5 023e 4479 c53d 8034 0e3c
000002d0: 76b9 64bd f729 0fbe 5f25 0ebe dd7e 033e
000002e0: 0648 d9bd 1544 8dbd 0ee8 ab3d e418 60bd
000002f0: 9530 c0bd 81d4 183e 184f 9fbd ed14 a53d
00000300: eba3 033e 8a6b ec3e 5247 38bf 863b d5bd
00000310: 5bac ffbe c027 b4be 75c6 653e 290c 6c3e
00000320: aed3 54bf 82ec f9be 8122 243e 3e1b dcbe
00000330: 64c6 91be cba7 19be a0ab 87be 621a 0f3d
00000340: 727a 6ebd 286c 21be 18e8 5e3e d3a8 d63e
00000350: 6ea3 98be 5224 3fbe 6be7 06be f43d 37be
00000360: 778e 7cbe 7435 f9be d34d 713e 6867 bf3d
00000370: 791e a63c d7aa b43d 7832 76bd b794 b23c
00000380: 7485 5f3d b71b 333e f6cf 10be 3ca8 bf3d
00000390: ac01 a9be f046 343c a6f3 e5bd 0e15 803e
000003a0: d2b2 52bd 8265 debc ac2f 9bbd 6903 1b3f
000003b0: 8179 c5bd 7a4b dd3e 3746 23bf 20ac 343e
000003c0: 58f4 dfbc 0532 8cbe 13b6 183f 1fc2 353f
000003d0: 21aa a2bd 5c59 d83d 4982 82bc 7076 b7be
000003e0: 7640 4bbd d524 063d ade2 25bf afcb 113e
000003f0: 5696 163e 6c93 e1be cf05 693e 7e19 c03d
0.0045580985 -0.1292543 -0.095180534 0.047472335 -0.09735223 0.044832457 -0.15058869 -0.052031
-0.15889803 0.04434303 0.06928508 0.047844037 0.0073050517 0.046744857 0.09004001 0.033656094
0.01637706 0.005132806 0.008732808 0.06678861 0.075047575 -0.060377054 -0.002956334 0.039123558
-0.13650401 -0.09762496 -0.06550095 -0.0046724137 0.049993128 0.03596579 0.0186955 -0.04191047
-0.057191167 -0.1647202 -0.05085455 -0.062316805 -0.11705393 0.027130863 0.061698414 -0.03254454
-0.085696876 -0.12220712 -0.1890104 -0.0552002 0.032091305 0.066886164 -0.10964461 -0.06470221
-0.07288971 0.06702659 0.08362164 -0.13707379 -0.08037527 -0.020694327 -0.14773728 -0.15047824
-0.11739343 0.044297766 -0.010893116 -0.082806006 -0.06155566 0.06511123 -0.15782222 0.00063631573
-0.005988441 -0.117447734 0.10044744 -0.044835538 0.06767665 -0.0024646693 0.030483995 -0.023580926
-0.16142541 0.038104996 -0.06471509 0.024495551 0.09687156 -0.03278156 0.0115951225 0.03876464
-0.058705278 0.011055173 -0.09399755 0.09248583 -0.061017364 -0.0027713752 -0.087959476 0.01472278
0.0996782 0.033889715 -0.029527823 0.10717686 0.12478768 -0.03726348 -0.09176743 -0.09093363
0.008698379 0.09410548 0.019527033 0.037987806 -0.15440017 0.0065828506 0.035648435 -0.046691764
-0.077873096 -0.030416185 -0.11019223 0.09538684 -0.08117528 0.10836276 -0.16173328 0.06300713
-0.08313763 -0.10958017 0.016465561 0.110832974 -0.09367115 0.016656393 -0.11005214 0.05941616
0.08968514 -0.06383184 0.07099046 0.043146845 0.009547965 -0.073278375 0.092588134 -0.012080268
-0.1102707 -0.14130308 -0.08658844 0.1563546 -0.13128111 -0.093256965 0.07740989 -0.06969173
-0.11335596 0.02760581 0.002108646 0.032471932 0.10922012 -0.08237026 0.047714766 0.0010223715
-0.09421883 -0.010845568 -0.10101156 -0.048030253 0.06922052 -0.104593426 -0.0062782504 0.09642025
-0.07237188 0.019460063 0.047036417 -0.06300677 -0.09729246 -0.016050968 -0.041732594 -0.011329882
-0.029773712 -0.10689827 0.0874677 -0.12927641 -0.06779072 -0.07964867 -0.046499994 -0.011837399
-0.120360434 0.012494904 -0.10897338 -0.008912871 0.016193742 -0.10669982 0.08791677 -0.06950699
0.03730106 0.12776938 0.0964227 0.008679509 -0.05584093 -0.13980852 -0.13881443 0.12841363
-0.106094405 -0.06897751 0.0839387 -0.054711238 -0.09384266 0.14924814 -0.07778758 0.08060632
0.12855498 0.46175796 -0.71983826 -0.10411744 -0.49936184 -0.35186577 0.22438987 0.23051514
-0.831355 -0.48813254 0.16028787 -0.42989534 -0.28471673 -0.15005414 -0.26498127 0.03493727
-0.05822224 -0.15763915 0.21768224 0.41925678 -0.29812187 -0.18666199 -0.13174216 -0.17894727
-0.24663721 -0.48673594 0.23564844 0.09345895 0.020278202 0.088216476 -0.060106725 0.021799428
0.05457063 0.17491041 -0.14141831 0.0935826 -0.33009088 0.011003241 -0.11228113 0.25016063
-0.051440068 -0.027148012 -0.07577452 0.6055208 -0.09642316 0.43221647 -0.63779014 0.17643785
-0.027338192 -0.27381912 0.59652823 0.7099933 -0.07942606 0.10563919 -0.015931265 -0.35832548
-0.04962202 0.03274997 -0.64799005 0.14237855 0.14705786 -0.44057786 0.22756122 0.09379862

lin.2.bias f4 [128]
00000000: 5a99 abbd d30c acbd c94b 86bd deb5 1b3d
00000010: 7991 85bd 6718 2e3d 261d a53b d47f 41bd
00000020: f03c e7bd 8c63 97bd 317f 43be 92cb be3e
00000030: 6118 03be b316 a8bd a317 38bd 2acf 83bd
00000040: 10ca 12be 2752 dc3d b893 e9bd 0c3a 33bc
00000050: f4e6 bf3d 923a 8fbd de4b 95bd c170 a93d
00000060: 9895 003e de40 94bd b6d2 81bd 823a 323e
00000070: 9cdb d6bd 7644 c2bd ab34 003e e01f d2bd
00000080: 87aa 6e3d 1e4f 13bd 39df 4bba 42ac 8bbd
00000090: cd48 24bd cd9e e63b 28c7 94be ca85 8fbd
000000a0: 38e0 53ba 6afd e4bd e72f 78bd 19f7 35be
000000b0: 0d66 a33d 34b7 b9bd 86fc ecbd ac1e c3bd
000000c0: 58fb a6bd 8d75 8c3d db26 00be 4f90 cf3d
000000d0: b3aa 933e 728d eebd 5b51 d4bd 1abb e0bd
000000e0: d7b2 cebd a4a1 a1bd 9a78 87bd 7459 f1bd
000000f0: 69e6 72bd 3372 11bd ad08 07be 5813 00be
00000100: ed73 36bc 2a10 dcbd 7d76 3abc 801b 1f3e
00000110: 1874 c43d 501f 8b3e 3bd7 6bbc f36c 853d
00000120: c851 9dbc d248 25be 060b d7bc f28c bdbd
00000130: 764b 4ebd da50 0cbe d673 9cbd a82a 54bd
00000140: 2ce0 d1bc 9f52 9e3b cfcb 91bd a98f c9bd
00000150: 46d4 efbd 3446 1fbd 38a2 813d 6309 ee3d
00000160: 58e2 abbd 12bb dcbd 76b1 ddbd 903d d5bd
00000170: 6076 a8bd 5fc2 5f3d f591 bebc 36a9 32bd
00000180: d7e8 d53d 749e fe3d e004 fabd 2e58 41bd
00000190: 74bb b03d baad 17be 3665 e5bd b9be a5bd
000001a0: 8813 783e 0311 55be ccf1 df3d 136e 0fbe
000001b0: 42ac 4ebb ff66 99bd fcdb 8cbc 5083 9abd
000001c0: 2014 9fbd 59e8 673e 104f 273e 32f0 4cbd
000001d0: a213 a9bd 52d2 82bd 9add cbbd 0ae6 a2bd
000001e0: 7ee8 c4bc fe31 d63d 7c59 47bc aa9f 313d
000001f0: 5b70 eb3d ca68 fabd f886 f6bd 5752 bfbd
-0.08378859 -0.084008835 -0.065574236 0.03801524 -0.06521887 0.04250374 0.005038875 -0.047241047
-0.1129092 -0.07392034 -0.19091488 0.37264687 -0.12802269 -0.082074545 -0.044944417 -0.06435998
-0.14334893 0.10757857 -0.11405128 -0.010939132 0.09370223 -0.06993593 -0.07289861 0.08273459
0.12557065 -0.07238935 -0.06339018 0.17405131 -0.10491106 -0.09485714 0.12520091 -0.10259986
0.058268096 -0.035964124 -0.0007777098 -0.06819965 -0.04010849 0.0070379735 -0.29058194 -0.0700794
-0.00080824224 -0.111811474 -0.06059256 -0.17770042 0.07978449 -0.09068146 -0.115716025 -0.095273346
-0.08153409 0.068583585 -0.12514822 0.101349466 0.2884117 -0.11648072 -0.1036708 -0.10973187
-0.10092705 -0.07892159 -0.066148 -0.1178464 -0.059301767 -0.0355093 -0.13186903 -0.12507379
-0.011136037 -0.107452706 -0.011380789 0.15537834 0.095924556 0.27172327 -0.014394577 0.06514921
-0.019204035 -0.1614106 -0.026250374 -0.09255399 -0.050364934 -0.13702717 -0.076392815 -0.051798493
-0.025619589 0.0048316265 -0.071189515 -0.09841854 -0.1171041 -0.03888531 0.06329769 0.11622884
-0.08392781 -0.10777868 -0.108248636 -0.10412133 -0.08225703 0.054628726 -0.023262957 -0.043618403
0.10444801 0.12432566 -0.12207961 -0.047203235 0.08629504 -0.14812365 -0.11200945 -0.08093018
0.242262 -0.2080727 0.10934791 -0.14006834 -0.003153578 -0.07490348 -0.01719474 -0.07544577
-0.077675104 0.22647227 0.16338754 -0.050033756 -0.08255698 -0.06387772 -0.099543765 -0.07954033
-0.024036642 0.10458754 -0.012167331 0.04336516 0.114960395 -0.12227018 -0.12037462 -0.09341877

lin.4.weight f4 [4, 128]
00000000: 72ae 48bd 4e0c 5abc b130 61bc ab07 983e
00000010: 00a2 e83a feb9 1ebf 45a6 86be adbc 8d3d
00000020: ad14 903d 7468 02bf 32d3 07bf b4ad 9c3e
00000030: 1796 853d cd16 12bb 00ed aabc fcf8 d7bc
00000040: 6648 433d e075 91be f206 393d f67d e23e
00000050: 9e6e 193e 3088 3d3d 60f2 8e3e f168 413e
00000060: 07e1 9b3e 80b9 fc3a 4c54 cebc 22a5 a53e
00000070: c826 aebc f649 74be 94a7 b0be 3469 f33c
00000080: 8f13 923e ca4a 8dbd f8a9 b6bd 50d2 fd3c
00000090: eb3f 4ebd f530 af3e 75d9 d1bd b0e9 93bc
000000a0: 7766 cabe 8252 85bd 6ae7 e2bd c9bf 05bd
000000b0: 7959 393b 8d00 b23c fd3c ccbd 1cdb a13e
000000c0: 21ba 903d 5fe2 fb3e 914b 32bd 4577 5b3e
000000d0: 4dce b73e b02a c23b 1b9a 133e f606 0bbd
000000e0: 1f51 61be e711 52bd 1d20 30bc ec47 10bc
000000f0: a0b9 ed3c 4ce6 b83b f09c 83bd e0c0 8ebd
00000100: c6f1 e7bd e0a4 d93c 0068 b0bd 0d93 9c3e
00000110: de1c d9be bdbc b33e 3564 453e c794 2abf
00000120: 2cac 2cbd 14fd 0c3d 85e1 32bc 29a4 13bd
00000130: 9224 40bd 7980 5ebc a474 b8bc f2c8 3c3d
00000140: c7e8 233d 2849 703d 2633 443d a0b0 55be
00000150: 6f37 883d b65a 9ebd 31ec 3e3e f64b 63be
00000160: d6d9 19bd 71b2 a4bd e873 573c b463 613c
00000170: 0ce9 7abd a56d 57bb 88e1 093f c294 693e
00000180: 3450 f7be 7b5a 4a3e f0ae 52bc 32d3 23bd
00000190: 810f 2abe 5a29 e0bc a68c 66bd 0a03 81be
000001a0: 5e1e 65bd 66a8 5dbd eadf dbbd 9cde dbbe
000001b0: f1cc 86be db06 31be 3246 653d d0e4 0a3e
000001c0: 80b2 70bb 6ef8 31ba 3069 e73d ada6 133e
000001d0: 2580 6abd 8bab 01be d78c aa3d ba31 51bd
000001e0: e633 c9be 6242 2d3f 5451 b5bc 8d34 623d
000001f0: 4a76 4b3e 96c0 a4bd bfb2 a53d d119 e5bb
00000200: 343a 03bd b0b1 ef3c 242f c4bd 22e1 923d
00000210: 0901 2bbd abc5 a73e 5919 66be 9099 cf3c
00000220: 6c10 d1bc a644 843d 62ec d1be a590 2b3e
00000230: 9973 a03d 962d 983c a4d8 12bf b0e0 533c
00000240: e361 2bbd c1c4 7dbe 3cce b1bc e8dc ea3e
00000250: 2db6 853d 9f26 e5ba 5beb 993e e2ee 84bd
00000260: 4c0e 02bd 4036 783b f71c 343c a725 853e
00000270: 6ad9 9fbd 4c60 dd3c b7f3 a7be 7818 c3bc
00000280: 1c95 ddbe 1eb5 6c3d fb89 91be ba2a 7abd
00000290: 401f 4e3b 0f16 4ebb b6fd 773d 4a83 2bbc
000002a0: 735e 1cbf f4fc b93c 7244 a1bd 5098 073d
000002b0: b00f e03d e3a0 63bc 3fdb 3ebe d611 8e3d
000002c0: 93b2 a33d 322c 2e3e 8a94 493d cf1d f23e
000002d0: 1694 3a3f f838 c5bc 96b0 82be ee8d 7a3d
000002e0: 9c55 96be 719d 90bd 220f 70bc a41f b23c
000002f0: 91a3 813e 37f3 8f3d a4c5 97bc 0cbc cebc
00000300: 6017 92be 7429 f33c c309 253c c872 e33e
00000310: f43f 9bbe 95ad e23e 81b5 ff3d f2c6 00be
00000320: cc84 c3bc 47c1 7e3d 3daf a2ba 513f b1bd
00000330: 3109 0fbc d552 a93d 8399 85bd d8ef 603c
00000340: 92a0 ebbb 4359 b3bc 29db 073b e408 acbe
00000350: 6a18 7bbd 45f6 823e 557a b5bb b010 b0be
00000360: a749 b03d 709c 20bc ce4f 043d db60 8f3d
00000370: 4051 daba 5041 b4bd 74b3 f13d a0d9 d53e
00000380: 4cf0 e2be 91c2 023f 00c5 8e3a f196 debe
00000390: a82d 283e 5407 a93c a86a dc3c 1c5c 9fbd
000003a0: 3ef8 ff3e 29dd b5be f659 92bd 534c 463d
000003b0: 1a84 e3be 5991 02bf b1b4 9a3e b051 83be
000003c0: 604a 9cbb fa31 05bf 56f1 763e 7a55 003f
000003d0: 41c6 573e ac5b e53e 09de 943d bb91 a93d
000003e0: 65b6 86be d74c 783e 571a 573d ab18 993d
000003f0: 3ccd db3b fe25 38bd 0702 8bbd dabc 533d
-0.04899449 -0.013308598 -0.013744519 0.2969335 0.0017748475 -0.6200255 -0.2629873 0.06920753
0.070351936 -0.5094063 -0.53056633 0.30601275 0.06522768 -0.0022291422 -0.020864964 -0.026363842
0.047676466 -0.28410244 0.04517264 0.44236726 0.14983603 0.046272457 0.27919292 0.18887688
0.3044512 0.0019281358 -0.02518668 0.3235255 -0.021258727 -0.23856339 -0.34502852 0.02971325
0.28530547 -0.068990305 -0.08919138 0.030984074 -0.050353926 0.3421704 -0.10246555 -0.018055767
-0.395313 -0.06509878 -0.11079295 -0.032653604 0.002828209 0.021728778 -0.0997257 0.3161248
0.07066751 0.49196145 -0.043529097 0.21432216 0.35899583 0.005925499 0.14414255 -0.033942185
-0.22003601 -0.051286604 -0.010749844 -0.00880621 0.029019177 0.005642688 -0.06426418 -0.06970382
-0.113254115 0.026567876 -0.086135864 0.3058094 -0.42404836 0.35104933 0.19276507 -0.66633266
-0.042156383 0.03442104 -0.010918026 -0.036045227 -0.046909876 -0.013580435 -0.022516556 0.046090074
0.040016916 0.058663517 0.04790034 -0.20868158 0.06651198 -0.077321455 0.18644787 -0.22196946
-0.03756126 -0.080418475 0.013150193 0.013756681 -0.061257407 -0.003287175 0.5385976 0.22810653
-0.48303378 0.19761078 -0.012859091 -0.039996333 -0.16607477 -0.027363468 -0.056286477 -0.2519763
-0.055937164 -0.054115675 -0.107360676 -0.42943275 -0.26328233 -0.17287771 0.055975147 0.13563848
-0.0036727488 -0.0006789033 0.1129936 0.1441905 -0.057251114 -0.12663095 0.08327644 -0.051072814
-0.39297408 0.6767942 -0.022133507 0.055225898 0.19869342 -0.08044545 0.08090734 -0.006991603
-0.03203793 0.029259533 -0.09579304 0.07171847 -0.041749034 0.32767996 -0.22470607 0.025341779
-0.025520526 0.06458406 -0.41000658 0.16754396 0.078345485 0.018576425 -0.5736182 0.012931988
-0.0418414 -0.24782087 -0.021704786 0.45871663 0.06528888 -0.0017482823 0.30062374 -0.06490876
-0.031751916 0.0037874132 0.010993234 0.2600529 -0.0780514 0.027023457 -0.32803127 -0.023815379
-0.43277824 0.057789914 -0.28425583 -0.061075903 0.0031451732 -0.0031446253 0.060544692 -0.0104683135
-0.6108162 0.022703625 -0.07874383 0.03310424 0.10940492 -0.013893339 -0.18638323 0.06936996
0.07993045 0.17009047 0.049213924 0.47288367 0.7288221 -0.024075016 -0.2552535 0.06117051
-0.2936219 -0.070612796 -0.014652045 0.021743603 0.25320104 0.070288114 -0.01852686 -0.025236152
-0.2853346 0.029682852 0.010073128 0.4442351 -0.3032223 0.44273058 0.12485791 -0.12575892
-0.023867033 0.062196042 -0.0012411844 -0.08654655 -0.008730219 0.08267752 -0.06523421 0.013729058
-0.0071907723 -0.02189315 0.0020729995 -0.33600533 -0.06130258 0.25578514 -0.0055382648 -0.34387732
0.08607798 -0.009802923 0.03230267 0.070008956 -0.0016656294 -0.0880152 0.11801806 0.41767597
-0.44323957 0.51078135 0.0010892451 -0.43474534 0.16423666 0.020633377 0.026906326 -0.0778124
0.4999408 -0.35520294 -0.07146065 0.048412632 -0.44436723 -0.5100303 0.30215982 -0.2564826
-0.0047696084 -0.52029383 0.241155 0.50130427 0.21071722 0.44796503 0.07268912 0.08279749
-0.2631103 0.24248062 0.052515354 0.07475408 0.0067078155 -0.044958107 -0.06787496 0.051693775

lin.4.bias f4 [4]
00000000: e3ca 1f3e d1df 063e 6836 a53d fb3a 153e
0.15604739 0.13171317 0.08067018 0.1457328
