snapshots.pth (torch, 146516 bytes, 10 tensors)

conv.0.weight f4 [16, 7, 3, 3]
0.09446372 0.095781 -0.052928228 0.111010514 -0.01852218 0.026829738 -0.054518435 0.06869652
0.11219521 -0.10070694 0.107378095 0.025775112 0.092184626 0.01222611 0.06647021 -0.03677956
0.09910757 0.012268479 -0.07876252 0.023616374 -0.066887796 -0.020442434 -0.06918074 0.07751671
-0.11366127 -0.069290794 -0.04234537 -0.07575321 0.0035976446 -0.12443587 0.10675255 -0.10702293
0.09218225 0.032173444 -0.030516993 0.073886365 0.017723842 0.099461064 0.009397762 -0.04638553
0.03374798 -0.042649604 0.05107311 0.10730798 0.069083415 -0.060416322 0.06916538 0.008649213
0.059127524 -0.07436848 -0.124716744 -0.0277052 -0.096635796 0.09880038 0.030119805 0.047697812
0.035681844 -0.0168723 0.0958429 -0.0895163 0.022917494 -0.09546607 0.033074938 -0.0668794
0.03320395 -0.045071926 0.089799844 -0.09442951 -0.09201775 -0.09235945 0.08850995 0.025310582
0.098973356 -0.103975035 -0.12496465 -0.10543625 -0.09362694 0.03489988 0.030699955 0.07845631
-0.06506348 -0.090866186 0.059132636 -0.058966022 0.05728124 -0.054879684 0.04719028 -0.09788877
-0.0689086 0.021967823 0.049494326 -0.038802985 0.05792311 0.058174126 -0.09136325 -0.0818508
0.08888486 -0.05508369 -0.040159736 -0.12710884 -0.08730352 0.016960317 -0.02279509 -0.09145304
-0.019211132 -0.09115428 -0.10688793 -0.08657556 -0.11026636 -0.0853947 0.10650959 0.021658404
0.021003058 -0.117507175 -0.082745716 -0.052142657 -0.003444391 -0.10504283 -0.06384354 -0.08709896
-0.019002326 -0.057936426 -0.015946401 -0.058535196 -0.06806651 -0.0901108 -0.062063124 -0.10342106
0.09106819 -0.04003875 0.08791528 0.016590739 -0.12784815 0.0716391 -0.026049048 -0.07241334
-0.11270087 -0.13361503 0.017589947 -0.046525434 0.037274055 -0.10949303 0.07312331 -0.092482075
-0.029491533 0.0031825379 0.042445723 0.07681015 0.0922288 -0.11051159 0.0037457629 -0.07246696
-0.03158729 -0.11158517 0.10136551 -0.10659116 0.04548299 0.036237225 0.017843442 -0.05733789
0.09732619 0.008972826 -0.005977234 -0.12161444 0.034679152 -0.030887522 -0.07312877 0.082012706
0.0017353584 -0.09592005 -0.0760987 -0.023165176 0.04747171 -0.029162673 -0.071885675 -0.05823005
-0.10546387 0.030118285 0.07331539 -0.13579622 0.0060304543 0.04770729 0.0051612034 -0.026130501
0.037134986 0.039439064 0.01899953 -0.037686393 -0.048663657 0.06567901 -0.0068931472 -0.08858903
0.13880022 0.18105856 -0.0074368613 0.055078186 0.06849692 0.014518595 0.07855169 0.048885137
-0.11442959 2.8101455e-05 0.15412237 0.078410804 -0.03462353 -0.07940285 -0.09395239 -0.06682713
-0.006381843 0.08326937 0.13522328 0.12351421 -0.075191855 -0.095579736 -0.012143254 0.19869058
0.093969926 -0.033419706 0.10742095 -0.06890449 -0.010430991 0.15520515 -0.057117756 0.030582076
-0.14519873 0.16103655 0.17989838 0.10551111 -0.071251765 -0.12431126 -0.076283514 0.15795824
0.1185165 0.16275693 0.1421548 0.06740202 0.06401459 -0.040802803 -0.10058286 -0.07831461
0.04418487 -0.072643444 0.025742972 -0.060195975 0.0102925375 -0.054866645 -0.011717661 0.07279178
0.03789308 0.13325317 0.042769816 -0.036019668 -0.022449361 -0.054463226 -0.07426696 -0.14555474
00000000: 3276 c13d d428 c43d 45cb 58bd 7b59 e33d
00000010: d4bb 97bc 0aca db3c b94e 5fbd c3b0 8c3d
00000020: 9ac6 e53d 713f cebd 0ce9 db3d 5426 d33c
00000030: 4bcb bc3d 0650 483c 8921 883d 2aa6 16bd
00000040: e9f8 ca3d bb01 493c 3e4e a1bd 2077 c13c
00000050: 78fc 88bd e476 a7bc a2ae 8dbd 15c1 9e3d
00000060: 3dc7 e8bd 55e8 8dbd 5772 2dbd 8024 9bbd
00000070: 76c6 6b3b 3cd8 febd 15a1 da3d d72e dbbd
00000080: 0cca bc3d 4dc8 033d c6fe f9bc bc51 973d
00000090: 9731 913c 3eb2 cb3d 12f9 193c c1fe 3dbd
000000a0: 523b 0a3d 5ab1 2ebd 0a32 513d 49c4 db3d
000000b0: 9b7b 8d3d 1b77 77bd 94a6 8d3d 6eb5 0d3c
000000c0: b42f 723d 804e 98bd 7e6b ffbd 04f6 e2bc
000000d0: fde8 c5bd db57 ca3d cfbd f63c c85e 433d
000000e0: 2027 123d c737 8abc 4849 c43d 5254 b7bd
000000f0: 78bd bb3c b783 c3bd 9679 073d 11f8 88bd
00000100: dd00 083d 579d 38bd fbe8 b73d 4264 c1bd
00000110: cd73 bcbd f426 bdbd b444 b53d 2358 cf3c
00000120: 8bb2 ca3d ddf0 d4bd 77ed ffbd f6ee d7bd
00000130: 7bbf bfbd 2df3 0e3d 797e fb3c b4ad a03d
00000140: 0040 85bd 0d18 babd 1035 723d 5b86 71bd
00000150: bc9f 6a3d 85c9 60bd 984a 413d e879 c8bd
00000160: f41f 8dbd ddf5 b33c 90ba 4a3d e1ef 1ebd
00000170: c840 6d3d fe47 6e3d a81c bbbd 64a1 a7bd
00000180: 4409 b63d 6f9f 61bd 897e 24bd d228 02be
00000190: 30cc b2bd 5df0 8a3c c5bc babc bb4b bbbd
000001a0: aa60 9dbc 18af babd 0fe8 dabd 874e b1bd
000001b0: 54d3 e1bd 6be3 aebd b321 da3d f76c b13c
000001c0: 9b0e ac3c 9aa7 f0bd 9676 a9bd 8a93 55bd
000001d0: 4bbb 61bb b220 d7bd 67c0 82bd f160 b2bd
000001e0: c4aa 9bbc bf4e 6dbd 07a2 82bc 9ac2 6fbd
000001f0: 7466 8bbd 038c b8bd e735 7ebd 6cce d3bd
00000200: f681 ba3d acff 23bd ed0c b43d 4de9 873c
00000210: a0ea 02be 85b7 923d d064 d5bc 724d 94bd
00000220: b7cf e6bd 61d2 08be cb18 903c 7491 3ebd
00000230: aeac 183d e23d e0bd adc1 953d 3e67 bdbd
00000240: 3a98 f1bc 2092 503b 91db 2d3d a44e 9d3d
00000250: 74e2 bc3d e753 e2bd 797b 753b 8f69 94bd
00000260: ad61 01bd c486 e4bd b898 cf3d 774c dabd
00000270: 5f4c 3a3d 7c6d 143d 692c 923c 23db 6abd
00000280: f452 c73d c302 133c acdc c3bb fe10 f9bd
00000290: ba0b 0e3d d407 fdbc 89c4 95bd 47f6 a73d
000002a0: f774 e33a bb71 c4bd a3d9 9bbd e5c4 bdbc
000002b0: b271 423d 8fe6 eebc cc38 93bd a282 6ebd
000002c0: 71fd d7bd 9fba f63c 6126 963d 2a0e 0bbe
000002d0: 1e9b c53b b868 433d 501f a93b a20f d6bc
000002e0: db1a 183d db8a 213d e7a4 9b3c 0c5d 1abd
000002f0: 8b53 47bd b782 863d e9df e1bb 2a6e b5bd
00000300: a521 0e3e 6a67 393e eab0 f3bb aa99 613d
00000310: 1d48 8c3d 67df 6d3c b5df a03d c83b 483d
00000320: 105a eabd 6abb eb37 41d2 1d3e d895 a03d
00000330: 67d1 0dbd f69d a2bd 1c6a c0bd aadc 88bd
00000340: c71e d1bb 2289 aa3d f977 0a3e 05f5 fc3d
00000350: 30fe 99bd 4fbf c3bd 80f4 46bc 8b75 4b3e
00000360: 4e73 c03d 1ae3 08bd 84ff db3d cc1d 8dbd
00000370: bfe6 2abc 19ee 1e3e 4ff4 69bd 4387 fa3c
00000380: faae 14be c4e6 243e 4837 383e 3516 d83d
00000390: 72ec 91bd e796 febd 883a 9cbd cebf 213e
000003a0: c7b8 f23d c1a9 263e 0791 113e 120a 8a3d
000003b0: 151a 833d d720 27bd 63fe cdbd 6963 a0bd
000003c0: 32fb 343d 16c6 94bd ede2 d23c 0e90 76bd
000003d0: 08a2 283c d9bb 60bd 6ffb 3fbc db13 953d
000003e0: c635 1b3d 8573 083e 672f 2f3d 5c89 13bd
000003f0: b9e7 b7bc d514 5fbd 4719 98bd 4d0c 15be

conv.0.bias f4 [16]
-0.055647258 -0.05307744 0.00947223 -0.011969993 -0.092219934 -0.018770779 -0.00095301186 0.043802645
-0.10733813 0.01765838 0.061246805 0.04359878 -0.13346028 -0.06265508 -0.09297023 -0.08302605
00000000: 61ee 63bd bb67 59bd 6a31 1b3c ca1d 44bc
00000010: cedd bcbd 2dc5 99bc 8bd3 79ba 676a 333d
00000020: 18d4 dbbd 4fa8 903c eedd 7a3d a294 323d
00000030: d0a9 08be 4e51 80bd 2d67 bebd 9009 aabd

conv.2.weight f4 [32, 16, 3, 3]
0.03201229 -0.029163832 0.020932158 -0.06305826 -0.00045187256 -0.062592015 0.025473027 -0.04971149
-0.035027456 -0.08750116 -0.012776419 0.064168446 0.022246452 -0.060376063 -0.014628783 -0.021819096
-0.08577662 0.047892638 -0.013760654 0.0030717943 -0.049376253 -0.053709086 -0.0011313278 0.016057711
0.003571222 -0.054319434 0.0655502 -0.0844361 -0.12265507 -0.104805626 -0.03078685 -0.08993656
-0.08252559 -0.10593049 -0.07707713 -0.12199243 -0.07988074 0.033545293 0.054910373 0.061991304
-0.072210036 0.031304512 -0.06837054 0.03271473 0.046296082 0.050244242 0.045004647 0.036731064
-0.011391192 0.025378644 -0.04697989 0.02329596 -0.03930812 -0.012773706 -0.08743694 -0.034140952
-0.055997353 -0.044448834 -0.063538976 -0.08670553 -0.008753628 0.036485855 0.06387444 0.03163363
-0.058891095 -0.09826542 0.012886485 0.02888666 -0.09050211 0.014361806 0.05326325 -0.01170607
-0.060259826 0.055925753 0.02338805 0.038435996 -0.06974907 0.034454446 -0.0711057 0.063110545
-0.052127846 0.033018302 0.0012930012 0.0056728753 -0.029889757 0.01650759 -0.05083196 -0.09342941
-0.049132273 0.047500283 -0.03874798 0.009099672 -0.046758447 0.043484777 0.031146305 0.010622395
-0.057977017 -0.08483521 -0.014562408 -0.06412793 0.05168205 -0.09656554 0.01909338 0.064156905
0.023109399 0.01162182 -0.096285746 0.061372593 -0.01928999 -0.08344313 0.07450497 -0.041047767
-0.01193458 0.07032478 -0.06142621 -0.06350947 0.0094287945 -0.02463436 0.005806182 -0.08781521
-0.014154893 -0.052763395 -0.056531344 -0.09393428 0.024613803 -0.0026698506 -0.09620932 0.041183606
0.00045891225 -0.010196056 -0.08108455 -0.011139004 0.03304297 0.040664174 -0.078423955 0.057267144
-0.010123463 0.024938349 0.044261526 0.05455741 -0.08509697 0.05905944 -0.07285639 -0.00845105
-0.07430262 -0.03168066 -0.018521694 -0.024552127 -0.02970687 -0.0073152985 0.065158315 0.031673275
0.031117786 0.016639287 0.048515886 -0.016635684 -0.01142483 -0.0011415853 -0.08634062 -0.08083843
-0.0059824176 -0.04445046 -0.019330984 -0.03667685 -0.0029090848 0.03564875 -0.04367255 0.049330905
0.04904899 -0.08149412 -0.08089381 -0.078351125 -0.05995029 -0.050780915 -0.02429309 -0.033484578
-0.051166624 -0.04513498 -0.047796294 0.06861767 -0.047780126 -0.07496872 0.020930061 -0.023466364
0.047862194 0.035518408 0.06059326 -0.07844799 0.038912382 0.053060375 -0.057640996 0.06021368
0.045806047 -0.015892107 0.022610456 -0.046918347 -0.08721269 0.0038304683 0.0077524753 -0.07105928
0.024368271 -0.08744062 0.05714623 0.06425492 0.005439768 -0.067357786 0.028060941 -0.0019110199
0.0069366326 0.011158903 0.046142492 -0.053720236 -0.035039153 0.005621664 -0.008210552 0.051220097
-0.05974377 -0.019247565 -0.0007935577 -0.037140917 0.039681632 -0.0110645 -0.093095966 -0.026628166
-0.053217817 -0.010505123 -0.028056035 -0.09854757 -0.033590805 -0.024775608 -0.04249405 0.058383517
-0.03671563 0.03552733 0.0026804039 -0.0878639 0.0027080502 0.051270243 -0.07122159 -0.07176235
0.06412579 0.04844623 -0.0647688 0.03309392 -0.027725348 -0.0982996 -0.011127917 0.008605388
-0.04172952 0.011774235 -0.08929057 0.04102464 0.065187976 0.028826337 0.0008596586 0.020686243
00000000: 521f 033d fde8 eebc eb79 ab3c b024 81bd
00000010: 4fe9 ecb9 3e30 80bd cfac d03c 469e 4bbd
00000020: f378 0fbd cf33 b3bd 2f54 51bc bf6a 833d
00000030: 313e b63c e44c 77bd 90ad 6fbc f6bd b2bc
00000040: a7ab afbd 122b 443d 5e74 61bc 2850 493b
00000050: c13e 4abd 0ffe 5bbd 1049 94ba 768b 833c
00000060: 2a0b 6a3b 0e7e 5ebd 2f3f 863d d6ec acbd
00000070: 9532 fbbd 55a4 d6bd b434 fcbc a930 b8bd
00000080: 2d03 a9bd 16f2 d8bd 9dda 9dbd 2bd7 f9bd
00000090: 8398 a3bd ca66 093d b3e9 603d 98ea 7d3d
000000a0: dbe2 93bd 2939 003d db05 8cbd e1ff 053d
000000b0: f6a0 3d3d e8cc 4d3d cb56 383d 5073 163d
000000c0: 1fa2 3abc e0e6 cf3c fc6d 40bd 2bd7 be3c
000000d0: 8d01 21bd ce48 51bc 2312 b3bd 62d7 0bbd
000000e0: 7b5d 65bd fb0f 36bd b920 82bd ab92 b1bd
000000f0: 606b 0fbc 3172 153d 9ad0 823d 4492 013d
00000100: ca37 71bd 613f c9bd d621 533c b7a3 ec3c
00000110: 2c59 b9bd c84d 6b3c 912a 5a3d d1ca 3fbc
00000120: 02d3 76bd 6712 653d 4c98 bf3c 106f 1d3d
00000130: 9ad8 8ebd 1b20 0d3d de9f 91bd 1a40 813d
00000140: 0284 55bd 333e 073d ec79 a93a 87e3 b93b
00000150: 5ddb f4bc ed3a 873c 2c35 50bd eb57 bfbd
00000160: ec3e 49bd a88f 423d 34b6 1ebd ca16 153c
00000170: c985 3fbd 181d 323d 8926 ff3c 8e09 2e3c
00000180: 4f79 6dbd 15be adbd 2b97 6ebc 8155 83bd
00000190: 8fb0 533d 27c4 c5bd b869 9c3c b264 833d
000001a0: ec4f bd3c 7269 3e3c 7631 c5bd d461 7b3d
000001b0: 0b06 9ebc 3be4 aabd 1096 983d b421 28bd
000001c0: 4289 43bc 7006 903d 0d9a 7bbd 4111 82bd
000001d0: 3b7b 1a3c ffcd c9bc c941 be3b 76d8 b3bd
000001e0: ede9 67bc 6e1e 58bd 698d 67bd 9e60 c0bd
000001f0: e3a2 c93c a9f8 2ebb 6409 c5bd 24b0 283d
00000200: 299a f039 5c0d 27bc a80f a6bd 5e80 36bc
00000210: 1158 073d 7a8f 263d bd9c a0bd f490 6a3d
00000220: e2dc 25bc 824b cc3c 934b 353d 9777 5f3d
00000230: 5247 aebd 50e8 713d bb35 95bd 4676 0abc
00000240: f92b 98bd 94c3 01bd cfba 97bc 8b21 c9bc
00000250: d25b f3bc 2cb5 efbb b971 853d d6bb 013d
00000260: baea fe3c 1d4f 883c 98b8 463d 8f47 88bc
00000270: 362f 3bbc 3fa1 95ba 5ad3 b0bd 9e8e a5bd
00000280: 2808 c4bb af11 36bd 035c 9ebc 773a 16bd
00000290: 58a6 3ebb 6c04 123d fde1 32bd 340f 4a3d
000002a0: 98e7 483d 64e6 a6bd a7ab a5bd 8e76 a0bd
000002b0: 6f8e 75bd a6ff 4fbd 4d02 c7bc 2027 09bd
000002c0: 1894 51bd 75df 38bd 0cc6 43bd 6c87 8c3d
000002d0: 18b5 43bd 3389 99bd 8575 ab3c 883c c0bc
000002e0: 260b 443d c07b 113d a330 783d 57a9 a0bd
000002f0: 9762 1f3d d655 593d f718 6cbd 9fa2 763d
00000300: 1f9f 3b3d 2a30 82bc 9039 b93c 742d 40bd
00000310: 919c b2bd 9808 7b3b 7a08 fe3b 8787 91bd
00000320: f89f c73c 1114 b3bd 2a12 6a3d 1598 833d
00000330: 1540 b23b e1f2 89bd 0fe0 e53c 307b faba
00000340: b14c e33b d5d3 363c e9ff 3c3d c009 5cbd
00000350: 3785 0fbd f035 b83b 8d85 06bc 2acc 513d
00000360: e2b5 74bd 12ad 9dbc c106 50ba 1321 18bd
00000370: 3589 223d e047 35bc 19a9 bebd 5023 dabc
00000380: edfa 59bd ae1d 2cbc c5d5 e5bc 4fd3 c9bd
00000390: 8396 09bd 37f6 cabc 3e0e 2ebd 8e23 6f3d
000003a0: 2163 16bd 1b85 113d b7a9 2f3b fdf1 b3bd
000003b0: 8b79 313b bf00 523d a0dc 91bd 24f8 92bd
000003c0: 6254 833d 8e6f 463d 81a5 84bd 7e8d 073d
000003d0: 4520 e3bc 4d51 c9bd de51 36bc 9dfd 0c3c
000003e0: 93ec 2abd b9e8 403c f9dd b6bd 7409 283d
000003f0: 4681 853d 3625 ec3c b65a 613a 3276 a93c

conv.2.bias f4 [32]
0.0156069845 -0.036917068 -0.06900851 0.02438842 -0.04584939 0.031196697 -0.02489624 -0.018279947
-0.06571962 -0.035766695 -0.019277813 -0.08775868 -0.027584353 0.026266277 0.033924345 0.033700004
-0.038868077 -0.014149113 -0.08126349 0.022179196 -0.00673711 0.044776637 -0.024119737 0.050780155
0.019737804 0.044237778 -0.023327932 -0.07506058 -0.07844059 -0.079623975 -0.016333858 -0.07456037
00000000: 70b4 7f3c 5a36 17bd 5554 8dbd 39ca c73c
00000010: 92cc 3bbd 3790 ff3c 33f3 cbbc d4bf 95bc
00000020: 0298 86bd 1980 12bd 81ec 9dbc d3ba b3bd
00000030: 95f8 e1bc 602c d73c 41f4 0a3d 0409 0a3d
00000040: 2234 1fbd aed1 67bc 796d a6bd 25b1 b53c
00000050: fac2 dcbb b567 373d c196 c5bc dafe 4f3d
00000060: 2db1 a13c ac32 353d 381a bfbc 5db9 99bd
00000070: 76a5 a0bd e511 a3bd 95ce 85bc 1bb3 98bd

conv.4.weight f4 [64, 32, 3, 3]
-0.018345928 0.030796355 0.054514397 -0.013837617 0.041618112 -0.0035546352 -0.010967598 -0.0062353993
-0.025865907 0.017501669 0.0011464438 -0.027242266 0.038848665 -0.024864385 -0.038446378 0.021797994
-0.0021723385 -0.030991782 -0.04888061 -0.018432539 -0.045895167 0.031271644 -0.008117467 0.02957232
0.027905252 0.0039685117 -0.009850345 -0.03607884 0.007422221 -0.057970364 -0.03217077 0.043228034
-0.016024817 0.045735683 0.03243566 -0.015618221 -0.04395455 0.05079694 0.008444166 0.05916087
-0.049819022 0.015622874 -0.04729107 -0.0036756527 -0.048164427 -0.0555615 0.00021039412 0.05549195
0.0025635066 -0.008263069 0.052331436 0.0032387108 -0.035835598 0.034826282 0.042036857 0.05111456
0.046360478 0.055152744 -0.021450156 0.00888275 -0.02112373 -0.007439042 0.046997428 -0.04301137
0.035847627 -0.030421589 0.0038691382 -0.003376186 -0.02291631 0.00858717 -0.02618784 0.05705236
-0.021331798 0.037296783 -0.014035948 -0.04639386 0.045742806 -0.016270775 -0.024410963 0.004417617
-0.00060034543 0.01247076 -0.018417956 -0.021050354 0.028145319 0.02294041 0.04809008 0.0023929656
-0.019405577 -0.016567582 -0.00082178024 -0.008032662 -0.009200556 -0.0045916964 0.028914126 0.035041053
0.05694559 -0.046120282 0.05735119 -0.011828488 -0.057537843 0.038565643 -0.033364903 -0.026510121
0.019599942 0.009695487 0.040211283 -0.041072425 0.029994579 0.028676048 0.03456467 -0.021466762
0.008202581 0.01560345 0.05391352 -0.037422277 -0.055697728 -0.05463601 0.006342574 -0.046461657
-0.012196044 -0.028924374 0.009158838 -0.04294956 0.03505481 -0.05928098 -0.03281464 0.012365026
-0.05820353 0.013929892 -0.022032263 -0.030055556 0.041557517 -0.019181272 0.013582178 -0.021887105
0.02793254 0.053871725 0.056580402 -0.036505498 -0.05944658 -0.041327033 0.015779389 0.022850454
0.038639136 0.033278033 0.064970605 -0.036972366 -0.038484704 -0.010783018 0.053449944 -0.03753409
0.05185014 0.006715205 0.03318627 0.054026928 0.055606905 0.05468365 -0.017292976 -0.02680955
0.0229607 0.04729011 -0.0020473632 -0.017463095 -0.012752523 -0.024546102 0.024781896 -0.06181399
0.049493827 -0.0028110337 -0.03636826 -0.023209922 -0.038908176 -0.053954802 0.0036027045 -0.016324444
-0.029388472 -0.012557285 -0.011206982 0.022932548 -0.060202047 -0.013681833 -0.014400027 -0.0579435
0.04453913 -0.03876649 0.038732488 0.036911227 -0.008203063 0.035660367 -0.05273092 -0.014821564
-0.056986276 -0.04447656 0.010059526 0.035569668 -0.043520097 -0.032278143 -0.021474216 0.006415135
-0.037402015 -0.035217077 -0.0014167068 0.06803086 0.021565277 -0.013135987 0.050797828 0.042125553
0.03748719 -0.0022910975 -0.007830394 0.03525031 0.0286781 0.04416194 0.04028367 -0.018748863
0.05107551 0.012539507 0.059719384 0.05963366 0.05023539 0.039999846 0.04728906 -0.026858976
-0.022063881 -0.021291533 -0.03752387 0.03624493 -0.001961264 -0.022210041 -0.033333067 -0.05981272
-0.0029340556 0.045046262 0.03849432 0.046600476 0.040145367 0.024615308 -0.0017431012 -0.043649737
0.04348211 -0.04114575 -0.035128817 0.015987625 0.024717057 -0.03832114 0.029730001 -0.06270318
0.0064680334 0.018448766 0.0033901797 -0.040724065 -0.043560643 0.043334268 0.009220003 -0.028878523
00000000: 334a 96bc a348 fc3c 7d4a 5f3d 2cb7 62bc
00000010: c177 2a3d e2f4 68bb 71b1 33bc 5252 ccbb
00000020: bde4 d3bc a95f 8f3c 4544 963a 2c2b dfbc
00000030: c71f 1f3d 65b0 cbbc f379 1dbd b591 b23c
00000040: cb5d 0ebb 7ae2 fdbc 0937 48bd d6ff 96bc
00000050: 92fc 3bbd b216 003d 20ff 04bc a641 f23c
00000060: 8e99 e43c 4a0a 823b 5763 21bc 68c7 13bd
00000070: 1a36 f33b 5572 6dbd 7fc5 03bd e10f 313d
00000080: 7a46 83bc 5755 3b3d 41db 043d 91e3 7fbc
00000090: b009 34bd 7410 503d 6659 0a3c ab52 723d
000000a0: 080f 4cbd 15f7 7f3c 48b4 41bd 38e3 70bb
000000b0: 1048 45bd 7594 63bd 3e9d 5c39 874b 633d
000000c0: 8100 283b d361 07bc 7d59 563d 8d40 543b
000000d0: 59c8 12bd 01a6 0e3d d72e 2c3d 805d 513d
000000e0: 7ce4 3d3d d8e7 613d 3db8 afbc f488 113c
000000f0: ac0b adbc 35c3 f3bb 6080 403d b12c 30bd
00000100: f6d4 123d b236 f9bc 5e91 7d3b 0043 5dbb
00000110: fcba bbbc 34b1 0c3c e287 d6bc bcaf 693d
00000120: 06c0 aebc 83c4 183d 08f7 65bc 7d07 3ebd
00000130: cf5c 3b3d 4a4a 85bc 80f9 c7bc a8c1 903b
00000140: 8060 1dba 2952 4c3c 41e1 96bc cb71 acbc
00000150: 0391 e63c 87ed bb3c 1bfa 443d 4dd3 1c3b
00000160: 72f8 9ebc bdb8 87bc bd6c 57ba 6d9b 03bc
00000170: eebd 16bc f175 96bb 51dd ec3c 3587 0f3d
00000180: c73f 693d 9fe8 3cbd 15e9 6a3d 46cc 41bc
00000190: cdac 6bbd 02f7 1d3d a3a9 08bd c12b d9bc
000001a0: 0f90 a03c d2d9 1e3c 96b4 243d 8f3b 28bd
000001b0: 31b7 f53c 08ea ea3c af93 0d3d 10db afbc
000001c0: 1e64 063c 9da5 7f3c 6cd4 5c3d 1a48 19bd
000001d0: 4d23 64bd 02ca 5fbd 5ed5 cf3b 944e 3ebd
000001e0: ebd1 47bc cff2 ecbc f30e 163c e1eb 2fbd
000001f0: a295 0f3d 9dd0 72bd a568 06bd ae96 4a3c
00000200: d366 6ebd 343a 643c 017d b4bc 1237 f6bc
00000210: 3738 2a3d 0b22 9dbc c987 5e3c 964c b3bc
00000220: c8d2 e43c 99a8 5c3d dac0 673d ca86 15bd
00000230: 427e 73bd 8946 29bd c743 813c e030 bb3c
00000240: 1244 1e3d 8c4e 083d 4f0f 853d 5670 17bd
00000250: 23a2 1dbd 41ab 30bc 54ee 5a3d 59bd 19bd
00000260: d060 543d 390b dc3b 54ee 073d 574b 5d3d
00000270: 11c4 633d f7fb 5f3d 00aa 8dbc b49f dbbc
00000280: 1418 bc3c 46b3 413d 0e2d 06bb c40e 8fbc
00000290: f5ef 50bc e814 c9bc 6703 cb3c ab30 7dbd
000002a0: 0aba 4a3d 5239 38bb e2f6 14bd bc22 bebc
000002b0: 2e5e 1fbd b6ff 5cbd 5a1b 6c3b d7ba 85bc
000002c0: 18c0 f0bc 12bd 4dbc 7d9d 37bc 0add bb3c
000002d0: 6c96 76bd c429 60bc 17ee 6bbc 2a56 6dbd
000002e0: aa6e 363d 9cc9 1ebd f5a5 1e3d 3a30 173d
000002f0: 2466 06bc 9b10 123d 61fc 57bd 25d6 72bc
00000300: 716a 69bd 0e2d 36bd b6d0 243c 80b1 113d
00000310: 2142 32bd 1636 04bd b2ea afbc 0e36 d23b
00000320: db32 19bd c83f 10bd cbb0 b9ba c353 8b3d
00000330: aaa9 b03c 5338 57bc 6211 503d d88b 2c3d
00000340: 2b8c 193d 3d26 16bb 0e4b 00bc a162 103d
00000350: 56ee ea3c 27e3 343d 7d00 253d 3797 99bc
00000360: 8e34 513d 8172 4d3c 509c 743d 6d42 743d
00000370: a0c3 4d3d e1d6 233d 2cb2 413d 5b07 dcbc
00000380: 50bf b4bc 956b aebc a1b2 19bd 9075 143d
00000390: 8d88 00bb d5f1 b5bc 4188 08bd 2ffe 74bd
000003a0: 4949 40bb 6e82 383d 38ac 1d3d 24e0 3e3d
000003b0: 786f 243d 0ba6 c93c c578 e4ba 11ca 32bd
000003c0: 4c1a 323d 7288 28bd 3ce3 0fbd 7bf8 823c
000003d0: 6d7b ca3c a1f6 1cbd 558c f33c 866a 80bd
000003e0: ccf1 d33b de21 973c c72d 5e3b 47ce 26bd
000003f0: a56c 32bd 467f 313d 7f0f 173c a792 ecbc

conv.4.bias f4 [64]
0.021705287 -0.026156925 0.0054812618 -0.011189809 -0.04624522 -0.059861556 -0.012438391 0.028909124
-0.009158907 -0.045262825 -0.00431793 -0.061446343 -0.0031811413 -0.011127262 -0.00996114 -0.019682884
-0.0047752345 -0.0058360114 0.055807676 -0.0026401635 0.0073697013 -0.010904362 -0.014762308 -0.04931871
0.010338921 -0.022787102 -0.058174312 -0.027691573 -0.049953695 -0.04544956 -0.003572485 -0.014323511
-0.039020374 -0.04265947 -0.0055930773 0.02283678 0.010594921 -0.008160251 -0.067859225 0.030494137
-0.054041665 -0.051781055 0.025446463 0.0066898433 -0.0027597884 -0.0085321935 -0.028284034 -0.0014491153
-0.026882833 -0.0037254482 -0.048341043 -0.054417256 -0.010330292 -0.0077996505 -0.048997264 -0.025246881
-0.020341199 -0.0113856215 -0.04587854 0.02002929 -0.04067831 -0.002456832 0.013011202 -0.031625524
00000000: 49cf b13c 0c47 d6bc 289c b33b 7655 37bc
00000010: a16b 3dbd 6431 75bd 65ca 4bbc d4d2 ec3c
00000020: 3e0f 16bc 8365 39bd 6c7d 8dbb 29af 7bbd
00000030: b27a 50bb 1f4f 36bc 0d34 23bc 003e a1bc
00000040: 9279 9cbb 033c bfbb 9796 643d 9806 2dbb
00000050: 897d f13b 36a8 32bc 9cdd 71bc 6a02 4abd
00000060: 9464 293c 04ac babc 3048 6ebd 70d9 e2bc
00000070: 3f9c 4cbd 5129 3abd 5a20 6abb 29ad 6abc
00000080: d4d3 1fbd b2bb 2ebd 2246 b7bb 3314 bb3c
00000090: 5296 2d3c 93b2 05bc c7f9 8abd d7ce f93c
000000a0: cb5a 5dbd 5f18 54bd 1a75 d03c 7936 db3b
000000b0: 91dd 34bb 9dca 0bbc ebb3 e7bc 3ef0 bdba
000000c0: 6339 dcbc a626 74bb 4201 46bd a1e4 5ebd
000000d0: 6340 29bc 3694 ffbb 5bb1 48bd 8cd2 cebc
000000e0: 96a2 a6bc c28a 3abc 23eb 3bbd 7714 a43c
000000f0: 4d9e 26bd cd02 21bb f02c 553c c489 01bd

lin.2.weight f4 [128, 64]
0.053489342 -0.10572505 -0.08726683 0.06670022 -0.064863354 0.059987977 -0.11854671 0.021904334
-0.11782454 0.058555156 0.1155166 0.07217543 0.031096727 0.08406305 0.110903084 0.06839162
0.052588597 0.03849107 0.027081206 0.08395451 0.09884274 -0.03683512 0.023479536 0.067227155
-0.10318011 -0.095547065 -0.03446403 0.018211871 0.07967879 0.062407315 0.061704904 -0.027432382
-0.033599496 -0.12166771 -0.00072179735 -0.028110266 -0.0902247 0.061576262 0.076541394 0.037122235
-0.085696876 -0.029960379 -0.1085635 -0.020242438 0.059848785 0.09864254 -0.1016673 -0.025269493
-0.06112978 0.090188235 0.119147226 -0.11092518 -0.05335565 0.004219964 -0.11184502 -0.117599696
-0.07561749 0.09159531 0.02602005 -0.059036747 -0.017643645 0.11467822 -0.118230134 0.04895167
-0.004241377 -0.120851085 0.10879907 -0.057676002 0.09395778 0.009318128 0.028668106 -0.01810728
-0.10075201 0.062523946 -0.04299602 0.046919003 0.11785717 -0.036044404 0.014818102 0.0438879
-0.03932397 0.057686955 -0.078391954 0.07585174 -0.04702477 -0.0020871162 -0.042802542 0.013589472
0.088025436 0.024756685 -0.043791264 0.11740093 0.11384292 -0.05185923 -0.074234426 -0.08851501
0.021876156 0.11678539 0.039734706 0.046046212 -0.11801289 0.050247505 0.06699471 -0.038327336
-0.077873096 -0.015173897 -0.10750951 0.11500883 -0.07578096 0.1125036 -0.12400851 0.079683214
-0.052249 -0.09626539 0.035154477 0.11508626 -0.059588432 0.017547145 -0.08186242 0.08144963
0.11252791 -0.034075126 0.11975683 0.06469171 0.016869798 -0.053778753 0.086191475 0.0064299703
-0.05286503 -0.122968644 -0.12115377 0.124623656 -0.06605922 -0.093256965 0.07925677 -0.035757914
-0.093208075 0.025235295 -0.018476024 0.04822643 0.11614394 -0.03146781 0.07119018 -0.03492537
-0.041232973 0.04168865 -0.02793923 0.033580616 0.027836233 -0.10010518 -0.02929771 0.11278956
-0.0007674992 0.11850263 0.0944663 -0.03507927 -0.056534514 0.04123433 -0.02064155 -0.016136035
-0.008545086 -0.080728754 0.07868624 -0.0488452 -0.1018047 -0.09763698 -0.0797437 0.023052886
-0.120360434 0.046175525 -0.0770033 -0.0037191063 -0.030277982 -0.037449047 0.080659926 -0.042644694
0.042601943 0.085079744 0.061751917 0.053183332 -0.011718199 -0.06485215 -0.092291966 0.118733376
-0.113410994 -0.030527249 0.10588907 -0.023764014 -0.10497342 0.12304774 -0.032187283 0.05221431
0.040073648 -0.039928302 -0.098162256 -0.00067026017 -0.09920421 -0.06223841 -0.10146568 0.033273663
-0.09634556 0.06628571 0.11418024 0.05985552 0.07786308 0.020163361 0.09342004 0.12357918
0.02962502 0.054618258 0.061913144 -0.015569413 0.10006919 0.0065537053 -0.059232246 -0.09425801
0.01680541 -0.10046951 -0.11279836 0.12474391 0.101103246 -0.033795185 0.088419385 0.051278666
0.11291073 0.038124397 0.045051713 -0.112451255 0.055000063 -0.10012795 -0.097264364 0.051847912
-0.061173454 0.06987566 -0.03987027 0.0571737 0.10649531 0.018015606 0.113513365 -0.07773211
0.075560234 0.03326949 0.09195419 0.11498612 -0.013723441 0.025076367 -0.06308515 0.06059083
-0.0055513624 -0.056409348 -0.0646773 0.020809397 0.11274241 -0.106565975 0.06223169 0.08806467
00000000: a417 5b3d 6086 d8bd f4b8 b2bd 209a 883d
00000010: 14d7 84bd f4b5 753d 9ec8 f2bd b870 b33c
00000020: fe4d f1bd 88d7 6f3d f893 ec3d b6d0 933d
00000030: 90be fe3c 4029 ac3d 2821 e33d e810 8c3d
00000040: 2467 573d d0a8 1d3d 68d9 dd3c 58f0 ab3d
00000050: 106e ca3d 6ce0 16bd 2858 c03c 64ae 893d
00000060: 1850 d3bd 2eae c3bd 282a 0dbd 1031 953c
00000070: a22e a33d d09e 7f3d 48be 7c3d e0b9 e0bc
00000080: a09f 09bd ec2c f9bd 0037 3dba 8047 e6bc
00000090: bac7 b8bd 6437 7c3d bcc1 9c3d 7c0d 183d
000000a0: d881 afbd 786f f5bc 8a56 debd 78d3 a5bc
000000b0: 0024 753d 1a05 ca3d f236 d0bd f801 cfbc
000000c0: 3863 7abd 9cb4 b83d 7603 f43d be2c e3bd
000000d0: 748b 5abd a047 8a3b 000f e5bd 1cd8 f0bd
000000e0: 58dd 9abd 5296 bb3d 0028 d53c 84d0 71bd
000000f0: 6889 90bc 6adc ea3d a422 f2bd 8c81 483d
00000100: 40fb 8abb c680 f7bd 0cd2 de3d ac3d 6cbd
00000110: f06c c03d 10ab 183c 60d9 ea3c b855 94bc
00000120: 1257 cebd 8e0c 803d 981c 30bd 242e 403d
00000130: 1a5f f13d 4ca3 13bd a0c7 723c ccc3 333d
00000140: 2c12 21bd 2849 6c3d f68b a0bd 2858 9b3d
00000150: 0c9d 40bd 00c8 08bb b851 2fbd 60a6 5e3c
00000160: ae46 b43d 88ce ca3c 785e 33bd e66f f03d
00000170: 7a26 e93d 586a 54bd 3808 98bd 5c47 b5bd
00000180: a035 b33c 2e2d ef3d dcc0 223d f49a 3c3d
00000190: beb0 f1bd 54d0 4d3d 8634 893d 20fd 1cbd
000001a0: ee7b 9fbd f09b 78bc f22d dcbd c089 eb3d
000001b0: 0c33 9bbd 4a68 e63d 2cf8 fdbd f430 a33d
000001c0: 0c03 56bd ca26 c5bd 24fe 0f3d 58b2 eb3d
000001d0: 0013 74bd 08bf 8f3c 7ca7 a7bd 10cf a63d
000001e0: 0875 e63d 5c92 0bbd 1243 f53d 167d 843d
000001f0: 8832 8a3c 1c47 5cbd 2885 b03d 80b2 d23b
00000200: 0089 58bd fcd6 fbbd 781f f8bd b03a ff3d
00000210: 0e4a 87bd 82fd bebd 6051 a23d e476 12bd
00000220: e0e3 bebd 40ba ce3c 085b 97bc 1489 453d
00000230: e0dc ed3d 64e4 00bd 28cc 913d e80d 0fbd
00000240: e8e3 28bd b8c1 2a3d d0e0 e4bc d48b 093d
00000250: d008 e43c f203 cdbd c001 f0bc 36fe e63d
00000260: 0032 49ba 82b1 f23d 8c77 c13d 48af 0fbd
00000270: bc90 67bd 54e5 283d 7818 a9bc b82f 84bc
00000280: b000 0cbc 1e55 a5bd 4026 a13d e811 48bd
00000290: fc7e d0bd e6f5 c7bd aa50 a3bd 68d9 bc3c
000002a0: 887f f6bd 8c22 3d3d e8b3 9dbd 40bc 73bb
000002b0: 8809 f8bc 2c64 19bd 0831 a53d 34ac 2ebd
000002c0: 607f 2e3d 4a3e ae3d 94ef 7c3d c4d6 593d
000002d0: b0fd 3fbc 34d1 84bd 9203 bdbd 7c2a f33d
000002e0: 0644 e8bd 4814 fabc 5edc d83d c0ac c2bc
000002f0: 4efc d6bd 7400 fc3d d0d6 03bd acde 553d
00000300: 4424 243d dc8b 23bd 4b09 c9bd 66b4 2fba
00000310: 942b cbbd b4ed 7ebd 3dcd cfbd f749 083d
00000320: d250 c5bd cdc0 873d 54d7 e93d 102b 753d
00000330: ae76 9f3d a22d a53c 0253 bf3d 1517 fd3d
00000340: 2cb0 f23c 65b7 5f3d a398 7d3d da16 7fbc
00000350: 13f1 cc3d 77c0 d63b 839d 72bd 580a c1bd
00000360: 80ab 893c f5c2 cdbd d402 e7bd bc79 ff3d
00000370: 380f cf3d d26c 0abd 3915 b53d 9409 523d
00000380: be3d e73d 5428 1c3d 2588 383d d84c e6bd
00000390: bf47 613d e20f cdbd 8a32 c7bd 7a5e 543d
000003a0: 0491 7abd f81a 8f3d 024f 23bd f82e 6a3d
000003b0: 371a da3d 7795 933c b279 e83d 0332 9fbd
000003c0: 53bf 9a3d 9745 083d 7a52 bc3d d87d eb3d
000003d0: 49d8 60bc f46c cd3c ca32 81bd 172e 783d
000003e0: 34e8 b5bb 7d0d 67bd 8875 84bd 7878 aa3c
000003f0: 7ee5 e63d 433f dabd a8e6 7e3d 405b b43d

lin.2.bias f4 [128]
-0.051315933 -0.07729174 -0.029049352 0.0037840044 -0.04068099 0.031172175 -0.048010707 -0.047241047
-0.08142726 -0.057106227 0.05185644 0.085235976 -0.051103935 -0.0011683783 0.020425359 -0.06435998
-0.11166084 0.012275438 -0.11405128 0.006563632 0.085543625 -0.022453025 0.041574527 0.02177322
0.0026075046 -0.041520476 -0.056019586 -0.11402069 -0.07326445 0.017561259 0.0246927 -0.07105617
0.0041721454 -0.016346611 0.006752252 -0.06819965 -0.01885545 0.018235946 -0.00253735 -0.03362322
0.012274854 -0.083847046 -0.027588204 -0.10891232 0.04225378 -0.061753556 0.053151697 -0.03143801
-0.050085127 0.027812922 -0.087854296 0.0255939 0.063238166 -0.11648072 0.00096769584 -0.10973187
0.051115505 -0.07892159 -0.03744911 -0.061847106 0.006129668 -0.024040373 -0.10025141 -0.09336802
-0.017373892 -0.07743101 -0.0028857724 0.04443086 0.042520992 0.005193701 0.08039188 0.020845352
-0.019204035 -0.09353289 0.0043261466 -0.09255399 -0.022124484 -0.09907614 -0.07180899 -0.051798493
-0.014433509 -0.010548959 -0.019739155 -0.06198828 -0.1171041 0.027279135 0.048578396 0.01374064
-0.08392781 -0.10777868 -0.108248636 -0.087465525 -0.08225703 0.10006 -0.046884753 0.04452948
0.024077645 0.00299453 -0.12207961 0.03855758 0.07281757 -0.11650525 -0.08216545 0.01696653
-0.018439436 -0.08792111 -0.0068332353 -0.117437914 0.06022973 0.077619605 0.016565027 0.017153636
-0.077675104 -0.019617911 0.0044783177 0.0171059 0.031674895 0.015824044 -0.099543765 -0.07954033
0.06955277 0.015912386 -0.005131879 -0.00096221745 0.0183971 -0.12227018 -0.12037462 -0.06181547
00000000: a830 52bd 224b 9ebd e8f8 edbc 0ffd 773b
00000010: 1ca1 26bd ca5c ff3c e0a6 44bd d47f 41bd
00000020: 56c3 a6bd 38e8 69bd 6b67 543d 3390 ae3d
00000030: 5c52 51bd 4524 99ba 1553 a73c 2acf 83bd
00000040: 70ae e4bd eb1e 493c b893 e9bd bc13 d73b
00000050: 7f31 af3d 68ef b7bc 0d4a 2a3d c05d b23c
00000060: abe2 2a3b 6011 2abd cb74 65bd ae83 e9bd
00000070: ac0b 96bd a1dc 8f3c 5848 ca3c e685 91bd
00000080: 7eb6 883b 54e9 85bc ff41 dd3b 42ac 8bbd
00000090: bf76 9abc 8d63 953c ab49 26bb 80b8 09bd
000000a0: 781c 493c 00b8 abbd a800 e2bc 6c0d dfbd
000000b0: 4d12 2d3d 4cf1 7cbd 98b5 593d 25c5 00bd
000000c0: 1026 4dbd edd7 e33c f4ec b3bd 4caa d13c
000000d0: 0383 813d 728d eebd f8ac 7d3a 1abb e0bd
000000e0: 7e5e 513d a4a1 a1bd 3d64 19bd 6453 7dbd
000000f0: 62db c83b 51f0 c4bc 9c50 cdbd bc37 bfbd
00000100: b153 8ebc 2694 9ebd 3a1f 3dbb 22fd 353d
00000110: 7e2a 2e3d ec2f aa3b 7fa4 a43d dfc3 aa3c
00000120: c851 9dbc 2c8e bfbd 59c2 8d3b f28c bdbd
00000130: 683e b5bc 6ee8 cabd 9710 93bd a82a 54bd
00000140: 867a 6cbc 8ad5 2cbc 02b4 a1bc 6ce7 7dbd
00000150: 46d4 efbd 7e78 df3c 24fa 463d 6c20 613c
00000160: 58e2 abbd 12bb dcbd 76b1 ddbd 2021 b3bd
00000170: 6076 a8bd 42ec cc3d 3a0a 40bd 8b64 363d
00000180: 7b3e c53c e03f 443b e004 fabd 8eee 1d3d
00000190: 6121 953d 4e9a eebd 5c46 a8bd 64fd 8a3c
000001a0: 4d0e 97bc fc0f b4bd 55e9 dfbb 4a83 f0bd
000001b0: 73b3 763d 07f7 9e3d 61b3 873c c885 8c3c
000001c0: 2014 9fbd beb5 a0bc dabe 923b ac21 8c3c
000001d0: 89bd 013d 6da1 813c 9add cbbd 0ae6 a2bd
000001e0: af71 8e3d b15a 823c 5229 a8bb 523d 7cba
000001f0: 84b5 963c ca68 fabd f886 f6bd 3832 7dbd

lin.4.weight f4 [4, 128]
-0.042202722 -0.010150127 0.03827893 -0.015226254 0.0017748475 -0.08043716 -0.036727734 0.06920753
0.070351936 -0.02231738 0.032404006 0.040859908 0.08028418 -0.018607186 -0.038791787 -0.026363842
0.047676466 -0.016693441 0.04517264 -0.057073787 0.02867793 0.04978155 -0.03013526 0.055788584
0.050075408 0.0019281358 -0.02408674 0.0066526383 -0.04944449 0.009856645 -0.061089803 0.02971325
0.016969007 -0.08888012 -0.008807714 0.030984074 -0.052790172 0.004766003 -0.068762414 0.004706137
-0.031530224 -0.06509878 -0.0141495615 -0.042029183 -0.018365916 0.01006566 -0.014367005 0.0022236384
0.07066751 0.061530102 -0.045666058 -0.012625202 -0.0011085216 0.005925499 0.01740433 -0.033942185
0.021149708 -0.051286604 -0.034892246 -0.038771126 0.009906107 -0.00491171 -0.07573967 -0.06970382
-0.026068442 0.026567876 -0.08165144 -0.017087495 -0.030949323 -0.058553904 0.08137658 -0.06204045
-0.042156383 0.08543069 -0.06907684 -0.036045227 -0.048198853 -0.046390392 0.01831865 0.046090074
0.032296985 -0.010713016 0.012759733 -0.06499682 0.06651198 -0.06534506 0.027846621 -0.06068302
-0.03756126 -0.080418475 0.013150193 0.043944545 -0.061257407 0.028702272 -0.020451535 -0.0032030242
-0.047848027 -0.09748583 -0.012859091 0.037022885 -0.091553256 -0.057880424 -0.06705942 -0.01565381
-0.059343398 -0.04761617 -0.04775385 -0.05998058 -0.053910986 -0.022091415 -0.0692213 0.06434168
-0.0036727488 0.06359198 -0.017228594 0.042316373 -0.0105279535 -0.0134768635 0.08327644 -0.051072814
-0.023380611 0.021547053 -0.030210696 -0.036375493 0.0268357 -0.08044545 0.08090734 0.02248054
-0.012922779 0.07959884 -0.033253167 -0.07727062 -0.06308147 0.07033427 -0.047163513 0.025341779
-0.025520526 0.05671879 -0.031745687 0.065399125 0.06617101 -0.020652361 -0.030557182 0.012931988
-0.0418414 -0.038618024 -0.021704786 0.0075283926 0.015355971 -0.0018766988 0.004115557 -0.028795335
-0.056306325 0.0037874132 0.010110635 0.06895756 -0.0780514 0.003046111 -0.0229702 -0.023815379
-0.040430896 0.040433113 -0.034458153 -0.061075903 -7.1359677e-06 0.0038345607 0.07595494 0.018856235
0.065044455 0.022703625 -0.08133442 0.02349776 0.014124561 -0.02037166 0.03377408 -0.04183975
0.07993045 -0.03549547 0.086903654 0.039164957 0.0582883 -0.024075016 -0.05521329 0.06117051
-0.058667302 -0.070612796 -0.04209199 -0.067236654 0.005055546 0.016961034 -0.01852686 -0.025236152
-0.09516626 0.029682852 0.017423619 0.06888586 -0.053814117 0.05665813 -0.03875241 0.043741763
-0.023867033 0.07839695 -0.034875765 -0.08654655 -0.006758672 0.08267752 -0.08421078 0.013729058
-0.011748157 -0.012209055 0.026986787 -0.02963018 -0.06130258 0.07408348 -0.05169344 0.01620074
0.08607798 -0.009802923 0.03230267 0.070008956 -0.0016656294 -0.0063503613 -0.01472672 0.01592877
0.010546642 0.05025043 0.0010892451 -0.05178693 0.07044652 0.020633377 0.026906326 0.0026204768
0.056280073 -0.06339517 -0.01459785 -0.08311113 -0.004425934 -0.054214 0.04386586 -0.071991496
-0.0047696084 -0.062481772 0.018505506 0.0031852196 0.0031615247 0.045178868 0.07268912 0.08279749
-0.0235767 -0.013796956 0.055605616 0.044253927 0.014632034 -0.044958107 -0.06787496 0.051693775
00000000: c3dc 2cbd b84c 26bc 5eca 1c3d 8a77 79bc
00000010: 00a2 e83a 3dbc a4bd d26f 16bd adbc 8d3d
00000020: ad14 903d f0d2 b6bc 10ba 043d b85c 273d
00000030: 086c a43d 196e 98bc 23e4 1ebd fcf8 d7bc
00000040: 6648 433d afc0 88bc f206 393d 34c6 69bd
00000050: faed ea3c bde7 4b3d 39de f6bc 9282 643d
00000060: df1b 4d3d 80b9 fc3a 8e51 c5bc 60fe d93b
00000070: 4e86 4abd c47d 213c 4d39 7abd 3469 f33c
00000080: 9602 8b3c c806 b6bd 3b4e 10bc 50d2 fd3c
00000090: 823a 58bd 222c 9c3b 4fd3 8cbd f035 9a3b
000000a0: d625 01bd 8252 85bd 90d3 67bc cb26 2cbd
000000b0: 1e74 96bc 70ea 243c 9663 6bbc 76ba 113b
000000c0: 21ba 903d fd06 7c3d 550c 3bbd efd9 4ebc
000000d0: d04b 91ba b02a c23b 8793 8e3c f606 0bbd
000000e0: 2742 ad3c e711 52bd 2ceb 0ebd 79ce 1ebd
000000f0: 394d 223c 69f2 a0bb 661d 9bbd e0c0 8ebd
00000100: 7c8d d5bc e0a4 d93c df38 a7bd 13fb 8bbc
00000110: 6f89 fdbc 38d6 6fbd c4a8 a63d 201e 7ebd
00000120: 2cac 2cbd 49f6 ae3d 2978 8dbd 29a4 13bd
00000130: 296c 45bd da03 3ebd fe10 963c f2c8 3c3d
00000140: d849 043d a585 2fbc 330e 513c 0e1d 85bd
00000150: 6f37 883d a1d3 85bd 991e e43c c28e 78bd
00000160: d6d9 19bd 71b2 a4bd e873 573c 32ff 333d
00000170: 0ce9 7abd 0721 eb3c fa89 a7bc d4e9 51bb
00000180: 4bfc 43bd a7a6 c7bd f0ae 52bc 4fa5 173d
00000190: 4680 bbbd 0614 6dbd 7356 89bd 6b3c 80bc
000001a0: 1012 73bd 2c09 43bd 8b99 43bd 32ae 75bd
000001b0: c4d1 5cbd 0ef9 b4bc e6c3 8dbd 92c5 833d
000001c0: 80b2 70bb 833c 823d fb22 8dbc ef53 2d3d
000001d0: 707d 2cbc 10ce 5cbc d78c aa3d ba31 51bd
000001e0: b288 bfbc 7283 b03c 6c7c f7bc 78fe 14bd
000001f0: 8bd6 db3c 96c0 a4bd bfb2 a53d 1c29 b83c
00000200: 10ba 53bc b704 a33d 7934 08bd 0f40 9ebd
00000210: dc30 81bd 6a0b 903d 872e 41bd 9099 cf3c
00000220: 6c10 d1bc f651 683d c407 02bd faef 853d
00000230: ab84 873d 242f a9bc 0e53 fabc b0e0 533c
00000240: e361 2bbd ef2d 1ebd 3cce b1bc bcb0 f63b
00000250: 9c97 7b3c 90fb f5ba cbdb 863b 32e4 ebbc
00000260: 76a1 66bd 4036 783b 14a7 253c 9f39 8d3d
00000270: 6ad9 9fbd 43a1 473b 002c bcbc 7818 c3bc
00000280: de9a 25bd 319d 253d fe23 0dbd ba2a 7abd
00000290: 7f71 efb6 414d 7b3b 438e 9b3d 6478 9a3c
000002a0: 0736 853d f4fc b93c a992 a6bd 607e c03c
000002b0: b46a 673c 78e2 a6bc b156 0a3d 2860 2bbd
000002c0: 93b2 a33d b363 11bd 8bfa b13d 6f6b 203d
000002d0: b6bf 6e3d f838 c5bc 5527 62bd ee8d 7a3d
000002e0: 204d 70bd 719d 90bd a768 2cbd 5fb3 89bd
000002f0: fea8 a53b def1 8a3c a4c5 97bc 0cbc cebc
00000300: 87e6 c2bd 7429 f33c fabb 8e3c 0814 8d3d
00000310: 316c 5cbd 5b12 683d d9ba 1ebd 902a 333d
00000320: cc84 c3bc 958e a03d e4d9 0ebd 513f b1bd
00000330: da77 ddbb d552 a93d b476 acbd d8ef 603c
00000340: 587b 40bc 7d08 48bc 6513 dd3c feba f2bc
00000350: 6a18 7bbd 14b9 973d 80bc 53bd 6ab7 843c
00000360: a749 b03d 709c 20bc ce4f 043d db60 8f3d
00000370: 4051 daba b116 d0bb 5748 71bc 0d7d 823c
00000380: d3cb 2c3c 65d3 4d3d 00c5 8e3a 881e 54bd
00000390: 4446 903d 5407 a93c a86a dc3c 4ebc 2b3b
000003a0: ef85 663d 54d5 81bd d22b 6fbc 2b36 aabd
000003b0: 6d07 91bb 800f 5ebd b0ac 333d 4770 93bd
000003c0: 604a 9cbb e3ec 7fbd dc98 973c 1ebf 503b
000003d0: 9531 4f3b 7a0d 393d 09de 943d bb91 a93d
000003e0: ec23 c1bc a10c 62bc b7c2 633d 9b43 353d
000003f0: 33bb 6f3c fe25 38bd 0702 8bbd dabc 533d

lin.4.bias f4 [4]
0.0037664897 -0.01766189 -0.014971405 0.03253726
00000000: 36d7 763b abaf 90bc a04a 75bc ca45 053d
