snapshots.pth (torch, 406016 bytes, 30 tensors)

conv.0.weight f4 [16, 7, 3, 3]
00000000: e444 c53d 6829 d63d 9cca f1bc 0606 ed3d
00000010: bc22 e2bc 6844 d03c 863d 7bbd 6a88 973d
00000020: 8275 e33d 224b bdbd f445 e03d 882a c13c
00000030: 56a1 be3d f8c6 8b3c fcd4 783d f8b8 91bc
00000040: 28e8 c63d 888d 983c 5ce9 70bd 248a 033d
00000050: 12c3 6dbd d012 72bc d498 51bd 5c2a ab3d
00000060: 1ead cbbd 3ae7 6dbd 02b8 11bd 8024 9bbd
00000070: 20d3 423c 3cd8 febd 0a06 e93d d72e dbbd
00000080: 8e33 c73d a8c2 ab3c 1e90 27bd 1e72 9f3d
00000090: 50da a03c 4679 d03d 10a8 613c 5ebf 22bd
000000a0: 4ca7 0a3d 04f1 0bbd b82e 593d 8c5e e63d
000000b0: 3027 953d 0e9a 61bd b0f2 943d 38ab b83c
000000c0: 9408 833d 4c44 9dbd 7e6b ffbd 6061 47bd
000000d0: fde8 c5bd f0b7 d33d 4ca3 143d fcc0 553d
000000e0: b034 233d 60a2 0fbb 78ee c93d 5254 b7bd
000000f0: 10f8 013c 901c b0bd d01f 1f3d b6b7 31bd
00000100: 1820 1e3d 3807 d7bc b600 d63d 61ee 98bd
00000110: 85e2 99bd e6e4 99bd de13 e83d 30f9 2b3d
00000120: 9648 f83d ddf0 d4bd 77ed ffbd 51de c9bd
00000130: dc91 adbd 1c05 513d bcc8 383d f265 d63d
00000140: 0040 85bd d8e5 afbd dae6 883d b696 50bd
00000150: cc99 9c3d b4ea f4bc f899 933d e879 c8bd
00000160: 2c36 82bd ac54 1d3d 5031 da3c 2292 03bd
00000170: d2cc 993d 2c68 af3d a81c bbbd 2cc0 89bd
00000180: 3443 ec3d 9621 2ebd 82f2 36bd 92a9 f9bd
00000190: 34c3 93bd 18e9 003d c03a 88bc bb4b bbbd
000001a0: 40ad 413b 5240 b0bd 0fe8 dabd 8415 8ebd
000001b0: 54d3 e1bd 264b a4bd 20f6 003e d8ef c23c
000001c0: 6806 1f3d 9aa7 f0bd 9676 a9bd f8c4 2bbd
000001d0: d063 a13c 640a e3bd d859 5ebd 8078 9abd
000001e0: 000e b739 de05 40bd 280a 0fbc 34d8 aebd
000001f0: 331b b1bd 1288 96bd 48a4 30bd 39a7 cbbd
00000200: 5a58 d83d 70d5 ccbc b600 de3d 88ca 203d
00000210: 657e dabd c08f b23d e0fc 0dbd 80d0 45bd
00000220: 8a2d d6bd 2f42 00be 8ca5 133d 7074 e1bc
00000230: c4e8 483d 2bc0 d3bd 7890 bf3d 3e67 bdbd
00000240: 1c37 b2bc c892 d73c 8a34 853d 244e d03d
00000250: 920c eb3d be97 ccbd 4cdf 013d 26f7 5dbd
00000260: 3034 62bc d220 c1bd ee05 eb3d 6c60 bdbd
00000270: b0e6 893d 085c 353d 54b1 273d e37f 8bbd
00000280: f487 ea3d a8cd e23c d0c4 843c 7962 e3bd
00000290: 7ca1 583d e4d5 9abc f469 6cbd eca0 dd3d
000002a0: b81a e63c 2ac2 8ebd 8a98 82bd 6027 c5bb
000002b0: 0a12 903d 1ade 03bd cc38 93bd 80b7 30bd
000002c0: 57c3 c0bd 100a 383d 84b8 c73d f9e9 f2bd
000002d0: 68b4 ef3c fe4a 853d 3026 bb3c f8c6 37bd
000002e0: 68ac 863d 4a98 873d d8f6 403d 785c b5bc
000002f0: 68a6 08bd 30d4 5c3c e452 b6bc 5ec8 19bd
00000300: 38ee a43d d8be dd3d 7059 4cbc 3415 e7bc
00000310: 80f8 f03a 907f f6bb 9820 f83c 249d 103d
00000320: 105a eabd e670 3ebd 164a d93d 6407 493d
00000330: f055 cdbb 6290 9bbd 38dc 9dbd 0e21 e7bd
00000340: 4c36 28bd 7c45 2e3d 8285 a43d fc41 6e3d
00000350: 1c14 e4bd 722a 9bbd bce1 a2bc 6299 f93d
00000360: e04c 953c 26a4 05bd 287f 553d 908d 44bd
00000370: e001 a7bd 0854 bc3d d0a5 6abd 98e6 cebc
00000380: 7057 00be 0eb0 ac3d dc7c c33d 9412 3c3d
00000390: cee9 b3bd 68a7 febd bc8f d1bd 8a68 c03d
000003a0: e4c1 773d ce20 d93d be2b 873d 8c9b 023d
000003b0: 40b6 a1ba 863a c4bd 4c11 ddbd 9757 f1bd
000003c0: 0c40 533d e05c 7dbd 38b6 cfbc 787e 94bd
000003d0: 7012 bcbc 2a9b b5bd c598 a8bd b42d 2b3d
000003e0: 125e 19bd 084a 9f3d 748d 25bd 1c47 bdbd
000003f0: 0c1a b6bc 1627 7abd 60e1 1dbd 31a3 f5bd
0.096322805 0.10457116 -0.029515557 0.115734145 -0.027604453 0.025423244 -0.06133797 0.07399066
0.11106397 -0.09242846 0.109508425 0.02357985 0.09308116 0.01706265 0.060749993 -0.017788395
0.09712249 0.018622175 -0.0588163 0.032114163 -0.05804736 -0.014774993 -0.05117114 0.08357689
-0.09945129 -0.058081843 -0.035575874 -0.07575321 0.011891156 -0.12443587 0.11378105 -0.10702293
0.0972663 0.020966843 -0.040908925 0.07785438 0.01963535 0.10179381 0.013772979 -0.039733283
0.033850953 -0.034165397 0.05302307 0.11248502 0.07282865 -0.05507856 0.072728515 0.022542581
0.063981205 -0.07679042 -0.124716744 -0.04867685 -0.096635796 0.10337818 0.036288545 0.052185997
0.03984517 -0.0021916851 0.098599374 -0.0895163 0.007932678 -0.08599198 0.0388487 -0.04338809
0.038604826 -0.02624856 0.10449354 -0.07467342 -0.07513908 -0.07514362 0.11331914 0.04198569
0.1212322 -0.103975035 -0.12496465 -0.098568566 -0.08475086 0.051030263 0.04511331 0.10468663
-0.06506348 -0.08588761 0.066846564 -0.05092498 0.07646522 -0.029897071 0.072071016 -0.09788877
-0.06357989 0.038410828 0.026634842 -0.032121785 0.075097695 0.08564791 -0.09136325 -0.06726107
0.115362555 -0.0425125 -0.044664867 -0.12190546 -0.072149664 0.031472296 -0.016629577 -0.09145304
0.0029552728 -0.08606018 -0.10688793 -0.069376975 -0.11026636 -0.08022146 0.12593889 0.023796007
0.03882447 -0.117507175 -0.082745716 -0.04193589 0.019700915 -0.11085966 -0.0542849 -0.07542515
0.0003491491 -0.046880595 -0.008730449 -0.08537331 -0.08647766 -0.07350172 -0.04312542 -0.099440046
0.10563727 -0.025004119 0.10839979 0.03925565 -0.10668639 0.087188244 -0.03466499 -0.048294544
-0.10457905 -0.12525247 0.03604655 -0.027521342 0.049050108 -0.103393875 0.09353727 -0.092482075
-0.021754794 0.026315108 0.06504162 0.10171154 0.11477007 -0.0998988 0.031707093 -0.054190777
-0.013806388 -0.09430088 0.114757404 -0.09246907 0.06733453 0.04427722 0.040940598 -0.06811502
0.11451712 0.027685955 0.016207129 -0.111027665 0.05288838 -0.01890082 -0.057718232 0.10821709
0.028088912 -0.069706276 -0.06376751 -0.0060166568 0.07034691 -0.032194234 -0.071885675 -0.04314375
-0.09412258 0.04493147 0.097519904 -0.11861033 0.02926083 0.06508444 0.022845358 -0.044867486
0.06575853 0.06620844 0.04711041 -0.02213882 -0.033361822 0.013478324 -0.022256322 -0.0375446
0.08053249 0.10827416 -0.012472495 -0.028208353 0.0018384606 -0.007522531 0.03028898 0.03530611
-0.11442959 -0.046494387 0.10609834 0.049079314 -0.006266348 -0.07595898 -0.07708019 -0.112856016
-0.041067407 0.042546734 0.08033277 0.058168396 -0.11136648 -0.07576455 -0.01988303 0.121874586
0.018225133 -0.032627247 0.05212322 -0.047986567 -0.081546545 0.09195715 -0.057287037 -0.02525644
-0.12533355 0.08432017 0.095452994 0.045916155 -0.08784829 -0.12434274 -0.10232493 0.09394939
0.060487643 0.1060196 0.0660014 0.031886622 -0.001233764 -0.09581475 -0.10794315 -0.117842846
0.05157475 -0.06185615 -0.025355443 -0.072506845 -0.02295801 -0.08867486 -0.082322635 0.041791633
-0.037443228 0.07777792 -0.040418103 -0.09242079 -0.022229217 -0.06107243 -0.038545012 -0.11994017

conv.0.bias f4 [16]
00000000: 5085 57bd b42b 0bbd b41b 063d 25cc d0bd
00000010: 3b2d 9cbd 00f5 f03a 1088 8f3c 2c81 8e3d
00000020: 4a3f b5bd 84b8 243d 76a8 923d 3445 8f3d
00000030: 3154 f0bd 06ed 44bd d0c9 ddbd c647 a3bd
-0.05261737 -0.033977225 0.032741264 -0.101951875 -0.076258145 0.0018383563 0.017520934 0.06958231
-0.08849962 0.04021503 0.071610376 0.06995621 -0.11734808 -0.048077606 -0.10829508 -0.07972674

conv.2.weight f4 [32, 16, 3, 3]
00000000: ea1d 3e3d c8de 4bbc d8f7 103d 665d 48bd
00000010: d879 4f3c 4b75 4ebd 3aa1 2a3d c34a 15bd
00000020: 562f abbc 6413 94bd 0055 9039 6d0b a23d
00000030: feac 253d 861d 36bd 40e5 923a e8b4 15bc
00000040: 3b66 89bd 77d1 853d c014 b03a 80c4 8f3c
00000050: 1ed7 09bd 66b7 1fbd 1821 613c ac63 fc3c
00000060: ec1e 993c 0081 24bd 2db3 a53d a8fb 48bc
00000070: a609 51bd 5ba5 1fbd 0102 a83d 00c0 8636
00000080: 0856 39bc c60c 0ebd 3cf5 b2bc 87bd 8fbd
00000090: 40a0 87bd 62c7 473d 29ff 913d 05de a23d
000000a0: 486c 76bd 5a9d 383d 2046 53bd 3aa0 4b3d
000000b0: 624a 763d f112 843d 0ac7 753d 6e87 553d
000000c0: 4098 d43a 30d6 1c3d 003d f4bc e0a0 143d
000000d0: 1069 dbbc 0068 b7ba 6f8b 94bd 0080 b2bc
000000e0: 7b7f 33bd 1647 e6bc 8bf8 59bd 5281 99bd
000000f0: c0cf b13b aa84 5d3d 416f 9b3d be2f 473d
00000100: 03ed 30bd 7fca a8bd f278 013d fa40 3f3d
00000110: f784 92bd 74cb f43c 774b 903d 106a a53b
00000120: a8a3 4dbd f1ec 8b3d 38c1 113d 0608 623d
00000130: bbd6 66bd 2ea3 463d e327 69bd abdf a83d
00000140: 739f 10bd 1ead 4d3d c0b2 883c f0e9 b43c
00000150: 7861 51bc 9a32 0c3d 1642 0ebd ebdd a0bd
00000160: 2e24 03bd 53b9 853d b6b9 b3bc 2093 d63c
00000170: 6066 fcbc 8506 803d e248 4c3d 9cfd f03c
00000180: fe79 2ebd f374 8bbd a09d 4d3b f03e 48bd
00000190: 3152 8c3d ac01 a4bd f287 183d d723 aa3d
000001a0: 0ef3 2a3d 5cc6 e83c d434 a4bd c129 a43d
000001b0: 7889 69bc ee78 9fbd cd79 a83d 26e6 0abd
000001c0: 3030 c1bb 2d35 9c3d ce9c 6cbd 6b7d 71bd
000001d0: e006 5e3c 58c1 36bc 243f 9d3c 9823 8fbd
000001e0: 8054 233b b3cf 17bd 70cd 27bd ca44 9cbd
000001f0: 32fb 343d ac81 833c fb49 90bd d16e 873d
00000200: 10e8 cd3c 085b 7d3c c368 48bd 00e6 4d3c
00000210: b771 a43d 821d 6a3d 5ced 84bd c5c9 9b3d
00000220: 40a7 d33b 602b 243d 818d 843d b17e 913d
00000230: 660a 85bd 5772 953d 36d3 67bd 10b5 cc3b
00000240: e682 6ebd cca9 95bc 802d 78bb 9857 23bc
00000250: 98b0 57bc 805e d73b 4b59 a83d 9251 463d
00000260: 3af7 3e3d 289e 083d 7d20 843d 0009 7cbb
00000270: 101f d93b a47d 8c3c f7d7 94bd 527b 89bd
00000280: 4864 273c f88b 05bd c06d c8ba d4a4 9cbc
00000290: 1888 543c aa13 5e3d a066 e2bc 23ae 883d
000002a0: 7bc0 863d 82fc 82bd 14cb 83bd 0615 8abd
000002b0: be0e 3bbd 7bdf 04bd 3089 cdbb ec04 a6bc
000002c0: 4b75 2cbd fce0 d8bc 70f3 f6bc 376e a73d
000002d0: 1604 fdbc 1e65 74bd 36e4 0d3d 40ba 9dbb
000002e0: 01a8 823d b646 553d e1cb 9c3d 8efa 79bd
000002f0: 426e 5b3d e73a 8f3d a88f 28bd 95df 9c3d
00000300: cee0 7f3d 803b 6f3a 2093 243d ccac eebc
00000310: 4bda 94bd 8490 ac3c 2c85 cb3c db14 5fbd
00000320: ea8b 253d 8fc9 91bd 3de1 923d 9f45 a53d
00000330: 9cdc b93c 9029 56bd fa1d 263d a0ac 683c
00000340: 40a1 b93c 545c e03c 21f0 813d a3b7 12bd
00000350: 0090 99bc d02a ba3c a8c4 143c 2d9f 893d
00000360: 0b48 33bd 20e2 46bb e81d 7f3c 0c4f b5bc
00000370: 52b1 683d a057 153c 3abc 9dbd 20ea 13bc
00000380: 68d0 1abd c8ab 043c 68ac 1ebc 444a a9bd
00000390: 60cc 78bc 48c5 02bc c04d c9bc 21ce 9c3d
000003a0: 10f5 94bc 4647 5b3d d01b a93c be10 90bd
000003b0: cc6a a03c 0370 8d3d 3044 5fbd 1ba1 5cbd
000003c0: 910e a73d e321 893d 866d 3ebd 4a65 4d3d
000003d0: 80ab 2ebc ea43 a8bd 102a cd3b c490 dc3c
000003e0: f6c5 ccbc 0c7d ed3c eeef 91bd aa8c 6c3d
000003f0: cb7f 913d e63b 3c3d 8069 673c e4d5 e03c
0.046415247 -0.012443252 0.035392612 -0.048917197 0.012663327 -0.050404828 0.041657664 -0.03644825
-0.020896595 -0.07230261 0.0002752915 0.079123355 0.04044818 -0.04446175 0.0011207238 -0.00913737
-0.06708952 0.06534093 0.0013433918 0.017549753 -0.033652417 -0.03899326 0.0137408 0.030809246
0.018691503 -0.040162086 0.08090816 -0.012267031 -0.051034592 -0.038976055 0.08203507 4.015863e-06
-0.011312015 -0.03468015 -0.021845452 -0.07018571 -0.06622362 0.04877413 0.07128746 0.07952503
-0.06016186 0.045071937 -0.05158055 0.04971335 0.06012953 0.06448925 0.06000427 0.05213111
0.001621969 0.038290203 -0.029814243 0.036286235 -0.026783496 -0.0013992786 -0.07253157 -0.02178955
-0.043822747 -0.028110068 -0.053215545 -0.07495369 0.005426377 0.054081596 0.075895794 0.048629515
-0.043194782 -0.08241748 0.031609483 0.046692826 -0.07154267 0.02988217 0.07045644 0.005048044
-0.050204903 0.06832302 0.03558466 0.055183433 -0.056357127 0.048495464 -0.056922805 0.08245786
-0.035308313 0.050213926 0.016686797 0.022084206 -0.012779586 0.034227945 -0.034730993 -0.078548275
-0.032016926 0.065294884 -0.02193914 0.026193202 -0.030810535 0.062512435 0.049874194 0.029417805
-0.04259681 -0.06809416 0.003137447 -0.048888147 0.06851614 -0.080081314 0.037239023 0.08307617
0.0417357 0.028414898 -0.08017889 0.080157764 -0.0142539665 -0.077867374 0.08226357 -0.033910893
-0.005895637 0.0762733 -0.057766728 -0.0589575 0.013551444 -0.011154495 0.019195147 -0.06989211
0.0024922192 -0.03706331 -0.040967405 -0.07630308 0.04418487 0.016053043 -0.07045361 0.066129334
0.02513507 0.015463598 -0.048928034 0.012567043 0.08029502 0.057157047 -0.06490585 0.07606844
0.0064591467 0.040080428 0.06472302 0.071042426 -0.06496124 0.07297199 -0.05659791 0.0062471703
-0.058230303 -0.018269442 -0.0037868917 -0.009969614 -0.013164662 0.0065725446 0.08220156 0.048417635
0.046622492 0.033353955 0.06451509 -0.0038457513 0.0066260174 0.017149754 -0.072677545 -0.067129746
0.01021678 -0.032604188 -0.0015291497 -0.019121565 0.0129719 0.05421797 -0.027636826 0.06673839
0.065796815 -0.06395818 -0.064352185 -0.06742291 -0.045668356 -0.03243969 -0.0062724575 -0.020266019
-0.042104047 -0.026474468 -0.030145377 0.08175319 -0.030885737 -0.059666745 0.034641467 -0.0048134625
0.063797005 0.05206939 0.07656074 -0.061029963 0.053571947 0.069936566 -0.041152626 0.076598324
0.06247025 0.00091259927 0.04017937 -0.02913513 -0.072681986 0.021065004 0.024843775 -0.05446325
0.040416636 -0.071185224 0.07171867 0.0806992 0.022688203 -0.05228573 0.04055593 0.014201313
0.022659898 0.027387775 0.06344629 -0.03581966 -0.018745422 0.022725493 0.00908009 0.067198135
-0.043769877 -0.0030347183 0.015571095 -0.022132419 0.05680973 0.00911513 -0.07701917 -0.009027988
-0.037796408 0.0080975965 -0.00968466 -0.08266118 -0.015185446 -0.007981606 -0.024573207 0.076565035
-0.018183261 0.05353477 0.020643145 -0.07034443 0.019582175 0.0690613 -0.054508388 -0.05386458
0.08157075 0.066959165 -0.04649117 0.050145425 -0.010661006 -0.082160786 0.0062611178 0.026924498
-0.024996739 0.028990291 -0.07125841 0.057751335 0.07104453 0.04595556 0.014124274 0.027445741

conv.2.bias f4 [32]
00000000: 3856 143d 1cbf 9dbc a014 89bd 62c4 783d
00000010: 2629 febc 5ed0 543d 4033 89bc 0049 b53a
00000020: 0298 86bd 0e09 02bd 104e e13b aeee a4bd
00000030: 747c 8cbc e254 463d 92e7 6f3d 6e6c 7b3d
00000040: 1c30 d0bc 40f3 d63b aaf3 88bd 92d0 303d
00000050: a0bd 713c 3fda 8e3d e866 54bc 7139 a33d
00000060: b61b 293d 23a6 913d 00b6 b1bb dbe8 85bd
00000070: 53d8 85bd 72eb a0bd 80f0 623c c6f9 83bd
0.036215037 -0.019256167 -0.06693387 0.06073416 -0.03102548 0.051956527 -0.01674807 0.001383096
-0.06571962 -0.031746916 0.006875761 -0.08053337 -0.017149188 0.048420794 0.058570452 0.061382703
-0.025413565 0.0065597594 -0.066871 0.04316766 0.014754683 0.06975221 -0.012963988 0.079699405
0.041286193 0.07111766 -0.0054233074 -0.06538554 -0.06535401 -0.07857408 0.013851285 -0.06444125

conv.4.weight f4 [64, 32, 3, 3]
00000000: 2eaf 9dbc 6e4a f53c bd6a 5b3d 4022 72bc
00000010: f31a 273d 8050 92bb 0033 41bc 7881 e4bb
00000020: 3ce1 dabc 561e 843c 003c a7b9 4332 ebbc
00000030: bb84 193d 18a6 d7bc a477 23bd ca92 a73c
00000040: 2023 6dbb 95dd 04bd 6e07 45bd a0a0 90bc
00000050: f7cc 38bd 3546 033d 2882 f0bb a6a0 f83c
00000060: 8af8 ea3c 6886 9b3b 48a5 14bc a8f5 f8bc
00000070: 5459 593c 89df 51bd 6839 ebbc c379 403d
00000080: 7463 3bbc c1b5 423d 33ed 0e3d 0485 4bbc
00000090: af44 42bd 75d5 413d 18a9 a23b ef17 643d
000000a0: c249 5abd 44f3 463c dcf3 4fbd 586e eabb
000000b0: e08d 53bd edad 5bbd e0cf 423b 51f3 6d3d
000000c0: 18f3 933b 88e3 b2bb 15fb 603d 88bf b03b
000000d0: 44c4 06bd 277a 193d b338 2c3d 3948 513d
000000e0: 35cf 3d3d dd5b 603d 2008 b3bc 8cd1 0a3c
000000f0: 3425 b0bc 4c82 00bc 45d2 3e3d 8cb4 3ebd
00000100: e5e4 033d 0074 0bbd 006b a939 b8e4 e5bb
00000110: 006e d9bc c8a7 a43b 6286 f4bc 199c 5a3d
00000120: 06c0 aebc 83c4 183d 08f7 65bc 7d07 3ebd
00000130: cf5c 3b3d 4a4a 85bc 80f9 c7bc a8c1 903b
00000140: 8060 1dba ca36 883c d83d 6abc 0446 8bbc
00000150: 530e 043d 8640 dd3c ef55 553d 0818 d53b
00000160: a09f 7abc 70ae 4dbc 40bd 44bc 548d 98bc
00000170: 44be a4bc d601 88bc f293 913c b6ff be3c
00000180: 63b4 373d c6df 6abd 4f2a 3b3d 1482 42bc
00000190: 3cda 6bbd 93c9 1d3d 12d7 08bd a286 d9bc
000001a0: 2e35 a03c 0424 1e3c 2787 243d fe68 28bd
000001b0: 191f 033d d69a fb3c 8965 153d 40ab a0bc
000001c0: 8cf6 233c f615 8e3c 5992 633d eaaa 12bd
000001d0: 189d 5dbd fa48 5abd d8ba ff3b b36f 37bd
000001e0: f4b7 32bc 74a7 e1bc 74e3 2e3c 0808 2bbd
000001f0: 2bd7 143d b01b 6dbd 263b 04bd d437 473c
00000200: c865 6dbd 4cf6 6d3c b897 b4bc 44cc f3bc
00000210: 7303 2d3d dcdd 9bbc fc39 643c 1264 babc
00000220: 3ed1 e13c 2bcc 5b3d 91b0 673d 7cff 11bd
00000230: d3eb 6fbd 15c7 28bd 2afc 873c 9ac9 c13c
00000240: c287 fd3c ee9d d13c 95cc 6a3d 5007 37bd
00000250: 8538 3dbd f829 97bc e955 3b3d 2c55 39bd
00000260: 31f5 343d 0ca4 203c 094c 153d 4320 6f3d
00000270: ebeb 6a3d d3b4 673d 50eb 6cbc f2fb cdbc
00000280: 5aee cc3c 43d3 4d3d 804c c03a c088 64bc
00000290: 0426 1cbc 964c acbc 9ac8 e73c fb0c 70bd
000002a0: 8f60 4d3d c0d0 0dbb 5c50 12bd ea2f acbc
000002b0: 9328 14bd c9b8 51bd f849 c23b 3842 5bbc
000002c0: 1ab0 d8bc 986b 24bc 301c 05bc 32ab d43c
000002d0: f23c 43bd 6017 b5ba c0cf 52ba 954e 45bd
000002e0: 037c 5e3d a2d6 e4bc 4f7d 3f3d 85ff 383d
000002f0: 002d d13a fbb6 333d 4a9f 35bd 183f d4bb
00000300: 5318 47bd 28ee 12bd f682 983c 87d9 333d
00000310: a43a 0fbd 020c c3bc 9454 07bd f8c1 a7bb
00000320: 547a 48bd 7709 3fbd 6809 52bc 29e6 673d
00000330: a44f 263c 34ef c8bc d559 213d f922 323d
00000340: 67f4 243d c0c5 0f3a 182f d1bb 25c5 1c3d
00000350: 4bbe 013d d301 373d a7d4 2d3d e604 89bc
00000360: 636d 4c3d 44e3 3c3c 034b 703d b91b 703d
00000370: fd6b 4a3d e9a9 203d 4d82 3d3d c8e2 e2bc
00000380: 7aeb bbbc ecfe 60bc af11 f7bc 2354 313d
00000390: f880 b43b ec84 74bc 1c46 d8bc a7e2 56bd
000003a0: c88a 8a3b ef29 543d 59b3 1e3d 514c 3f3d
000003b0: dbe7 243d a620 cb3c 8068 deba 2a8d 32bd
000003c0: 0375 313d 3ed7 29bd 3423 11bd 1eb3 c13c
000003d0: 958d 043d 6233 fbbc 2bbf 183d 5ce1 61bd
000003e0: 8410 663c a61a d53c 2c53 333c 80d0 07bd
000003f0: 2400 23bd a3e7 403d ecb0 543c fc60 cfbc
-0.019248571 0.029942717 0.05356859 -0.014778674 0.040797185 -0.0044651628 -0.0117919445 -0.0069734417
-0.026718728 0.016127747 -0.00031897426 -0.02871049 0.037480097 -0.026324317 -0.03990902 0.020455737
-0.0036184266 -0.03243788 -0.04810279 -0.017654717 -0.045117345 0.032049377 -0.0073397346 0.03035004
0.028682966 0.004746247 -0.009072609 -0.030390576 0.013265926 -0.05123857 -0.028713897 0.04699112
-0.011437286 0.047536615 0.03489418 -0.01242185 -0.047428783 0.04732271 0.004964005 0.055686887
-0.053292997 0.01214296 -0.05076967 -0.0071542673 -0.051648974 -0.053632665 0.0029725954 0.058093373
0.004515063 -0.0054592527 0.05492695 0.005393926 -0.032902017 0.03747001 0.04204626 0.051094268
0.046340186 0.054775108 -0.02185446 0.008472811 -0.021502115 -0.007843565 0.046587247 -0.0465589
0.032200713 -0.034046173 0.00032313913 -0.007015791 -0.02654171 0.005024884 -0.029849235 0.053371523
-0.021331798 0.037296783 -0.014035948 -0.04639386 0.045742806 -0.016270775 -0.024410963 0.004417617
-0.00060034543 0.016627688 -0.014296971 -0.01700116 0.032240223 0.027008306 0.052083906 0.006503109
-0.015296847 -0.012553796 -0.012008011 -0.018622078 -0.020110257 -0.016602438 0.017770741 0.023315292
0.044849765 -0.057342313 0.045694645 -0.011871833 -0.05758117 0.038522314 -0.033408232 -0.026553456
0.019556608 0.0096521415 0.040167954 -0.041115753 0.03201208 0.03071348 0.036473785 -0.019612908
0.010007512 0.017344456 0.05555949 -0.035807528 -0.054104894 -0.053292252 0.007804256 -0.04478426
-0.010908116 -0.027545668 0.010674346 -0.041755706 0.036338013 -0.057887733 -0.03228297 0.012159307
-0.057958394 0.014524054 -0.022045001 -0.029760487 0.042239618 -0.01902669 0.01392984 -0.022752795
0.027565595 0.053661507 0.05656487 -0.03564404 -0.05857451 -0.041205484 0.016599733 0.023655701
0.030948523 0.025588002 0.05732401 -0.044684708 -0.04619648 -0.01845263 0.045736227 -0.04524724
0.044179145 0.009804737 0.036449466 0.058380377 0.057353895 0.05656893 -0.0144604 -0.025144551
0.025015999 0.050250303 0.0014671236 -0.013948619 -0.009530548 -0.021032613 0.028293896 -0.05860613
0.050140914 -0.0021639317 -0.035721168 -0.021018941 -0.036171507 -0.051201615 0.005929228 -0.013382487
-0.02645116 -0.010035418 -0.008124396 0.025960539 -0.047665544 -0.001381617 -0.00080418214 -0.048170645
0.054317486 -0.027934376 0.046750363 0.045165557 0.0015958846 0.043875676 -0.044341363 -0.006477248
-0.04860718 -0.035871655 0.018617135 0.043908622 -0.034968033 -0.023809437 -0.033039644 -0.0051195584
-0.048944786 -0.046639886 -0.012819625 0.056615982 0.010150824 -0.024528123 0.03939231 0.043490384
0.040272143 0.0005484484 -0.006383788 0.03827395 0.03167562 0.044679474 0.04243913 -0.016725969
0.049909007 0.011528794 0.058665287 0.05862019 0.049419392 0.03922454 0.046266843 -0.027696028
-0.022939432 -0.013732653 -0.0301598 0.04329313 0.0055085383 -0.014924269 -0.026400618 -0.052462246
0.00422797 0.051797803 0.038745258 0.04670364 0.040260177 0.024795841 -0.0016968399 -0.043591656
0.04332448 -0.041465037 -0.035433963 0.02364498 0.032361586 -0.03066415 0.037291687 -0.05514656
0.014042024 0.026013684 0.010945123 -0.033157825 -0.039795056 0.047095906 0.012981635 -0.0253148

conv.4.bias f4 [64]
00000000: f9dd 603d 6889 8ebc 47bc 563d 7ae7 bc3c
00000010: a16b 3dbd 8c4d 4dbd eca9 01bc b7ea 513d
00000020: 0046 46ba b6e4 19bd 434e 0c3d e3bb 6bbd
00000030: f1db 363d 404b 37ba 6065 563b 40d6 aebc
00000040: ac45 073c c0e1 193b 5938 3d3d 3973 513d
00000050: a60c ce3c 5047 f9bb 8086 b2b9 69dd 1bbd
00000060: a594 0b3d 5c3c 6bbc 3048 6ebd 1e7e a2bc
00000070: 1939 2abd be3f 42bd 0cd0 1e3c 98bd 8c3b
00000080: c749 05bd b2bb 2ebd 265f 963c 645d 473c
00000090: a5a0 223d 1ec1 f83c 6f71 1dbd 56a5 f13c
000000a0: cb5a 5dbd 46d7 53bd b645 c03c 7324 5c3d
000000b0: 86f5 db3c 60e3 38bb ebb3 e7bc 950c 6b3d
000000c0: 1a06 20bd 0329 593d def8 0fbd a1e4 5ebd
000000d0: 80f6 f539 ce09 883c 5bb1 48bd 087f 9abc
000000e0: 0096 3fbb 28f7 9dbb 0c9a ecbc 7f8a 5d3d
000000f0: b49e 30bd c721 133d 0a97 873c 4294 ccbc
0.05489919 -0.017399505 0.05242565 0.023059595 -0.04624522 -0.050122783 -0.007914048 0.051249232
-0.00075635314 -0.03757163 0.034254324 -0.05755223 0.044643346 -0.0006992109 0.0032714233 -0.021342397
0.008256357 0.0023480505 0.046196315 0.051135276 0.025152516 -0.007607378 -0.00034051016 -0.03805295
0.034077305 -0.0143576525 -0.058174312 -0.019835528 -0.04155836 -0.04742407 0.009693157 0.0042950623
-0.032541063 -0.04265947 0.018355917 0.012168262 0.039703984 0.030365523 -0.038438257 0.029497784
-0.054041665 -0.051718973 0.02347074 0.0537457 0.026850473 -0.0028211698 -0.028284034 0.057385046
-0.03906832 0.053017627 -0.035149448 -0.054417256 0.00046913698 0.016606238 -0.048997264 -0.018859401
-0.0029233694 -0.004820723 -0.028882049 0.05408716 -0.0431201 0.035920884 0.016551513 -0.024973039

lin.2.weight f4 [128, 64]
00000000: a417 5b3d 6086 d8bd f4b8 b2bd 209a 883d
00000010: 14d7 84bd f4b5 753d 9ec8 f2bd b870 b33c
00000020: fe4d f1bd 88d7 6f3d f893 ec3d b6d0 933d
00000030: 90be fe3c 4029 ac3d 2821 e33d e810 8c3d
00000040: 2467 573d d0a8 1d3d 68d9 dd3c 58f0 ab3d
00000050: 106e ca3d 6ce0 16bd 2858 c03c 64ae 893d
00000060: 1850 d3bd 2eae c3bd 282a 0dbd 1031 953c
00000070: a22e a33d d09e 7f3d 48be 7c3d e0b9 e0bc
00000080: a09f 09bd ec2c f9bd 0037 3dba 8047 e6bc
00000090: bac7 b8bd 6437 7c3d bcc1 9c3d 7c0d 183d
000000a0: d881 afbd 786f f5bc 8a56 debd 78d3 a5bc
000000b0: 0024 753d 1a05 ca3d f236 d0bd f801 cfbc
000000c0: 3863 7abd 9cb4 b83d 7603 f43d be2c e3bd
000000d0: 748b 5abd a047 8a3b 000f e5bd 1cd8 f0bd
000000e0: 58dd 9abd 5296 bb3d 0028 d53c 84d0 71bd
000000f0: 6889 90bc 6adc ea3d a422 f2bd 8c81 483d
00000100: 40fb 8abb c680 f7bd 0cd2 de3d ac3d 6cbd
00000110: f06c c03d 10ab 183c 60d9 ea3c b855 94bc
00000120: 1257 cebd 8e0c 803d 981c 30bd 242e 403d
00000130: 1a5f f13d 4ca3 13bd a0c7 723c ccc3 333d
00000140: 2c12 21bd 2849 6c3d f68b a0bd 2858 9b3d
00000150: 0c9d 40bd 00c8 08bb b851 2fbd 60a6 5e3c
00000160: ae46 b43d 88ce ca3c 785e 33bd e66f f03d
00000170: 7a26 e93d 586a 54bd 3808 98bd 5c47 b5bd
00000180: a035 b33c 2e2d ef3d dcc0 223d f49a 3c3d
00000190: beb0 f1bd 54d0 4d3d 8634 893d 20fd 1cbd
000001a0: ee7b 9fbd f09b 78bc f22d dcbd c089 eb3d
000001b0: 0c33 9bbd 4a68 e63d 2cf8 fdbd f430 a33d
000001c0: 0c03 56bd ca26 c5bd 24fe 0f3d 58b2 eb3d
000001d0: 0013 74bd 08bf 8f3c 7ca7 a7bd 10cf a63d
000001e0: 0875 e63d 5c92 0bbd 1243 f53d 167d 843d
000001f0: 8832 8a3c 1c47 5cbd 2885 b03d 80b2 d23b
00000200: 0089 58bd fcd6 fbbd 781f f8bd b03a ff3d
00000210: 0e4a 87bd 82fd bebd 6051 a23d e476 12bd
00000220: e0e3 bebd 40ba ce3c 085b 97bc 1489 453d
00000230: e0dc ed3d 64e4 00bd 28cc 913d e80d 0fbd
00000240: e8e3 28bd b8c1 2a3d d0e0 e4bc d48b 093d
00000250: d008 e43c f203 cdbd c001 f0bc 36fe e63d
00000260: 0032 49ba 82b1 f23d 8c77 c13d 48af 0fbd
00000270: bc90 67bd 54e5 283d 7818 a9bc b82f 84bc
00000280: b000 0cbc 1e55 a5bd 4026 a13d e811 48bd
00000290: fc7e d0bd e6f5 c7bd aa50 a3bd 68d9 bc3c
000002a0: 887f f6bd 8c22 3d3d e8b3 9dbd 40bc 73bb
000002b0: 8809 f8bc 2c64 19bd 0831 a53d 34ac 2ebd
000002c0: 607f 2e3d 4a3e ae3d 94ef 7c3d c4d6 593d
000002d0: b0fd 3fbc 34d1 84bd 9203 bdbd 7c2a f33d
000002e0: 0644 e8bd 4814 fabc 5edc d83d c0ac c2bc
000002f0: 4efc d6bd 7400 fc3d d0d6 03bd acde 553d
00000300: c8e7 683d 9c0c 23bd 0411 f8bd 50ae 91bc
00000310: 942b cbbd 008e 7bbd f258 d7bd f8c5 6e3d
00000320: fa34 b4bd 5081 793d fa4b d73d 543b 7f3d
00000330: e414 983d a0ed ad3c 7256 ab3d 48b2 f03d
00000340: 8061 da3c 0891 593d 2456 a13d 0000 78b8
00000350: 3810 dc3d b0ea f73c c013 9cbd 1467 c2bd
00000360: cc4a 023d b050 cabd d402 e7bd 08e1 ed3d
00000370: 8c3a c13d 206d 0abd e437 7f3d 144a 2d3d
00000380: 60b5 ec3d 5428 1c3d c0f3 6c3d 6813 b7bd
00000390: 2c3b 293d fa3b c5bd 0690 c3bd 8eee 8c3d
000003a0: 0491 7abd 4851 c63d 8851 01bd 4807 853d
000003b0: fe8c ee3d 6011 853c b279 e83d 2c42 a1bd
000003c0: 0ecd 873d 9cea 203d c0c7 c23d d87d eb3d
000003d0: 20cd d4bc 20e0 db3c ca32 81bd d04b 593d
000003e0: 0099 00ba c0ee 6bbd 1476 8dbd b05a ff3c
000003f0: d8f3 e33d f09a e2bd 024b a53d 7c1c b43d
0.053489342 -0.10572505 -0.08726683 0.06670022 -0.064863354 0.059987977 -0.11854671 0.021904334
-0.11782454 0.058555156 0.1155166 0.07217543 0.031096727 0.08406305 0.110903084 0.06839162
0.052588597 0.03849107 0.027081206 0.08395451 0.09884274 -0.03683512 0.023479536 0.067227155
-0.10318011 -0.095547065 -0.03446403 0.018211871 0.07967879 0.062407315 0.061704904 -0.027432382
-0.033599496 -0.12166771 -0.00072179735 -0.028110266 -0.0902247 0.061576262 0.076541394 0.037122235
-0.085696876 -0.029960379 -0.1085635 -0.020242438 0.059848785 0.09864254 -0.1016673 -0.025269493
-0.06112978 0.090188235 0.119147226 -0.11092518 -0.05335565 0.004219964 -0.11184502 -0.117599696
-0.07561749 0.09159531 0.02602005 -0.059036747 -0.017643645 0.11467822 -0.118230134 0.04895167
-0.004241377 -0.120851085 0.10879907 -0.057676002 0.09395778 0.009318128 0.028668106 -0.01810728
-0.10075201 0.062523946 -0.04299602 0.046919003 0.11785717 -0.036044404 0.014818102 0.0438879
-0.03932397 0.057686955 -0.078391954 0.07585174 -0.04702477 -0.0020871162 -0.042802542 0.013589472
0.088025436 0.024756685 -0.043791264 0.11740093 0.11384292 -0.05185923 -0.074234426 -0.08851501
0.021876156 0.11678539 0.039734706 0.046046212 -0.11801289 0.050247505 0.06699471 -0.038327336
-0.077873096 -0.015173897 -0.10750951 0.11500883 -0.07578096 0.1125036 -0.12400851 0.079683214
-0.052249 -0.09626539 0.035154477 0.11508626 -0.059588432 0.017547145 -0.08186242 0.08144963
0.11252791 -0.034075126 0.11975683 0.06469171 0.016869798 -0.053778753 0.086191475 0.0064299703
-0.05286503 -0.122968644 -0.12115377 0.124623656 -0.06605922 -0.093256965 0.07925677 -0.035757914
-0.093208075 0.025235295 -0.018476024 0.04822643 0.11614394 -0.03146781 0.07119018 -0.03492537
-0.041232973 0.04168865 -0.02793923 0.033580616 0.027836233 -0.10010518 -0.02929771 0.11278956
-0.0007674992 0.11850263 0.0944663 -0.03507927 -0.056534514 0.04123433 -0.02064155 -0.016136035
-0.008545086 -0.080728754 0.07868624 -0.0488452 -0.1018047 -0.09763698 -0.0797437 0.023052886
-0.120360434 0.046175525 -0.0770033 -0.0037191063 -0.030277982 -0.037449047 0.080659926 -0.042644694
0.042601943 0.085079744 0.061751917 0.053183332 -0.011718199 -0.06485215 -0.092291966 0.118733376
-0.113410994 -0.030527249 0.10588907 -0.023764014 -0.10497342 0.12304774 -0.032187283 0.05221431
0.05686167 -0.039806947 -0.121126205 -0.017783314 -0.09920421 -0.06141472 -0.10515012 0.058294266
-0.08799167 0.060914338 0.10512538 0.06231244 0.074258596 0.021231472 0.083660975 0.117527544
0.02665782 0.05311683 0.07877758 -5.9127808e-05 0.10745281 0.030263275 -0.076209545 -0.09492317
0.031809613 -0.09878671 -0.11279836 0.11615187 0.09434995 -0.033795476 0.06230916 0.042306975
0.11558032 0.038124397 0.057849646 -0.08939248 0.041316196 -0.0963058 -0.09548955 0.06881438
-0.061173454 0.09683472 -0.031571895 0.064955294 0.11647986 0.016243637 0.113513365 -0.078739494
0.06630908 0.03928624 0.095107555 0.11498612 -0.025976717 0.02684027 -0.06308515 0.053050816
-0.0004905611 -0.057600737 -0.06907287 0.031171173 0.11130494 -0.11064708 0.08070947 0.087944955

lin.2.bias f4 [128]
00000000: a830 52bd 224b 9ebd e8f8 edbc ecdf 0b3d
00000010: 1ca1 26bd 2050 bc3d e0a6 44bd d47f 41bd
00000020: 56c3 a6bd 38e8 69bd 6605 b33d f2dc f43d
00000030: 6af2 c5bd d417 383d 8a80 943d 2acf 83bd
00000040: 70ae e4bd cc30 013d b893 e9bd a093 da3c
00000050: 04da dc3d 20bc e33b 0e0a af3d 1267 a83d
00000060: 5cf2 8e3d 6011 2abd 0477 51bd ae83 e9bd
00000070: ac0b 96bd f8d0 893d 20fe 5f3d e685 91bd
00000080: 20bf 933c 3065 97bc d005 813d 42ac 8bbd
00000090: a0ef a4bb 0860 f33c 9083 813c 80b8 09bd
000000a0: a8a7 933d 00b8 abbd a800 e2bc 6c0d dfbd
000000b0: 00d9 653d 4cf1 7cbd 7427 803d b001 80bc
000000c0: 1026 4dbd fe85 c33d f4ec b3bd 82c6 8f3d
000000d0: 1c51 db3d 728d eebd d4db 4e3d 1abb e0bd
000000e0: f082 883d a4a1 a1bd 9cfe 16bd 6453 7dbd
000000f0: f0cf 6b3d 70bd 1dbc 9c50 cdbd bc37 bfbd
00000100: d040 31bc 2694 9ebd 80fe 663c 50d4 b63d
00000110: 50fd 7a3d d883 cf3c 7050 f83d 94ac 1b3d
00000120: c851 9dbc 2c8e bfbd f852 a43c f28c bdbd
00000130: 50a1 1bbc 6ee8 cabd 0823 79bd a82a 54bd
00000140: 30e8 4d3c 78e5 bc3c d0fc 0cbc 6ce7 7dbd
00000150: 46d4 efbd a0a7 1d3d ac1e ef3d 0850 ac3d
00000160: 58e2 abbd 12bb dcbd 76b1 ddbd 2021 b3bd
00000170: 6076 a8bd b091 ec3d 04e0 0abd 2e04 843d
00000180: 54f5 523d 307b 3e3d e004 fabd 9a5b f93d
00000190: c235 9e3d 4e9a eebd 5c46 a8bd 6430 553d
000001a0: 28d8 d2bc fc0f b4bd 0860 bc3c 4a83 f0bd
000001b0: 0208 ce3d 2af1 d43d 8cfc 853d 0c20 6e3d
000001c0: 2014 9fbd b01d 4fbc 98dd 7d3d 988e fa3c
000001d0: 8a70 d23d 4006 e73c 9add cbbd 0ae6 a2bd
000001e0: 3c9a b53d faaf 9e3d 644e 003d 18c9 943c
000001f0: 32b9 953d ca68 fabd f886 f6bd 3832 7dbd
-0.051315933 -0.07729174 -0.029049352 0.034149095 -0.04068099 0.0919497 -0.048010707 -0.047241047
-0.08142726 -0.057106227 0.08741264 0.119562045 -0.096653774 0.0449446 0.072510794 -0.06435998
-0.11166084 0.031540677 -0.11405128 0.026681721 0.10783771 0.0069499165 0.0854684 0.08222784
0.0697982 -0.041520476 -0.051138893 -0.11402069 -0.07326445 0.06729311 0.05468571 -0.07105617
0.018035471 -0.018480867 0.06299937 -0.06819965 -0.0050334483 0.029708877 0.015809804 -0.03362322
0.07209712 -0.083847046 -0.027588204 -0.10891232 0.05611515 -0.061753556 0.06257525 -0.015625805
-0.050085127 0.09547041 -0.087854296 0.07020284 0.1070883 -0.11648072 0.050502613 -0.10973187
0.06665599 -0.07892159 -0.03686391 -0.061847106 0.05757135 -0.009627685 -0.10025141 -0.09336802
-0.010818675 -0.07743101 0.0140987635 0.08927214 0.061276734 0.025331423 0.12124717 0.03800638
-0.019204035 -0.09353289 0.020059094 -0.09255399 -0.009498909 -0.09907614 -0.060824424 -0.051798493
0.012567565 0.023058638 -0.008605197 -0.06198828 -0.1171041 0.038489938 0.11675772 0.08413702
-0.08392781 -0.10777868 -0.108248636 -0.087465525 -0.08225703 0.11551225 -0.033905044 0.0644611
0.051503494 0.0465042 -0.12207961 0.12175675 0.07725097 -0.11650525 -0.08216545 0.052048102
-0.025737837 -0.08792111 0.02299501 -0.117437914 0.10060121 0.10397561 0.0654231 0.05813603
-0.077675104 -0.012641355 0.061978906 0.030585572 0.102753714 0.028201222 -0.099543765 -0.07954033
0.088673085 0.077484086 0.03132476 0.018162295 0.07310714 -0.12227018 -0.12037462 -0.06181547

lin.4.weight f4 [4, 128]
00000000: c3dc 2cbd b84c 26bc 5eca 1c3d d0a8 c2bc
00000010: 00a2 e83a e539 8bbd d26f 16bd adbc 8d3d
00000020: ad14 903d f0d2 b6bc fcf5 0d3d cba0 953d
00000030: 1796 853d 80fb eeba 33bb 69bd fcf8 d7bc
00000040: 6648 433d 0a76 25bd f206 393d 9272 82bd
00000050: ee46 1e3d 12ae 623d b0ab 7fbc fd65 b33d
00000060: 5667 5c3d 80b9 fc3a a865 9ebc 60fe d93b
00000070: 4e86 4abd c8c5 52bc 0845 a7bd 3469 f33c
00000080: 78da 293c ca4a 8dbd 4c4b a3bc 50d2 fd3c
00000090: 8cec 64bd 6624 123d c12c 83bd f035 9a3b
000000a0: e07d 41bc 8252 85bd 90d3 67bc cb26 2cbd
000000b0: 5487 82bc 70ea 243c 9019 65bc 588f 24bc
000000c0: 21ba 903d 31b7 8b3d 550c 3bbd e05d 3f3c
000000d0: 9afc 073d b02a c23b c021 e33b f606 0bbd
000000e0: 3448 843c e711 52bd 6432 9abc 79ce 1ebd
000000f0: 98c3 f73c dcae fc3c 661d 9bbd e0c0 8ebd
00000100: 80d2 d93a e0a4 d93c 1968 adbd d007 e23b
00000110: 0374 58bd be33 9cbd fbc6 9e3d 0f2e 68bd
00000120: 2cac 2cbd 49f6 ae3d 4196 58bd 29a4 13bd
00000130: 4fc3 5abd da03 3ebd 401f 2a3c f2c8 3c3d
00000140: fc5b ec3c 6807 d1bc aca9 bf3c 0e1d 85bd
00000150: 6f37 883d f060 81bd 423d 263d 84a2 8bbd
00000160: d6d9 19bd 71b2 a4bd e873 573c 32ff 333d
00000170: 0ce9 7abd b4fd 043d a00b a9bc e094 953c
00000180: 2a67 77bd 2e29 86bd f0ae 52bc 3472 103d
00000190: 346f b0bd 0614 6dbd 7356 89bd e877 77bc
000001a0: d0ee 81bd 2c09 43bd fa5a 26bd 32ae 75bd
000001b0: fd95 54bd c325 1ebd a068 c3bc 4546 923d
000001c0: 80b2 70bb 91c0 993d 2008 053c 266f 293d
000001d0: 340d 013d c08d a8bb d78c aa3d ba31 51bd
000001e0: 38cc c5bc 48fa 803c 6095 e53b 9b6a 09bd
000001f0: 5600 4a3d 96c0 a4bd bfb2 a53d 1c29 b83c
00000200: 10ba 53bc b704 a33d 7934 08bd ec84 b1bd
00000210: dc30 81bd 9da4 923d 872e 41bd 9099 cf3c
00000220: 6c10 d1bc f651 683d 3aa0 17bd 1db1 9a3d
00000230: 9973 a03d d035 ad3b 1dce 89bd b0e0 533c
00000240: e361 2bbd dfd2 85bd 3cce b1bc e065 68bc
00000250: a830 843c f089 38bc 580c 7d3c c87c 51bc
00000260: 1ec9 b3bd 4036 783b 0085 c13c 9f39 8d3d
00000270: 6ad9 9fbd 1937 1ebd bd51 5fbd 7818 c3bc
00000280: d860 28bd c148 a33d d2af 84bd ba2a 7abd
00000290: 301f 14bc b469 ab3c b1ac a43d 6478 9a3c
000002a0: 4dba 9c3d f4fc b93c a992 a6bd 607e c03c
000002b0: e8cb 693c 78e2 a6bc dc13 e93c fe06 53bd
000002c0: 93b2 a33d 5489 75bd 8bfa b13d 9f22 843d
000002d0: 95af 803d f838 c5bc 942e a0bd ee8d 7a3d
000002e0: f818 93bd 719d 90bd 7027 b2bb 5fb3 89bd
000002f0: 2c56 8b3c 37f3 8f3d a4c5 97bc 0cbc cebc
00000300: 1dec 3ebd 7429 f33c e8a3 6c3c 17d0 8a3d
00000310: a1f6 b0bd f062 d03c 6940 6abd 6297 493d
00000320: cc84 c3bc 958e a03d 44eb f0bc 513f b1bd
00000330: d00a 2fbc d552 a93d aac2 46bd d8ef 603c
00000340: a201 fdbc 6014 19bd 723c 153d feba f2bc
00000350: 6a18 7bbd c31f a63d c4e3 8ebd 90b7 6ebc
00000360: a749 b03d 709c 20bc ce4f 043d db60 8f3d
00000370: 4051 daba 5c0c 82bc 3893 85bc 720b 093d
00000380: b059 40bc 614e a63d 00c5 8e3a fd47 91bd
00000390: d5c2 923d 5407 a93c a86a dc3c c015 c43a
000003a0: 7a87 7b3d 54d5 81bd e89d a8bc 2b36 aabd
000003b0: e056 51bc 6992 b4bd e539 9c3d ad69 95bd
000003c0: 604a 9cbb d544 48bd 26d3 053d e05e 8c3b
000003d0: 90a2 c23b 8ed5 623d 09de 943d bb91 a93d
000003e0: 870f 0abd 0ad2 23bd 27e3 953d 7e5e 203d
000003f0: 601d 273c fe25 38bd 0702 8bbd dabc 533d
-0.042202722 -0.010150127 0.03827893 -0.023762137 0.0017748475 -0.06798152 -0.036727734 0.06920753
0.070351936 -0.02231738 0.034658417 0.073060594 0.06522768 -0.0018232912 -0.057063293 -0.026363842
0.047676466 -0.040395774 0.04517264 -0.06369509 0.038641863 0.055341788 -0.015604898 0.08759687
0.053809486 0.0019281358 -0.019335583 0.0066526383 -0.04944449 -0.012864538 -0.081674635 0.02971325
0.010367028 -0.068990305 -0.019933365 0.030984074 -0.05588965 0.035679244 -0.064050205 0.004706137
-0.011809796 -0.06509878 -0.0141495615 -0.042029183 -0.01593367 0.01006566 -0.013983145 -0.010043941
0.07066751 0.0682205 -0.045666058 0.011680096 0.033199884 0.005925499 0.0069315135 -0.033942185
0.01614771 -0.051286604 -0.018822856 -0.038771126 0.030244634 0.030845098 -0.07573967 -0.06970382
0.001661852 0.026567876 -0.08467121 0.006897904 -0.052845012 -0.076270565 0.07752796 -0.05668455
-0.042156383 0.08543069 -0.05287767 -0.036045227 -0.053408917 -0.046390392 0.010383427 0.046090074
0.028852455 -0.025516227 0.023396336 -0.06499682 0.06651198 -0.063173175 0.040585764 -0.06818107
-0.03756126 -0.080418475 0.013150193 0.043944545 -0.061257407 0.032468513 -0.020635426 0.018259466
-0.06040112 -0.06550823 -0.012859091 0.035265163 -0.0861496 -0.057880424 -0.06705942 -0.0151042715
-0.06344378 -0.04761617 -0.040614106 -0.05998058 -0.051900852 -0.03861023 -0.0238536 0.07142309
-0.0036727488 0.07507432 0.008119613 0.041365765 0.031506732 -0.005143851 0.08327644 -0.051072814
-0.02414523 0.015744343 0.0070063323 -0.033548933 0.049316727 -0.08044545 0.08090734 0.02248054
-0.012922779 0.07959884 -0.033253167 -0.08667931 -0.06308147 0.07160304 -0.047163513 0.025341779
-0.025520526 0.05671879 -0.03701804 0.07553313 0.078345485 0.005285956 -0.06728766 0.012931988
-0.0418414 -0.06534361 -0.021704786 -0.014184445 0.016136482 -0.011263356 0.0154448375 -0.012786098
-0.087785944 0.0037874132 0.02362299 0.06895756 -0.0780514 -0.038626764 -0.05452131 -0.023815379
-0.041107982 0.07972861 -0.064788476 -0.061075903 -0.009040639 0.020924427 0.08040751 0.018856235
0.076527216 0.022703625 -0.08133442 0.02349776 0.014269806 -0.02037166 0.028451853 -0.05152034
0.07993045 -0.05994542 0.086903654 0.06451916 0.062834896 -0.024075016 -0.07821384 0.06117051
-0.07182497 -0.070612796 -0.00543683 -0.067236654 0.017008863 0.070288114 -0.01852686 -0.025236152
-0.046611894 0.029682852 0.014443375 0.06777971 -0.08640791 0.025437802 -0.057190333 0.049216636
-0.023867033 0.07839695 -0.029409058 -0.08654655 -0.01068373 0.08267752 -0.04852549 0.013729058
-0.030884568 -0.037372947 0.0364346 -0.02963018 -0.06130258 0.08111527 -0.069770366 -0.014570132
0.08607798 -0.009802923 0.03230267 0.070008956 -0.0016656294 -0.015875034 -0.016305551 0.03345818
-0.011740133 0.08120418 0.0010892451 -0.07093809 0.071660675 0.020633377 0.026906326 0.0014960095
0.061408497 -0.06339517 -0.020583108 -0.08311113 -0.01277706 -0.08816988 0.0762823 -0.07295547
-0.0047696084 -0.04889377 0.03267207 0.004283771 0.005939789 0.055379443 0.07268912 0.08279749
-0.033706214 -0.03999523 0.073187165 0.039152615 0.010199875 -0.044958107 -0.06787496 0.051693775

lin.4.bias f4 [4]
00000000: c8ee 263c 6680 04bd b08a 9ebc 7e59 5d3d
0.010188766 -0.032349013 -0.01935324 0.054040425

conv.0.weight f4 [16, 7, 3, 3]
00000000: c5d2 433e 0253 7abe 8a8c 973d aea0 8d3e
00000010: 71d8 0c3e 482a 613e 9872 76be 9b79 a53c
00000020: 3454 2d3e 7ec0 21be 5d19 07be 834e 90bd
00000030: 10b3 32be 682c 09be eb7f 02be cc85 eabd
00000040: 42f0 53bd a597 9abd 1739 2abd 2277 f53d
00000050: 3dc2 85be b061 eebc eea0 24be 0c62 ab3a
00000060: 87aa 9c3e 303b 30be 4d93 e4bd a5ab 20be
00000070: 0734 5b3e 8302 46be 6305 3d3e 718e 81be
00000080: c471 253e 187b 373e 9af2 02bd 9bf1 8bbc
00000090: 9573 7e3d 3b08 9e3d 6628 15be 77c3 57be
000000a0: 638a 0cbd 7834 84be 0a33 b13d 0e99 923e
000000b0: caaf a03e d186 a8bd dd1e d63d b63d 1fbe
000000c0: 6720 8dbc aa90 fabd f70d 12be 31d6 cabb
000000d0: 275a f8bd f19b 65bd c9d9 2dbe efef aebd
000000e0: 08fe 7fbc 9feb 353d 68b4 a23d 89ca 353b
000000f0: dcce ef3d 9d61 1dbe 08ac 053e 2595 aa3e
00000100: 960e 0dbe 353a 223d b950 843e bd5f babd
00000110: 29b7 f23d 633f afbc 78d1 cc3e 0700 003d
00000120: f057 e13d c677 833c 77ed ffbd a105 79be
00000130: 64c4 2bbe e1d8 913d e466 bebd cd4f a5bd
00000140: fde2 bcbd 2a00 cbbd d968 c83e 83c8 ed3d
00000150: fbff 7bbd 0530 003e dcec d43d 49f7 f3be
00000160: 44f9 babe 4086 f3bd 3f09 b4bb 72bd 543d
00000170: 3bbf c53d 3f38 f43d 225f 36be 9c46 9abd
00000180: 327d 4f3d 5e11 263d e749 ebbe ad1e 30be
00000190: 14ec 14be 802e babd b659 38be bb4b bbbd
000001a0: ade3 333c b4d3 49be d9d2 4cbe bda3 bbbe
000001b0: d450 88be 1a22 febd eee2 a53d 7c27 78bd
000001c0: 8f69 9c3d 82f9 29be 2605 08be 7cf7 ebbd
000001d0: 184a d2bd cfa8 8dbe 0177 04bd f7c3 fdbd
000001e0: 1242 41be 78ac 49be 5138 2dbe 4932 b5be
000001f0: 429f bdbe 61f2 3bbe 85e3 22be 1d5e ecbd
00000200: be8c 363e 962d 7cbd 527e ae3d aa7c 933e
00000210: 8b57 74be b3d6 ae3e 6d30 7b3d b124 8bbe
00000220: bbb2 a3be b390 1fbe ac1c 15be 0861 3abe
00000230: 14cc 08be c8d5 b2be cace c0bd 3e67 bdbd
00000240: 8c27 00be 5891 95be 5717 953e aea4 403e
00000250: 054b 893d a311 4abe 6bad 95be 2c4c 8cbe
00000260: 8696 a2be 7f59 893d abb7 4f3d cdfa edbd
00000270: 8d55 343d b67c 0cbc f1e9 183d 2948 c5be
00000280: 118e e1bc 9be0 663e ac7a 803d fad1 57be
00000290: 4ff7 733d 780f 71bd 95f9 ad3c eb3c c03d
000002a0: 0ed8 33be 7c5c 13bc 965e fd3d d697 3bbe
000002b0: 1510 06be af01 83bd 621b e3bd 4378 19bd
000002c0: ac08 08bd 814e bb3d c727 11bb 303f e5bd
000002d0: e30d 89be 36ca 013d 41b3 873d 55d9 a43c
000002e0: 6436 0cbe c739 a23d 4f3c dc3d e862 103d
000002f0: 1466 c6bc d5f8 3d3e 8b0a 8e3e 24e9 0ebd
00000300: b9de 483e 692e 8d3e e0e7 f4be b5d3 febc
00000310: ebcf 513e 1656 9ebe 91c8 213e 11c6 1f3e
00000320: 105a eabd 57f5 843e dbaf 553e 3d2f 023c
00000330: 6d98 29be a194 57be 38dc 9dbd 0e21 e7bd
00000340: 7462 fb3b ea04 01bd e927 6d3e 0ad2 6b3e
00000350: 3fd7 1abe f21e 95be e756 f83d f8de ee3e
00000360: 8d8e 9bbe 1feb 8dbe fced fd3d a755 8cbe
00000370: fada 98be d5c6 123e 132b 31be 9cd7 81be
00000380: e626 8ebe d4ef 82bd 9773 003d 4c38 403e
00000390: 6e47 de3d 68a7 febd 076a 06be b3d8 103e
000003a0: 215b 063e dff6 013e 77a7 63bd 9528 36bd
000003b0: 92be 71be fa9f bbbe 988c c2be 21b3 e8bd
000003c0: d1ff c5bd c7f8 00be 9a7a ee3d 0a56 603d
000003d0: d58c 8b3d b3f6 acbd ca8a 4abe 0969 1c3d
000003e0: e812 c03d 7aeb 823e 6c16 5dbe 2082 52be
000003f0: 620a cabe 5121 e3bd 4d3a d03d 30df 05bf
0.19123371 -0.24445727 0.073998526 0.2766165 0.13754441 0.21988785 -0.24067152 0.020199588
0.16926652 -0.15796086 -0.13193269 -0.07046225 -0.1745112 -0.13395846 -0.1274411 -0.11451301
-0.0517428 -0.07548455 -0.04155835 0.119856134 -0.26124755 -0.029099315 -0.16077015 0.0013075485
0.30598852 -0.17210078 -0.11160908 -0.15690477 0.21406566 -0.19336896 0.18459086 -0.25303987
0.1615668 0.1791805 -0.031969644 -0.01708298 0.062121946 0.077164136 -0.14566192 -0.21070658
-0.034311663 -0.2582128 0.08652313 0.28632396 0.31384116 -0.08228839 0.104551055 -0.15550885
-0.017227365 -0.12234624 -0.1426314 -0.0061900844 -0.1212657 -0.05605692 -0.1697761 -0.085418575
-0.015624531 0.04441416 0.07944566 0.0027739129 0.11709377 -0.15369268 0.13053906 0.33316913
-0.13775095 0.03960629 0.25842836 -0.09100292 0.11851341 -0.02139253 0.40003562 0.031250026
0.11003101 0.016048323 -0.12496465 -0.24318554 -0.16774136 0.071214445 -0.092969686 -0.080718614
-0.09222982 -0.09912141 0.39142492 0.1161051 -0.06152342 0.12518318 0.1039674 -0.476496
-0.365183 -0.118908405 -0.0054942663 0.05193848 0.09655615 0.119247906 -0.17809728 -0.07532999
0.050656505 0.040543906 -0.4595482 -0.17199202 -0.14543182 -0.090909004 -0.18002972 -0.09145304
0.010979575 -0.19709665 -0.20002307 -0.3664836 -0.26624167 -0.12408848 0.08099924 -0.06058453
0.07637321 -0.16599086 -0.13283214 -0.11521813 -0.102680385 -0.27667853 -0.032340053 -0.12390893
-0.1887286 -0.19694698 -0.16916014 -0.35389927 -0.37035567 -0.18354179 -0.15907104 -0.11541388
0.17827126 -0.06156691 0.085201874 0.2880605 -0.2386152 0.34148178 0.06132548 -0.2717643
-0.31972298 -0.15582542 -0.14561719 -0.18201077 -0.133591 -0.34928727 -0.09414442 -0.092482075
-0.12515086 -0.2921245 0.2911937 0.1881282 0.06703762 -0.1973329 -0.2923387 -0.27401865
-0.31755465 0.06706523 0.05071227 -0.11620102 0.0440269 -0.008574655 0.03733248 -0.38531616
-0.027533563 0.22546618 0.06273398 -0.21076193 0.059562024 -0.058852643 0.021237174 0.09386619
-0.17562887 -0.008994218 0.123715565 -0.1831964 -0.13092072 -0.063968055 -0.11089207 -0.037468206
-0.033211395 0.09145833 -0.0022148953 -0.11193693 -0.26768407 0.031686984 0.06625987 0.020123163
-0.13692623 0.079211764 0.107536905 0.035250574 -0.024218597 0.18551953 0.2774242 -0.03489031
0.19616212 0.2757447 -0.47833157 -0.03110681 0.2048947 -0.30925053 0.15799166 0.156029
-0.11442959 0.2596843 0.20867865 0.007945833 -0.16562052 -0.21052791 -0.07708019 -0.112856016
0.0076716486 -0.031498827 0.23159756 0.23029342 -0.15121172 -0.29125172 0.1212595 0.46654487
-0.30382195 -0.27718446 0.123989075 -0.27409098 -0.29854566 0.14333661 -0.17301588 -0.2535981
-0.27764052 -0.063934 0.031360235 0.18771476 0.10853468 -0.12434274 -0.13126384 0.14145164
0.131207 0.1269183 -0.05557963 -0.044472296 -0.23607853 -0.3664549 -0.3799789 -0.11362291
-0.09667934 -0.12594901 0.11644478 0.054769553 0.06813971 -0.08445492 -0.19779506 0.038186107
0.09378606 0.2557028 -0.21590585 -0.20557451 -0.39461046 -0.11090339 0.1016737 -0.5229368

conv.0.bias f4 [16]
00000000: 2df2 29be 08f5 61bd 1a6c aabd f8a9 e9bc
00000010: 471b 54bd 3b3b 6bbd 5c9a aebd 4214 9dbd
00000020: 8eca ddbd 8381 c7bb 8f12 103e 0767 2ebd
00000030: a961 44be 9ace f3bd 0023 3fbe 3527 15be
-0.16596289 -0.05516532 -0.083214 -0.02852343 -0.051783826 -0.057429533 -0.085255355 -0.076698795
-0.1082965 -0.006088437 0.1406958 -0.042578723 -0.1917788 -0.119046405 -0.18665695 -0.14565738
