snapshots.pth (torch, 139732 bytes, 10 tensors)

conv.0.weight f4 [16, 7, 3, 3]
000000 76 61 f0 3e 02 fa 43 3e c9 0e 48 3e 28 45 74 3e
       0.46949357 0.19138339 0.1953689 0.23854506
000010 6c ab 0c 3e 0c f4 dd 3d 26 f0 5a bc e9 bc 37 3e
       0.13737267 0.10837564 -0.01336292 0.17943157
000020 f8 03 09 3f 0b 58 d4 bc 95 6d 60 3d fb eb 45 be
       0.5352168 -0.025920888 0.054792006 -0.193283
000030 38 d4 d3 bc 97 7d c1 bd 76 04 da 3d 6d 72 3f 3e
       -0.02585803 -0.094477825 0.10645382 0.18695994
000040 67 45 72 3e 26 8f c7 bd 73 b3 7f 3e 74 e7 95 3e
       0.23659287 -0.097441 0.24970798 0.29278147
000050 d8 66 42 3e e6 c2 ba be ef 2e c6 3d d8 ab 20 3e
       0.18984544 -0.3647682 0.096769206 0.15690553
000060 a2 16 83 3d 7a 3c d0 3e 92 11 13 3e 6d 2f 6a be
       0.06400801 0.4067114 0.14362171 -0.22869654
000070 01 d3 1a 3e f4 57 b7 3d b0 4d 95 3e 51 62 24 3c
       0.15119554 0.089523226 0.29160833 0.010033206
000080 29 23 ad 3d d6 17 94 3e 03 3e 37 be 08 00 50 3d
       0.08453972 0.28924435 -0.1789475 0.05078128
000090 ae 3b 97 bd a5 83 8e 3b 1a 47 e8 bd 42 2e 02 3e
       -0.0738443 0.0043491893 -0.113416865 0.12712958
0000a0 8c 96 29 bd 7e 34 d1 be 62 c1 a8 be 3d 8b 62 3e
       -0.04140334 -0.4086036 -0.3296004 0.22123428
0000b0 fb 9c be 3d 16 3e 81 bc 87 ef 9c 3d 3b b7 2a 3c
       0.093072854 -0.015776675 0.07662874 0.010419662
0000c0 06 a9 09 3e 25 7d b3 bc a3 20 0e bd 4e a6 16 3e
       0.13443384 -0.02191026 -0.034699094 0.14711878
0000d0 9d 03 27 be 96 cb f3 3d a7 bc 93 3c a2 47 06 3e
       -0.16309972 0.11904065 0.018034292 0.13113263
0000e0 04 8b fd 3d a6 37 03 3e 2b cb b4 3c f1 c7 18 be
       0.12380031 0.12814197 0.022069534 -0.14920022
0000f0 44 c4 9a be 5f 69 15 3d f5 39 14 3e 68 dc 7a be
       -0.30227864 0.036477443 0.14475234 -0.24498141
000100 92 2d a5 3d 50 1f 99 be ef bb a9 3e c4 17 46 bf
       0.080653325 -0.29906702 0.33151194 -0.77380013
000110 c5 33 7a be b0 cb 53 bd 68 6c a2 3d 29 4d d7 3e
       -0.24433811 -0.051707923 0.07930833 0.42051056
000120 8f 78 9c 3e bb a6 cf bd c6 97 e9 be fa 14 07 3e
       0.3056073 -0.10139223 -0.45623606 0.13191596
000130 dc 61 91 bd 4a 5e 17 be 3b cb d5 be 84 f2 ab bd
       -0.07098743 -0.14782062 -0.41756615 -0.083958656
000140 91 39 f6 bc 51 80 43 be 85 2c 1f 3e 1d 0a 09 be
       -0.030056747 -0.19091918 0.15544327 -0.13382764
000150 ca 50 01 be ca eb 90 bc 64 d5 a8 be 59 59 e6 be
       -0.12628475 -0.017690558 -0.32975304 -0.44990042
000160 fe d9 89 be 72 f4 ed be 87 6a 27 3e 80 eb 90 bc
       -0.26924127 -0.4647556 0.1634923 -0.01769042
000170 76 dd 35 3e 07 4d 29 3e a7 71 49 be a0 e4 0a be
       0.17760262 0.1653329 -0.19672261 -0.13563776
000180 23 d2 a3 3e 37 e1 a4 bc 00 6c a4 3d 64 b2 8c bc
       0.3199626 -0.020126922 0.08028412 -0.017174907
000190 c2 0a 8f be dc 8e 8c 3a f4 0d e8 3d b7 05 4f be
       -0.27937895 0.0010723728 0.11330786 -0.20217024
0001a0 5d 27 01 be 60 8a 84 bd 96 9d e4 3b 35 14 45 be
       -0.12612672 -0.064717054 0.0069767935 -0.1924599
0001b0 f4 66 1e 3d d0 08 73 be 98 20 0d 3f e8 e0 79 be
       0.038672403 -0.2373383 0.5512786 -0.24402201
0001c0 86 11 f5 3d bb 3a ad bc 89 c7 69 be 96 cd 80 bd
       0.11966233 -0.021146169 -0.22830023 -0.062892124
0001d0 bf 7b 73 3e 75 eb 72 3e 6b 17 9e be 8d 00 a6 be
       0.23777674 0.23722632 -0.30877241 -0.32422295
0001e0 ab c2 58 3e 1b ef f2 be 79 7c 9e be e2 0a 12 bc
       0.2116801 -0.47448048 -0.3095434 -0.0089137275
0001f0 e6 cf f5 bd 3a 94 98 3c f7 fc 3c bc 35 65 bd bd
       -0.12002544 0.018625367 -0.011534921 -0.09247819
000200 2e d9 10 3d 76 cf e5 bd 23 fa b8 3e 3e 89 23 3e
       0.03536337 -0.11221211 0.3612834 0.15970322
000210 55 7b f1 be f8 9e ba 3e 3d 20 41 3e de ae 50 be
       -0.47164407 0.3644941 0.18859954 -0.20379207
000220 73 3f 86 3c 55 68 15 be 2e 2f 08 bc e1 d8 31 bc
       0.016387677 -0.14590581 -0.00831203 -0.010854931
000230 0e d2 12 be cb 3a d6 3d 79 92 a8 3c 65 79 04 be
       -0.14337942 0.104604326 0.020577656 -0.12936933
000240 99 61 ef be df 9f 38 3e bc 28 27 be 40 1b 99 3e
       -0.4675415 0.18029736 -0.16324133 0.29903603
000250 5e 22 1a 3c 06 ad 65 be 7f 52 01 3e a7 63 0c be
       0.009407608 -0.22429284 0.12629126 -0.1370989
000260 2d 34 14 bf 33 93 b5 3d 6d 6b c8 3d d2 0d d2 bd
       -0.57892114 0.08865967 0.09786115 -0.10256542
000270 db b5 48 3e 86 59 a1 be a1 75 80 bb ad 6f b9 be
       0.19600622 -0.31513613 -0.0039202725 -0.36218014
000280 ee a0 0f 3e f6 e0 3e bd f3 b2 02 3d 3f 51 20 bc
       0.14026234 -0.04660126 0.03190894 -0.009784996
000290 5b 58 6c 3d 93 88 f5 3d e0 5b cc bb ae f9 86 3e
       0.05770145 0.1198894 -0.0062365383 0.26362365
0002a0 33 7c 26 be f2 f7 dc bd aa 46 ab bd 43 be 35 be
       -0.16258316 -0.10789479 -0.083630875 -0.1774836
0002b0 d0 29 c5 bd bb dd b5 3e 98 b4 6b be 13 45 4a be
       -0.09627116 0.3552073 -0.2301811 -0.19752912
0002c0 f4 d9 99 be de c8 95 be bf 6f 2f 3e 92 dd fa 3c
       -0.30049098 -0.29254812 0.17132472 0.030623231
0002d0 cf b1 1b bd c8 c8 bc 3b c2 52 e3 3e cd 80 c6 3d
       -0.03801137 0.0057612397 0.44399077 0.096925355
0002e0 70 55 06 be cc 18 9b 3d f8 46 1f be dc fd 9b bc
       -0.1311853 0.07573089 -0.15554416 -0.019041948
0002f0 19 14 33 be 9f 1c 03 3f 75 ea 5f be 46 21 3c be
       -0.17488135 0.5121555 -0.21866782 -0.18372068
000300 b6 d0 dc 3e 9f 94 84 be 16 e6 ac be d9 1b ef 3e
       0.43127984 -0.2589464 -0.33769292 0.46700934
000310 b1 c6 98 3e 18 31 15 be 90 3b 80 be db 14 0e be
       0.2983909 -0.14569509 -0.25045443 -0.13875143
000320 10 5a ea bd 48 9f 44 bd 11 bb 42 be 64 07 49 3d
       -0.11442959 -0.048003465 -0.19016673 0.049079314
000330 ac ca 4f be be ec 52 be 38 dc 9d bd 78 29 61 3d
       -0.20292157 -0.20598122 -0.07708019 0.05497119
000340 b4 48 51 3d da 87 99 3e e6 23 47 3d 25 f3 96 3e
       0.051094726 0.2998646 0.04861822 0.2948238
000350 bb 54 1d 3e 74 76 d8 bc 2e 87 4f be a3 67 ce 3e
       0.15364353 -0.02642367 -0.2026641 0.40313444
000360 db 8e 2b 3e 1d c7 3d be 73 89 db 3d 0e 5e 80 3d
       0.16753714 -0.18532987 0.10719576 0.062679395
000370 29 66 14 bf 7c 55 3f 3d b7 b8 c2 3d bd 37 94 be
       -0.57968384 0.046712384 0.09507888 -0.28948775
000380 77 2f c1 bd 5c 35 63 bc 39 eb 00 3e 3e 15 39 3e
       -0.09432881 -0.013867702 0.1258973 0.1807451
000390 76 c0 de 3d e8 2c 47 bb b0 ae 52 bb c3 ed 4e 3e
       0.10876553 -0.0030391756 -0.003214758 0.20207886
0003a0 df 30 d9 bb 62 f7 a0 3d 46 eb 2a bd 7f 4d 08 3c
       -0.0066281403 0.078596845 -0.04172828 0.008319258
0003b0 c7 d3 90 3c a0 12 50 37 f7 07 b9 be 97 8a 13 3d
       0.017679108 1.2402103e-05 -0.3613889 0.03602084
0003c0 d9 c0 19 3e 93 69 da bd 7a e4 15 3d 5e c3 56 3c
       0.15014972 -0.10664668 0.036594845 0.013108103
0003d0 c9 bc d7 be ac 11 dc 3d 1e 02 2d 3e b8 77 84 bc
       -0.4213622 0.10745558 0.16895339 -0.016170368
0003e0 e5 b3 d3 bd 26 30 10 3e f5 ad 80 3c 39 78 82 be
       -0.103370465 0.14080867 0.01570795 -0.25482348
0003f0 39 e7 e6 be 69 cd 02 bf c1 ae 27 bf 0f a0 11 3d
       -0.45098284 -0.5109468 -0.6550103 0.035553034

conv.0.bias f4 [16]
000000 15 07 29 be 86 95 d5 bc 87 84 ad bd f9 c6 ea bd
       -0.16506608 -0.026072275 -0.08472543 -0.11463732
000010 54 12 8a bd e8 29 e1 bd 78 1a 9b bd be 23 bc bc
       -0.06741777 -0.10994321 -0.07573408 -0.022966262
000020 9b 8d ec bd de 71 21 3e aa 45 10 3d 83 9f 23 be
       -0.115504466 0.15766093 0.035222687 -0.15978818
000030 2d 0f 21 be 40 3b db bd 0e c6 ca bd 87 60 b8 bd
       -0.15728445 -0.107046604 -0.09901057 -0.09002786

conv.2.weight f4 [32, 16, 3, 3]
000000 e8 06 b3 3d 44 50 a3 bd 38 b9 a9 bd 34 55 70 be
       0.08741552 -0.07974294 -0.08287281 -0.23470002
000010 d2 22 e9 bb 21 86 cd bd 5b 24 32 3e 5e 40 66 be
       -0.0071147466 -0.10035349 0.17396681 -0.22485492
000020 91 71 63 3e 70 cb 96 be 50 51 26 3e 7e c6 66 3e
       0.22211291 -0.29452085 0.16241956 0.22536656
000030 fd 72 6f 3d ef a7 cf be e4 57 d5 3d 59 4b dc be
       0.05845927 -0.4055781 0.104171544 -0.43026236
000040 a6 84 be be 78 d3 7b be 3f fa 5b be 50 25 ff bc
       -0.37210578 -0.24592388 -0.2148218 -0.031145722
000050 0e 4b 93 be a0 b2 ac be 16 82 13 3d 19 da 02 bd
       -0.287682 -0.3373003 0.03601273 -0.031946275
000060 c3 9d 0c 3e cb 9e 40 3d 38 e3 95 3d bc b1 03 3e
       0.13732056 0.047026437 0.07318729 0.12860769
000070 06 64 51 be 25 b5 2a bf 93 a6 3b 3e 14 f8 b3 bd
       -0.20448312 -0.66682655 0.18325262 -0.087875515
000080 22 67 56 be 5f b0 ae bd 69 f1 2c 3d 41 09 4f be
       -0.2093778 -0.08529734 0.042222414 -0.20218374
000090 2c ca 2b bd c1 72 41 be 9b 81 10 bf 82 2d 34 3e
       -0.041940853 -0.18891431 -0.5644776 0.17595485
0000a0 07 f8 76 bd 81 3e 13 3e dd 10 a6 bc 20 fa 02 3d
       -0.06029513 0.14379312 -0.020271713 0.03197682
0000b0 0d 5f 24 3e dc 1e 41 3c 2e c2 2c 3c fb de 5f be
       0.16051884 0.011787143 0.010544343 -0.21862404
0000c0 b3 67 40 3d bb 80 3b bb e2 3f be be 5b f4 41 3e
       0.046973895 -0.0028610665 -0.37158114 0.1894087
0000d0 6d 46 94 3e c5 03 93 3d 89 13 c8 bd 40 a0 e1 bd
       0.2895998 0.07178453 -0.09769351 -0.110168934
0000e0 e4 72 07 be e6 d4 39 be 75 dd e6 bd ba 50 c7 be
       -0.13227421 -0.1814762 -0.11272708 -0.38928777
0000f0 21 f9 b6 be 17 13 59 bd d6 ba 03 bf 02 d8 93 be
       -0.35736945 -0.05299672 -0.51456964 -0.28875738
000100 f2 82 5b be 32 d8 6f be 0a db 79 bd 13 8e bd bd
       -0.2143667 -0.23422316 -0.060999908 -0.09255614
000110 3f 00 9f be 34 52 21 bf 58 0c 34 3d 9b 6f 99 be
       -0.31054875 -0.63016057 0.043957084 -0.2996796
000120 50 56 4b 3c 77 2d 1e bd 4e 34 c5 3d 2b 8d 8d bc
       0.012410715 -0.038617577 0.09629117 -0.017279228
000130 42 32 00 bc 52 34 fe 3d 99 04 20 3d f3 13 80 3e
       -0.007824482 0.12412323 0.039066885 0.2501522
000140 7d 00 ce 3e 6a 52 85 3e eb 89 15 3d f7 1a ce bd
       0.40234748 0.2603944 0.036508482 -0.10063737
000150 40 bc 84 be 61 bb 12 3d ae 6b c5 be cd 28 c4 be
       -0.25924873 0.03582323 -0.38558716 -0.3831238
000160 6e fa 04 3d 9b 1c 55 be da 76 7a 3d 32 93 02 3e
       0.03246539 -0.20811693 0.061148502 0.12751463
000170 4f 64 14 bd cb 00 9e 3d 4e b3 2f be fe c4 63 bd
       -0.036228474 0.07714995 -0.17158243 -0.05560779
000180 b5 34 2c bd ff a6 10 be d9 a4 aa bd 83 1e 58 be
       -0.042042453 -0.14126204 -0.083322234 -0.2110539
000190 36 90 cd 3d de 66 9a be 6a 40 ae 3d 64 10 4c bd
       0.10037272 -0.30156606 0.0850838 -0.04982032
0001a0 9b 2c aa bd 0a 3c 70 3d 07 9c 34 bd 5f 40 c9 3d
       -0.08309289 0.058651008 -0.04409411 0.09826731
0001b0 3e f9 2b bf 9a 18 54 bd 51 d4 6d 3e e9 d4 88 3e
       -0.6717719 -0.051781274 0.23225524 0.26724938
0001c0 35 c0 35 3d 33 a5 03 3f ec 8d 71 be 71 f5 80 3e
       0.044372756 0.5142395 -0.23589295 0.25187257
0001d0 3a f7 73 3e 25 92 0d 3d 75 75 36 be 93 6d 2f 3e
       0.23824778 0.034563202 -0.17818244 0.17131643
0001e0 5a 8e 5d 3d 0b b4 c6 bd 0c bf a2 be f9 91 5e bf
       0.054090835 -0.09702309 -0.31786382 -0.86941487
0001f0 04 dc 10 3e 91 a7 2d bd 1d 2a e9 3e 6e 03 0c 3f
       0.1414643 -0.042396132 0.45539942 0.54692733
000200 8e df fe 3e 74 1a d4 3e e9 6b c2 3d 44 17 87 3e
       0.49779934 0.41426432 0.094932385 0.26384938
000210 da 5d ff 3e ac 10 38 3e 1c 82 ac 3d 78 72 af 3e
       0.4987629 0.1797511 0.08423254 0.3426702
000220 d7 24 53 3e 20 59 95 3e 9e 66 96 3e b9 23 a8 3e
       0.20619522 0.2916956 0.29375166 0.32839754
000230 73 cc e4 3d d8 93 40 3e 1b bb 87 3d c1 2d 8d be
       0.11171808 0.18806398 0.066274844 -0.2757397
000240 a5 2e 1e bf 75 b7 f9 be 92 d4 29 3d 10 cb 38 be
       -0.61789924 -0.4877278 0.04146249 -0.18046212
000250 d5 b9 f1 3d a1 c5 ab 3e c7 b1 f1 bd d7 61 a0 bb
       0.11803023 0.33549216 -0.118014865 -0.004894476
000260 87 a7 15 3e 34 52 f2 bc 1c 68 bc ba 06 08 44 bd
       0.14614688 -0.029580213 -0.0014374289 -0.047859214
000270 79 b0 84 3e 24 b2 cf 3e f5 89 53 3d 5d ca 90 3e
       0.25915888 0.40565598 0.051645238 0.2827939
000280 a8 70 8a 3e 19 72 f9 be d3 c6 05 bf c7 a8 f9 3d
       0.27039075 -0.48719862 -0.52256507 0.12190395
000290 ae 18 1a be 39 f9 8f 3d 24 69 26 bd b4 3c ad 3d
       -0.15048477 0.07029957 -0.040627614 0.08458844
0002a0 5b 09 8f 3e f9 db 64 bc e0 34 f2 3e 32 9d be be
       0.27936825 -0.013968461 0.47305965 -0.37229306
0002b0 6f 44 1a be fc a7 7b be 09 3c d7 3b 36 2f d8 bd
       -0.15065168 -0.245758 0.006568436 -0.1055588
0002c0 48 f2 d2 3e 5d 00 0b be ad f3 c5 bd 0e 7f 13 3f
       0.4120047 -0.13574357 -0.09665618 0.57615745
0002d0 4f da 73 be da 9d bc bc ff 04 39 3e f8 15 7d bd
       -0.23813747 -0.023024488 0.18068312 -0.06178853
0002e0 4e 36 3b 3e 25 72 58 3e 4d cc 85 3d ec 02 9d be
       0.18282434 0.21137293 0.06533108 -0.30666292
0002f0 8d 20 bd 3e 5c e4 0d be a7 de 02 3d 25 ca 99 be
       0.36938897 -0.13856643 0.03195062 -0.30037037
000300 9c 82 a9 bd ed c7 59 be 8c 6c 0d 3d 53 39 5e 3e
       -0.08276865 -0.21267672 0.034527346 0.21701555
000310 95 0f cc be 3d 4b 39 3e 1d e5 e2 be 0a 53 89 be
       -0.39855638 0.18095107 -0.44315425 -0.26821166
000320 28 7c c8 be 48 39 bc bc fa d1 73 bd 34 13 82 3e
       -0.39157224 -0.022976533 -0.05952642 0.25405276
000330 d8 cf fb 3c ec e5 04 3c 00 6f 84 3e cd f4 09 bf
       0.030738756 0.008111458 0.25865936 -0.5388916
000340 a2 fb 87 bd ea 0c 7b be c2 26 93 3d 33 94 1a bf
       -0.06639792 -0.24516645 0.07185127 -0.60382384
000350 4f e1 4b 3e 17 54 3d 3e 58 a9 dd 3d a9 c2 8e 3d
       0.19910167 0.18489109 0.108233154 0.06970722
000360 e0 80 5e be 5e 58 43 bf 14 fb 06 3e 88 88 cf 3e
       -0.2172885 -0.7630671 0.13181716 0.40533853
000370 05 e1 1a be d9 21 9a 3e 51 34 f8 3d ec 3d 18 be
       -0.151249 0.3010395 0.121193536 -0.14867371
000380 e0 6c a1 be 93 89 a8 bd 43 35 71 3c df fe e1 be
       -0.31528378 -0.08229365 0.014722171 -0.44139764
000390 a6 3f af bc 13 60 40 3e 68 68 d4 be 08 ac 49 be
       -0.021392655 0.1878665 -0.41485906 -0.19694531
0003a0 e8 90 a3 bd 51 1f 96 be da 09 b9 3d f2 8d 0f be
       -0.07986623 -0.29320768 0.09035082 -0.14018992
0003b0 2b 5f 1c 3d 2d b4 a6 3d db 77 be be a2 60 b8 be
       0.038176697 0.081398346 -0.37200817 -0.36011225
0003c0 26 d8 12 be 24 f8 94 3d b9 86 8d be fb 89 22 be
       -0.14340267 0.072738916 -0.27641848 -0.15872948
0003d0 b2 2b 29 3e 70 95 f0 bd 04 9a da be a3 d4 27 be
       0.16520575 -0.11747253 -0.4269563 -0.16389708
0003e0 4b 1e c1 3e d0 a6 44 3d 10 cd 97 be 12 02 e4 3e
       0.37718424 0.048010647 -0.29648638 0.4453283
0003f0 9e 79 96 3e fd 9e 21 3d 8f 1d da 3d b9 88 1a bf
       0.29389662 0.039458264 0.10650169 -0.6036487

conv.2.bias f4 [32]
000000 2b dc db bc 59 0f cc bd 10 fc ba bd cf ac 12 3e
       -0.026838383 -0.09963865 -0.09130108 0.14323734
000010 ca 80 d9 bd 6a de eb bb d6 63 84 bd b2 8f 89 bd
       -0.10620268 -0.0071981447 -0.06464355 -0.06716861
000020 2a 5f f3 bd cc 1e 12 be a0 69 70 bd 5f 79 29 be
       -0.118833855 -0.1426956 -0.05869448 -0.16550206
000030 5f 3a f7 bd ad f0 22 bd 9b 1f 11 3d ef 06 c7 bd
       -0.1207168 -0.039780308 0.035430532 -0.09718119
000040 70 63 a2 bd 2f 7d 9a bc 6e d4 03 be d3 3e 7d 3b
       -0.079291224 -0.01885852 -0.12874004 0.0038642182
000050 bb bb c5 bd 61 4f 24 3e ac ac 13 be c6 53 73 3a
       -0.09654947 0.16045906 -0.14421338 0.00092821976
000060 8e 25 5c 3c 97 fc f2 3d e0 f9 7f bd 14 a6 02 be
       0.013436688 0.11864584 -0.06249416 -0.12758666
000070 88 12 c5 bd 0f 73 16 be cc 94 88 bd b0 ce 12 be
       -0.09622675 -0.14692329 -0.06669006 -0.14336658

conv.4.weight f4 [64, 32, 3, 3]
000000 ba a0 39 be 38 dd 81 bd e3 5b 9b 3b b8 c8 10 3e
       -0.18127719 -0.06341022 0.0047411784 0.14139068
000010 61 c1 e5 3d 4c c3 04 bb fb 2e 37 3e 3b 2a 8f 3c
       0.11218525 -0.0020258008 0.17889015 0.017476192
000020 25 f0 d0 3d 91 3e 50 3e 06 ff 23 be ee 8a 84 be
       0.10202054 0.20336367 -0.16015252 -0.25887245
000030 85 1c 28 be 75 4b c8 be 9d 73 3f be c5 30 b3 bc
       -0.1641713 -0.3912007 -0.18696447 -0.021873841
000040 b0 69 80 be 8e 2a a1 bd 36 86 87 bf 22 02 0a bf
       -0.25080633 -0.07869445 -1.0587833 -0.53909504
000050 75 67 12 bf e2 da cf be c5 fa e9 be 47 d0 3e bf
       -0.5718911 -0.40596682 -0.45699134 -0.74536556
000060 d3 ed 1c bf 2f 4f c8 be 38 2f b6 be 61 05 8b bc
       -0.6130039 -0.39122912 -0.355829 -0.016970338
000070 66 75 50 3d 23 bc 8d 3d cc 2f 3c bc 33 4b 7c 3d
       0.05089321 0.0692065 -0.011486005 0.061595153
000080 e7 5d 9c 3d 73 1f a3 3d 58 21 3c 3d bd b5 91 3d
       0.07635098 0.07964983 0.045930237 0.07114742
000090 fa 6a 2c bd 94 d6 43 3e f6 83 93 3d 70 b9 b6 bd
       -0.04209421 0.19124824 0.07202904 -0.08922088
0000a0 5f f8 d1 bd 79 29 f4 bb 2c 02 19 bf 4a e9 d5 3d
       -0.10252451 -0.007451233 -0.5976894 0.10444887
0000b0 86 24 ad 3d 1d ad 49 3e 0a e9 b2 3e ac 8a 8c 3e
       0.08454232 0.19694944 0.3494342 0.27449548
0000c0 53 2c a1 3e c7 ed f7 3d 6d 6b 88 3e 43 9d 7a 3e
       0.3147913 0.12105899 0.2664446 0.24474053
0000d0 44 a4 59 3d 4f fb 6d 3e 4b a7 43 3e 9e fb e5 3d
       0.05313517 0.23240398 0.19106786 0.11229633
0000e0 98 3e 31 3e c6 69 c1 3e 5a 63 b8 3d 27 09 84 3e
       0.17309034 0.3777601 0.09003325 0.25788233
0000f0 37 ea 4c 3e eb 8f 8c 3e f4 cd 9c 3e e7 71 83 3e
       0.20011221 0.2745355 0.3062588 0.25672838
000100 55 cf 3a be 27 50 09 bf 3b f5 9f be 96 04 a8 be
       -0.18243153 -0.5363793 -0.31241783 -0.32816
000110 21 bd b0 be d5 b8 25 be d8 54 20 bf e6 04 09 bf
       -0.34519294 -0.16183789 -0.6262946 -0.535231
000120 59 23 b0 bc dd 12 18 3d 73 ab 68 bc 23 b9 3e bd
       -0.02150123 0.037127364 -0.014201033 -0.04656328
000130 29 ab 3a 3d 7c a4 86 bc d0 9f c9 bc ac c8 89 3b
       0.045573387 -0.016435854 -0.024612337 0.00420483
000140 4e 04 54 ba 7f da 07 be 40 3c 8a be 7f 9e ab bd
       -0.00080877997 -0.13266943 -0.26999092 -0.0837984
000150 fe 34 6c 3c 01 da 73 be be 3e 02 be a0 8e 59 bd
       0.014416931 -0.2381363 -0.12719247 -0.053114533
000160 f0 98 6c be 6b 69 e3 bd 9d 33 33 bf bf 10 20 bf
       -0.23105216 -0.11104091 -0.7000063 -0.6252555
000170 34 bc d5 be cc bb 0b be 18 66 cd bd 94 db 94 3c
       -0.4174515 -0.13645858 -0.100292385 0.01817111
000180 2e 84 d3 bd b8 67 4b be 42 6c 6f bd a2 bc cf bd
       -0.10327946 -0.19863784 -0.058452852 -0.10143401
000190 31 26 94 3d f2 2a 0c bf b6 41 49 3e 61 e6 1c 3e
       0.07233847 -0.5475303 0.19653973 0.15322258
0001a0 43 79 a7 bd 48 21 44 3e 9d 94 10 3e 3b a1 c4 bd
       -0.08177426 0.19153321 0.14119191 -0.09601065
0001b0 46 96 98 3e 14 ef 9b be 5d eb b2 be 28 49 34 bd
       0.2980215 -0.3045584 -0.34945193 -0.04401508
0001c0 db 52 c3 be 84 7b 01 bf e7 aa 3b 3d 4d b5 97 be
       -0.3814915 -0.50579095 0.045817282 -0.2963051
0001d0 a4 d8 37 3c c3 a5 7c 3d d0 e2 69 3e aa ef c7 3d
       0.011221085 0.06168152 0.22840428 0.09762509
0001e0 08 f7 fc 3d 46 74 c8 bc c9 28 27 3e 44 2a db 3a
       0.12351805 -0.024469506 0.16324152 0.001672097
0001f0 b9 60 f9 bb 5d 8e 1a be 0e 39 0f 3e fb 47 c3 bd
       -0.007610407 -0.1509337 0.13986608 -0.095352136
000200 57 30 81 be d3 09 05 be 82 6c 8e be db f2 51 be
       -0.25232193 -0.12992029 -0.2781716 -0.20502798
000210 25 7a d1 bd 6e ec 84 be 91 24 4e be 44 3f 8e be
       -0.10228375 -0.25961632 -0.20131136 -0.27782643
000220 be c2 64 3f ec 5d 16 3f a1 cf 70 be 9f 21 dd 3e
       0.89359653 0.58737063 -0.23516704 0.43189713
000230 73 d7 27 3e 4e 7c 22 3e f8 9a 0c 3f 11 6d 47 3f
       0.16390781 0.15867731 0.54923964 0.779008
000240 c0 43 9f 3e 28 4e 96 3e 9f de e0 3e 4a 1d 4f 3e
       0.31106377 0.29356503 0.43919846 0.20226017
000250 04 2c b4 3e 2c 22 e1 3e fd a6 1c 3f a6 1a e9 3e
       0.3518983 0.43971384 0.61192304 0.45528144
000260 8c b4 0a 3f 7d d1 bb 3b 14 1b e9 3c 3a 47 4b 3d
       0.5418174 0.00573176 0.028455295 0.049628474
000270 8c f0 4e 3d 34 6e 3f 3d da 19 c4 bc 4a f5 00 bd
       0.050522372 0.046735957 -0.023938108 -0.031483926
000280 d7 bf 84 3c 54 02 2e 3d 56 7e 37 3b 70 d4 45 bb
       0.016204758 0.04248269 0.0027998886 -0.0030186437
000290 49 87 ad bc 21 80 9c bc fa 1c 8a 3c d3 bd 95 bd
       -0.021182673 -0.019104065 0.01685952 -0.07311597
0002a0 60 21 1c 3d 65 fe 9d bc 63 74 1d bd c3 1e 82 bd
       0.038117766 -0.019286344 -0.038441073 -0.063535236
0002b0 d9 5d 70 bc 1d 37 98 3b 84 86 b6 3d 1b 98 ae 3d
       -0.0146708125 0.004645242 0.089123756 0.085251056
0002c0 dc e6 d8 3d 63 bd 18 3d 97 74 6a bc 1c 10 39 3c
       0.10590908 0.03728999 -0.014310024 0.011295345
0002d0 64 c2 74 3e b2 3b e8 be 02 48 d7 be 77 9f bc 3e
       0.23902279 -0.45358044 -0.42047125 0.36840412
0002e0 d4 02 dd bd 67 c5 4c 3d 0f 17 12 3e c8 19 9a bc
       -0.10791555 0.049992945 0.14266609 -0.018811122
0002f0 09 6a 77 bc 66 f0 9e bd fd f2 5e be d1 84 b7 bd
       -0.015100964 -0.07760696 -0.2177238 -0.089608796
000300 f5 6b 76 be 6b be 7f be b2 b7 13 be c1 02 58 be
       -0.2406462 -0.24974982 -0.14425543 -0.210948
000310 85 81 87 be b4 99 28 be a0 00 3c 3d c7 d1 a4 3e
       -0.26466003 -0.16464883 0.045899034 0.32191297
000320 73 73 55 3e 88 7e 8f 3d f6 85 bf be 69 0b 83 be
       0.20844822 0.07006556 -0.37406892 -0.25594643
000330 68 56 1c bf e5 ca e0 bd 49 73 f9 bd 89 46 dc bc
       -0.61069345 -0.10976199 -0.12180192 -0.026889103
000340 a3 9d b9 3e 83 fc c8 3e d3 18 41 bd 21 aa c9 3e
       0.3625308 0.3925515 -0.047142815 0.3938761
000350 eb 90 f0 3e 99 3b 09 bd ea 6a d0 3e e3 36 d3 3e
       0.46985564 -0.033504102 0.4070657 0.41252813
000360 f5 a3 dc be b9 ea a4 be 15 bb a6 be aa 34 f2 3d
       -0.4309384 -0.3221033 -0.32564607 0.11826451
000370 68 ab 17 3e 71 eb 9a bd 18 db c4 bd bd 7e 06 3c
       0.1481148 -0.07564438 -0.09612101 0.008208928
000380 2c a1 46 be e3 5b 0c bd 5c f9 ae bd f6 d0 37 3d
       -0.1939742 -0.034267318 -0.08543655 0.044877015
000390 d1 7e de bc 48 87 e1 bd 9b 06 75 bd a1 3d a5 bc
       -0.02716008 -0.11012131 -0.059820753 -0.020170989
0003a0 af 02 66 bd 26 50 90 3d 60 b0 a9 3e 04 38 8b 3e
       -0.056154903 0.07046537 0.33142376 0.27191174
0003b0 44 31 51 3e af 7f 04 3e e2 ea 34 3d 91 5c 4c 3e
       0.2042895 0.12939332 0.044169314 0.19957186
0003c0 f1 f3 e9 3e 63 fb c0 3e c7 e9 99 3e 14 86 a7 3b
       0.45693925 0.37691793 0.3006117 0.005112419
0003d0 82 85 85 3b 69 0c 34 bc 06 56 1c 3d f5 7d 84 bd
       0.0040747533 -0.010989287 0.038167976 -0.06469337
0003e0 41 a8 19 bb cf 4a 40 3d 74 ad 04 3d 15 9d 22 bd
       -0.0023446234 0.046946343 0.03239198 -0.039700586
0003f0 3b b8 21 bd f2 f8 40 3d c3 e9 51 3c 05 18 cc bc
       -0.039482336 0.047112413 0.012812081 -0.024913797

conv.4.bias f4 [64]
000000 c3 bc 5c 3d 4b 90 79 bd 71 27 88 bd da bf 87 3d
       0.053890955 -0.060928624 -0.06648148 0.0662839
000010 3c 86 18 be 4f 1d e6 bd 57 0e 28 be 17 43 be bc
       -0.14894956 -0.11236059 -0.1641172 -0.02322535
000020 28 cc 7e bd 01 03 a5 bd 5a 09 22 3c 8f 49 44 be
       -0.062206417 -0.080572136 0.009889925 -0.19168685
000030 d2 cf d1 bb c3 fe 3b bd 2d e0 52 bd 58 02 9e bd
       -0.006402948 -0.045897257 -0.051483322 -0.07715291
000040 12 21 39 bd 04 15 af bd f5 9d 32 bc fe 77 43 bd
       -0.045197554 -0.0854893 -0.010901918 -0.047721855
000050 71 4f e7 bb f9 fc d9 ba d4 50 f4 bc cb e1 16 be
       -0.0070590307 -0.0016631178 -0.029823698 -0.1473457
000060 e7 5c ca bd 45 5f 0e be e6 b2 69 bd 64 23 e5 bd
       -0.09881001 -0.1390353 -0.057055376 -0.11188391
000070 4a cc c2 bd c8 0d f1 bd e6 a9 e4 bd 47 c8 b7 bd
       -0.09511621 -0.11770207 -0.11165218 -0.08973747
000080 e0 a5 87 3b 23 c6 84 bd 73 01 d8 bd 98 05 2e bb
       0.004139647 -0.06483104 -0.105471514 -0.0026553627
000090 cf a2 2a 3d c8 d0 7e bd 18 05 02 be 41 22 9a bd
       0.041659173 -0.062210828 -0.12697256 -0.07526065
0000a0 b5 40 49 be 58 cd 80 3a 1b a8 d5 bd 21 61 bd bd
       -0.1965359 0.0009826822 -0.10432454 -0.092470415
0000b0 93 72 84 3c 7f 05 10 be a8 80 ad bd 25 5b ad 3b
       0.016167914 -0.14064597 -0.08471805 0.0052904063
0000c0 0b f8 65 bd 38 12 41 bd c4 68 a0 bd 05 08 75 bc
       -0.056144755 -0.047136515 -0.078324825 -0.014955525
0000d0 46 9d 8f bd f5 c2 da bd f2 de d8 bd d9 a4 e8 bd
       -0.070124194 -0.10681716 -0.105893984 -0.11359567
0000e0 48 f9 1a be 66 55 23 3d 5f c1 c5 bd fb e1 17 3d
       -0.15134156 0.039876364 -0.09656023 0.037080746
0000f0 3d f2 d6 bd 26 69 0f bd bf 3d 49 3d 19 03 9e bd
       -0.10495422 -0.035012387 0.04913115 -0.077154346

lin.2.weight f4 [128, 64]
000000 da b7 9c 3c 60 86 d8 bd f4 b8 b2 bd 20 9a 88 3d
       0.019130636 -0.10572505 -0.08726683 0.06670022
000010 93 16 b6 bd f4 b5 75 3d 97 6f 13 be a8 44 51 bc
       -0.088910244 0.059987977 -0.14398037 -0.012772717
000020 05 ae 06 be 88 d7 6f 3d 0e 82 af 3d b6 d0 93 3d
       -0.1315232 0.058555156 0.08569728 0.07217543
000030 97 4f ea 3c 40 29 ac 3d 45 39 d4 3d e8 10 8c 3d
       0.028602405 0.08406305 0.10362486 0.06839162
000040 24 67 57 3d d0 a8 1d 3d 41 f3 ff bb 14 6b 84 3d
       0.052588597 0.03849107 -0.0078109805 0.06465736
000050 84 98 84 3d 7c e7 91 bd 28 58 c0 3c 64 ae 89 3d
       0.064744025 -0.0712423 0.023479536 0.067227155
000060 06 34 eb bd 8b ec c3 bd 28 2a 0d bd 10 31 95 3c
       -0.11484532 -0.09566601 -0.03446403 0.018211871
000070 a2 2e a3 3d d0 9e 7f 3d 48 be 7c 3d e0 b9 e0 bc
       0.07967879 0.062407315 0.061704904 -0.027432382
000080 a0 9f 09 bd ec 2c f9 bd 10 b4 7c bc 2c 6b 80 bd
       -0.033599496 -0.12166771 -0.01542379 -0.062704414
000090 cc ce bb bd 0c f5 09 3d bc c1 9c 3d 16 f8 ee 3c
       -0.09170303 0.03368096 0.076541394 0.029171031
0000a0 d8 81 af bd 78 6f f5 bc 8a 56 de bd 78 d3 a5 bc
       -0.085696876 -0.029960379 -0.1085635 -0.020242438
0000b0 ad e4 cf 3c 1a 05 ca 3d f2 36 d0 bd e0 3b cf bc
       0.025377596 0.09864254 -0.1016673 -0.025297105
0000c0 00 7d 95 bd 9c b4 b8 3d eb b0 ae 3d be 2c e3 bd
       -0.072992325 0.090188235 0.08529838 -0.11092518
0000d0 3a 7f 5f bd 44 4e 74 3b 7b b2 11 be 1c d8 f0 bd
       -0.054564692 0.0037278095 -0.14228241 -0.117599696
0000e0 0c 14 c4 bd 3d 32 68 3d fa 82 50 b9 84 d0 71 bd
       -0.09574136 0.056688536 -0.00019885218 -0.059036747
0000f0 68 89 90 bc bf a4 e8 3d 88 5c 09 be 8c 81 48 3d
       -0.017643645 0.11359548 -0.13414204 0.04895167
000100 bc af d4 bc c6 80 f7 bd 0c d2 de 3d ac 3d 6c bd
       -0.025962703 -0.120851085 0.10879907 -0.057676002
000110 26 cc 93 3d 10 ab 18 3c 8b 46 e1 3b ea 35 23 bd
       0.072166726 0.009318128 0.0068748645 -0.03984634
000120 a7 e7 fa bd 8e 0c 80 3d 35 b3 83 bd cf 90 d4 3c
       -0.122512154 0.062523946 -0.064306654 0.025947956
000130 7b 10 c5 3d 4c a3 13 bd 88 7c e3 bb 70 37 cb 3c
       0.09622284 -0.036044404 -0.0069423355 0.024806708
000140 2c 12 21 bd 28 49 6c 3d 4f 1b cd bd 8d 00 76 3d
       -0.03932397 0.057686955 -0.10014974 0.06005912
000150 03 a6 8c bd 7e ce c2 bc b8 51 2f bd 5b e2 05 bc
       -0.06867602 -0.023780104 -0.042802542 -0.008171643
000160 af ec 87 3d ac b3 4f 3b 21 42 86 bd e6 6f f0 3d
       0.06636941 0.0031692786 -0.06555582 0.11740093
000170 7a 26 e9 3d 58 6a 54 bd 17 a4 c4 bd 5c 47 b5 bd
       0.11384292 -0.05185923 -0.0960161 -0.08851501
000180 a0 35 b3 3c 2e 2d ef 3d ed 19 93 3c 52 59 c7 3c
       0.021876156 0.11678539 0.017956698 0.024334583
000190 33 eb fb bd 3e 0d e9 3c 86 34 89 3d f6 2d 76 bd
       -0.1230072 0.028448697 0.06699471 -0.060102426
0001a0 44 b4 ca bd f0 9b 78 bc 57 58 04 be ad e9 be 3d
       -0.09897664 -0.015173897 -0.12924324 0.09321914
0001b0 03 a8 c7 bd 92 c5 c7 3d 2c f8 fd bd 10 29 6d 3d
       -0.097488426 0.097544804 -0.12400851 0.05790049
0001c0 17 9d 97 bd ec 9e f1 bd 67 f8 5a 3c 58 b2 eb 3d
       -0.074030094 -0.1179789 0.013364888 0.11508626
0001d0 64 b4 7a bd 36 dc 2e 3c 27 36 d4 bd 32 57 78 3d
       -0.06120719 0.01067262 -0.10361891 0.06063003
0001e0 90 db b9 3d 4a c6 64 bd d7 9b c8 3d 16 7d 84 3d
       0.09075081 -0.055853166 0.09795349 0.06469171
0001f0 88 32 8a 3c a6 a8 61 bd 48 fa 83 3d 0b c9 78 bc
       0.016869798 -0.055092476 0.06444222 -0.015184651
000200 a7 6a 9f bd 70 9c 16 be a4 e8 0f be 41 c1 c3 3d
       -0.07784014 -0.14708114 -0.14053589 0.09558345
000210 ef 18 c3 bd 43 2a c0 bd 5e d6 4c 3d 1c b0 4b bd
       -0.0952624 -0.09383061 0.050009124 -0.049728498
000220 ba bb fa bd 40 ba ce 3c a3 d7 34 bd 7f aa e4 3c
       -0.12242837 0.025235295 -0.04415096 0.02791333
000230 56 e5 b4 3d 6d e5 36 bd 8a 31 2e 3d 08 e3 5f bd
       0.08832805 -0.04465239 0.042527713 -0.054659873
000240 f8 e3 8c bd c1 d7 c0 3c fe a8 48 bd b3 da 7c 3c
       -0.06879419 0.02354038 -0.04898929 0.015433001
000250 ce 8b b8 3c 02 85 f5 bd 08 2d 66 bd 50 8b b2 3d
       0.022527602 -0.1198826 -0.05619529 0.08717978
000260 81 a8 de bc ac 1b e0 3d e1 3a 88 3d 48 af 0f bd
       -0.027179958 0.10942778 0.06651855 -0.03507927
000270 51 77 a2 bd 54 e5 28 3d f1 cd 48 bd ed c6 10 bd
       -0.07932914 0.04123433 -0.049024526 -0.03534596
000280 92 9b 09 bd 23 2b d4 bd 3a cf 4c 3d 5b 53 8b bd
       -0.03359563 -0.1035979 0.050002314 -0.06803008
000290 c9 5f 01 be b7 1b 02 be aa 50 a3 bd c4 47 b8 bb
       -0.12634195 -0.12705885 -0.0797437 -0.0056237895
0002a0 49 a4 10 be dc 75 92 3c fe a8 d4 bd d0 43 04 bd
       -0.1412517 0.017878465 -0.10383795 -0.032291234
0002b0 2c 3b 38 bd 20 a2 87 bd c5 a3 a0 3d 44 9d 90 bd
       -0.044978306 -0.0662272 0.078437366 -0.07061246
0002c0 bd 9e 5b 3c 04 b7 68 3d 3e b5 70 3d 8a 72 0a 3d
       0.013404545 0.056815162 0.058766596 0.03380064
0002d0 38 5a 19 bd 6d 09 9d bd ca ad f6 bd d3 7e d6 3d
       -0.037439555 -0.076678135 -0.120448664 0.104734086
0002e0 5f b1 11 be b3 c7 61 bd 2b 07 9c 3d c7 81 53 bd
       -0.14227818 -0.05512209 0.07618555 -0.051637437
0002f0 4e fc d6 bd 1b 09 c3 3d 8d 26 78 bd 95 12 cf 3c
       -0.10497342 0.09523221 -0.06058364 0.025277415
000300 2b cf d0 3d dc ab 86 be 42 2d cd be 33 4f 86 bc
       0.10195764 -0.26302993 -0.4007359 -0.016395187
000310 6e 62 09 bf 26 cf 05 3b 82 75 52 bf ce 21 f1 3d
       -0.53665817 0.002041766 -0.8221055 0.11774026
000320 2f d5 01 bf 90 00 b7 3d 3a 69 1e 3d 78 ca d2 be
       -0.5071592 0.08935654 0.03867457 -0.41170096
000330 0b a2 09 bf e3 71 fa bb 30 3e 6f be 38 37 c4 be
       -0.5376288 -0.007642971 -0.23363566 -0.3832338
000340 ba 14 99 be 06 f8 69 be 39 48 db 3d 91 99 24 3e
       -0.29898626 -0.2284852 0.10707135 0.16074206
000350 dc 65 bc 3e 3d 95 b2 3c 93 f5 96 bd 46 04 60 bf
       0.36796463 0.021799678 -0.07371058 -0.8750652
000360 d3 c2 c8 bd 83 6e c3 be b3 51 1c bf 26 6a e6 3d
       -0.09802785 -0.3817025 -0.61062163 0.11250715
000370 ae ba 83 3e 5c ef 0a bd df 75 20 be 65 02 b2 be
       0.25728363 -0.033919677 -0.15669964 -0.34767452
000380 83 50 2c 3e d5 32 0b 3e 22 97 f4 be 9e e9 ca bd
       0.16827588 0.1359361 -0.47771555 -0.0990784
000390 79 79 4a 3e 8a 4e fe be eb 5b d4 bd ec 7b 30 3e
       0.197729 -0.49669296 -0.103690945 0.17234772
0003a0 cb 4f ab be e4 c5 fb bd a2 0a 8e be 47 15 a0 be
       -0.33459315 -0.12293604 -0.27742487 -0.31266233
0003b0 9c a4 23 3e 61 87 43 be 09 87 af 3e e5 c1 b6 be
       0.15980762 -0.19094612 0.3428271 -0.35694805
0003c0 5a 5c c6 be 71 f9 63 3e 33 68 81 3e 52 1a 8d bd
       -0.38742334 0.22263123 0.2527481 -0.06889786
0003d0 0e 6c 09 bd f8 69 3a be e1 b8 68 be 23 cc b2 bd
       -0.033550315 -0.18204486 -0.22726776 -0.08730342
0003e0 43 b7 f5 be 55 9e d0 3d 79 11 df be 18 f3 cb bd
       -0.4799138 0.101864494 -0.43568018 -0.09958476
0003f0 09 ba d8 3d fa df 96 be 4f ce 01 bf fd 02 db 3e
       0.105823584 -0.29467756 -0.50705427 0.42775717

lin.2.bias f4 [128]
000000 5c 62 b1 bd 20 fc ca bd 23 b2 74 bd f4 29 f0 b8
       -0.08661339 -0.0991137 -0.059740197 -0.00011451906
000010 b6 8c 8b bd f5 fe f4 3d fa 0c 9c bd d4 7f 41 bd
       -0.06813948 0.11962692 -0.076196626 -0.047241047
000020 56 c3 a6 bd 4c bb 06 be 04 61 5b 3e 05 f7 cc 3d
       -0.08142726 -0.13157386 0.21423727 0.10008053
000030 a5 7a fe bd 41 26 4d 3e 1b d9 98 3d 2a cf 83 bd
       -0.12425736 0.20034124 0.074632846 -0.06435998
000040 14 a1 12 be 79 70 11 3e b8 93 e9 bd de 80 90 3c
       -0.14319259 0.14203061 -0.11405128 0.017639574
000050 aa 63 13 3e b9 d5 a1 3d 42 16 12 3e 90 87 e4 3d
       0.14393488 0.079020925 0.14266303 0.11158669
000060 6d 58 a1 3d 60 11 2a bd 60 db 99 bd 93 2d 0a be
       0.07878194 -0.041520476 -0.075125456 -0.13493948
000070 5c 90 af bd 2a 24 3b be ad 7c 20 be 42 8d d1 bd
       -0.08572456 -0.18275514 -0.1567256 -0.10232021
000080 23 fc 52 3d 30 65 97 bc 83 46 b5 bc 77 eb 71 3d
       0.051509988 -0.018480867 -0.02212835 0.059062447
000090 90 3f cb bc b3 fe 19 3b 3b 0e d8 bd 15 0c cc bd
       -0.024810582 0.002349776 -0.10549589 -0.09963242
0000a0 cf b5 a2 3d 00 b8 ab bd 96 b5 56 bd f2 81 62 bd
       0.079448335 -0.083847046 -0.052419268 -0.055299707
0000b0 53 1a bc 3d 59 41 bd bd 32 21 6f 3c 4a 2e ac bd
       0.091847084 -0.0924098 0.014595317 -0.084072664
0000c0 c2 3e a1 bd 7d 91 2a 3e cb 03 bf bd 71 2a a1 3c
       -0.07873298 0.16657062 -0.09326895 0.019673558
0000d0 4a 39 70 3d 28 9a 17 be 4a b5 7f 3d ea 0b fa bd
       0.058648385 -0.148049 0.06242875 -0.12209304
0000e0 1a 5e 34 3d 01 75 db bd 8e 76 90 be 40 32 bf bd
       0.044035055 -0.10715676 -0.2821545 -0.09335756
0000f0 39 52 14 3e 2e 0b 1e bd 9c 50 cd bd bc 37 bf bd
       0.1448449 -0.03858488 -0.10025141 -0.09336802
000100 09 82 1d bd 26 94 9e bd 7b 1d d1 bb 9e 06 55 3e
       -0.03845409 -0.07743101 -0.006381688 0.20803306
000110 59 ff c4 3d c0 74 43 3b 84 40 e0 3d 3e 62 d9 bc
       0.09619016 0.0029824227 0.109498054 -0.026536103
000120 ab f8 f7 bc 02 f8 f1 bd 0d bd 54 bc e5 de fc bd
       -0.030269941 -0.11814882 -0.012984526 -0.12347201
000130 33 6f 94 3c 6e e8 ca bd d3 f3 a8 bd a8 2a 54 bd
       0.01811943 -0.09907614 -0.08249631 -0.051798493
000140 32 11 98 3c 42 e7 0c bc 18 d6 01 bd 6c e7 7d bd
       0.018562887 -0.008600058 -0.031698316 -0.06198828
000150 46 d4 ef bd 42 a3 5b 3c 2a 81 42 3e 78 9b 99 bd
       -0.1171041 0.013405623 0.18994585 -0.075003564
000160 17 cf df bd 38 c0 07 be 9d 77 0e be 36 37 ea bd
       -0.10928171 -0.1325692 -0.13912816 -0.11436312
000170 eb b7 db bd 4c 24 2a 3e 6f ef 1f 3c 79 da 6f 3e
       -0.10728439 0.16615409 0.009761675 0.23423184
000180 68 b9 85 3d 2e ab 36 bc 0f 56 1d be 08 27 42 3e
       0.06529504 -0.011149211 -0.1536486 0.18960202
000190 97 75 89 3d 60 ac 10 be 3b ba d5 bd ee 4f 7b 3d
       0.067118816 -0.14128256 -0.10435911 0.061355524
0001a0 02 ce 08 3c af 63 e4 bd 2a f2 3b bc 85 89 13 be
       0.008349897 -0.11151826 -0.011471311 -0.14407928
0001b0 79 06 c2 3d 57 58 8c 3d 0d 98 4b 3e a9 3c c8 3d
       0.09473891 0.06852787 0.19882222 0.09777195
0001c0 2b fa de bd 7f f1 e8 bc 6c 3f 71 3c 13 b4 39 3d
       -0.108875595 -0.028435467 0.014724594 0.045337748
0001d0 12 21 57 bc 95 15 1e 3e b8 cc 03 be 0a e6 a2 bd
       -0.013130443 0.1543792 -0.12871063 -0.07954033
0001e0 a0 ac 10 3d 1c 2a 32 3e cb 28 40 3d 3b b7 d1 bc
       0.035320878 0.17398876 0.046913903 -0.025600066
0001f0 b6 36 3d bc fe 97 1d be 5a ab 1a be 38 10 f7 bd
       -0.011548689 -0.15390012 -0.15104428 -0.1206364

lin.4.weight f4 [4, 128]
000000 c3 dc 2c bd b8 4c 26 bc 5e ca 1c 3d 4b dd 18 be
       -0.042202722 -0.010150127 0.03827893 -0.14928167
000010 53 12 62 3c f9 2f 3d be ee 5e 98 bc ad bc 8d 3d
       0.013798314 -0.18475331 -0.018599954 0.06920753
000020 ad 14 90 3d f0 d2 b6 bc 34 be 0c 3e e8 b5 51 3e
       0.070351936 -0.02231738 0.13744432 0.20479548
000030 e5 e4 97 3c 81 65 d0 3e 6f 77 c4 be fc f8 d7 bc
       0.018541763 0.4070244 -0.3837237 -0.026363842
000040 e5 bb b9 3c 14 3f 04 bf f2 06 39 3d 03 57 3c be
       0.022672603 -0.5165875 0.04517264 -0.18392567
000050 cf 6f c7 3d c9 97 d3 3e 60 a5 b2 bd 55 93 7d 3e
       0.09738123 0.4132674 -0.08722949 0.24763234
000060 5f 24 f5 3e 80 b9 fc 3a 87 62 98 bc 60 fe d9 3b
       0.4787931 0.0019281358 -0.018601669 0.0066526383
000070 2e cf d2 3d 4b 83 c6 3d ab 81 13 be 34 69 f3 3c
       0.10293423 0.09693011 -0.14404933 0.02971325
000080 15 53 8b 3d ca 4a 8d bd 54 d2 f8 bd d9 45 32 3e
       0.06802956 -0.068990305 -0.12149492 0.17409457
000090 17 00 50 bd 0d 1a 33 3b e8 b3 c1 bd b3 d5 15 bc
       -0.050781336 0.002732876 -0.094581425 -0.009145188
0000a0 38 0b 4a 3e 82 52 85 bd 90 d3 67 bc 4d 80 d7 3e
       0.19730842 -0.06509878 -0.0141495615 0.42090073
0000b0 7e 07 98 bd 4d 6e 8b bc 5d 18 c5 3d 75 32 58 3d
       -0.07423304 -0.017020369 0.096237876 0.052782495
0000c0 21 ba 90 3d 9d 78 3c 3e 0d 2f ec bc ef 78 cc bc
       0.07066751 0.18405385 -0.02883103 -0.02496001
0000d0 63 78 1e bb b0 2a c2 3b b6 59 1b bd f6 06 0b bd
       -0.0024180643 0.005925499 -0.037927352 -0.033942185
0000e0 53 4e 9f bd e7 11 52 bd ea 09 64 3e 79 ce 1e bd
       -0.07778611 -0.051286604 0.22269407 -0.038771126
0000f0 a6 d2 46 3e dc ae fc 3c 66 1d 9b bd e0 c0 8e bd
       0.19416294 0.030845098 -0.07573967 -0.06970382
000100 29 1a c3 bc e0 a4 d9 3c e2 97 8f bd cb 1c 31 3e
       -0.023816185 0.026567876 -0.07011391 0.1729614
000110 9e 11 73 3e 97 16 c4 bd 63 ae a4 be 2f b2 51 be
       0.23737189 -0.09574621 -0.32164297 -0.20478128
000120 81 e0 6f bc 49 f6 ae 3d c4 df 1b bd 29 a4 13 bd
       -0.014640928 0.08543069 -0.038055196 -0.036045227
000130 b0 fa b1 3e da 03 3e bd 41 f5 22 bc f2 c8 3c 3d
       0.34761572 -0.046390392 -0.009946168 0.046090074
000140 0d 41 98 bd 36 dc 7f bc 3a 4c 51 bb 0e 1d 85 bd
       -0.074342825 -0.015616467 -0.0031936304 -0.06499682
000150 6f 37 88 3d 99 d9 d1 3b 9c 51 24 3e 6c e5 25 be
       0.06651198 0.0064041135 0.16046757 -0.16200799
000160 dc b0 55 bd a4 8d 57 bd e8 73 57 3c b3 cd 98 3c
       -0.05217062 -0.052625313 0.013150193 0.018652773
000170 87 f3 f9 bc b7 3e 33 3c 83 8c 88 be 39 b5 21 3e
       -0.03051163 0.010940245 -0.26669702 0.15791787
000180 b1 cd a7 3b dd 1e d4 be f0 ae 52 bc 12 68 04 3e
       0.005120956 -0.41429797 -0.012859091 0.12930325
000190 01 ef 47 be 06 14 6d bd fe d9 23 bd ff 62 b3 3e
       -0.19524767 -0.057880424 -0.040002815 0.35036466
0001a0 90 85 33 be f1 da e6 3d e5 30 4e bd 32 ae 75 bd
       -0.17531419 0.112722285 -0.0503396 -0.05998058
0001b0 4c 57 89 be 77 a5 c7 bd f5 62 56 3e 05 ad 81 3e
       -0.26824415 -0.09748357 0.20936187 0.25327316
0001c0 80 b2 70 bb ff 86 c7 3d 24 bb d9 bd 15 51 e5 3e
       -0.0036727488 0.09742545 -0.10631397 0.44788423
0001d0 b4 b6 59 bd 37 91 b5 3b 00 f3 4c 3d ba 31 51 bd
       -0.053152755 0.0055409926 0.05003643 -0.051072814
0001e0 4b 8d ca bd 58 db b9 3e 45 5f b6 be b6 d2 dd 3c
       -0.09890231 0.36300159 -0.3561956 0.027078014
0001f0 a3 cc ca 3c 96 c0 a4 bd bf b2 a5 3d 7d d6 98 3d
       0.024755782 -0.08044545 0.08090734 0.074627854
000200 10 ba 53 bc 2d 13 cf 3d 79 34 08 bd fe e8 cd be
       -0.012922779 0.10111079 -0.033253167 -0.4021682
000210 84 7e b4 bd be f4 41 3e 87 2e 41 bd 90 99 cf 3c
       -0.088131934 0.18941018 -0.047163513 0.025341779
000220 6c 10 d1 bc d5 ea 61 3c 0c a0 1c bf 69 fc ef 3e
       -0.025520526 0.0137888985 -0.6118171 0.4687226
000230 14 c6 f3 3d 1b 32 1b 3d 86 dd 1c bf b0 e0 53 3c
       0.11903015 0.03788958 -0.6127552 0.012931988
000240 e3 61 2b bd 68 7b 26 3e 3c ce b1 bc da f6 11 be
       -0.0418414 0.16258013 -0.021704786 -0.14254323
000250 ad ad 93 3c 20 d7 ca 3e 36 4d b3 3d d5 0e 0d 3e
       0.018027151 0.39617252 0.08754961 0.13775189
000260 4b 55 ee 3e 40 36 78 3b 75 4e c2 3b 51 42 06 3d
       0.46549448 0.0037874132 0.005929763 0.032778088
000270 9f 2b 89 3c 91 f3 b0 bd 7f 53 f2 bd cb b8 14 3a
       0.016744433 -0.086402066 -0.11832332 0.0005673288
000280 d5 be d1 be c1 48 a3 3d 35 8a ca be 22 3d a1 3d
       -0.40965906 0.07972861 -0.3955857 0.07872988
000290 87 99 40 bb 15 f0 01 3c fb 4f 0e 3e 68 40 ed 3b
       -0.0029388384 0.007930775 0.13897698 0.007240344
0002a0 f0 aa cf 3e f4 fc b9 3c a9 92 a6 bd a7 ec 73 be
       0.40560102 0.022703625 -0.08133442 -0.23820744
0002b0 60 d0 70 bd 78 e2 a6 bc 86 3d 59 3e 01 3c 0e bf
       -0.058792472 -0.02037166 0.21214876 -0.5556031
0002c0 93 b2 a3 3d b7 52 3a bc ed e7 e1 3c 5d bb a3 3c
       0.07993045 -0.01137226 0.027576411 0.019986803
0002d0 16 a9 0a 3d 7f 87 85 3b c2 7b c1 be dd 99 f3 3c
       0.03385266 0.0040749903 -0.37789732 0.029736454
0002e0 6b f2 b2 bc 9e ca 30 bd a7 dc 59 be 5f b3 89 bd
       -0.02184411 -0.04316198 -0.21275578 -0.067236654
0002f0 1d b8 7d 3e 37 f3 8f 3d a4 c5 97 bc 0c bc ce bc
       0.24777265 0.070288114 -0.01852686 -0.025236152
000300 1d ec 3e bd 74 29 f3 3c 74 7f 74 3c 8a 6d e8 3e
       -0.046611894 0.029682852 0.014922965 0.45396072
000310 c3 7e bc bc fd 45 0f 3d 1d 8b f9 be 69 40 51 3e
       -0.023009663 0.034978855 -0.48738948 0.20434727
000320 3a b8 af 3c 28 70 65 3d 97 0f 62 bd 51 3f b1 bd
       0.02145015 0.056015164 -0.05519065 -0.08654655
000330 ee b7 e4 bc d5 52 a9 3d aa c2 46 bd d8 ef 60 3c
       -0.027919736 0.08267752 -0.04852549 0.013729058
000340 22 0d 81 be 62 99 c4 bc 32 14 17 3c fe ba f2 bc
       -0.25205332 -0.02399892 0.0092211235 -0.02963018
000350 6a 18 7b bd 49 0d 3a 3e 5e 09 f0 3c 86 57 d0 3d
       -0.06130258 0.1816913 0.029301342 0.10172944
000360 9c 1f 8e 3d ce 61 90 3c ce 4f 04 3d 0a c3 cd 3c
       0.06939623 0.017624762 0.03230267 0.025117416
000370 40 51 da ba 2c 7c f4 bd 81 e2 95 bd 41 3b 13 3f
       -0.0016656294 -0.119377464 -0.07318593 0.5751229
000380 ad 0f 7b be f4 5d c7 3d 00 c5 8e 3a 02 5e 09 3d
       -0.24517699 0.09734717 0.0010892451 0.03353692
000390 4b 8e 0c 3e 54 07 a9 3c 7f 99 33 3c 52 94 25 be
       0.13726155 0.020633377 0.010961889 -0.16169861
0003a0 05 f9 21 3d 70 dd d3 be 3a 3a 8d bc 5b 53 90 bd
       0.039544124 -0.4137988 -0.017239679 -0.07047149
0003b0 38 44 ca 3e eb 12 76 be e2 27 fb 3e f4 d6 83 bd
       0.39505172 -0.24030654 0.49053866 -0.064374834
0003c0 60 4a 9c bb b9 52 28 bd d6 c9 19 3c 84 10 de 3e
       -0.0047696084 -0.041094515 0.0093865 0.43371975
0003d0 93 52 4e be 68 c6 2e 3f 52 b7 a4 3d bb 91 a9 3d
       -0.20148687 0.68271494 0.08042778 0.08279749
0003e0 92 c1 f3 be f2 a5 11 3e d4 55 88 be 12 f4 77 3d
       -0.4760862 0.1422346 -0.26627982 0.060535498
0003f0 2d 1b df 3b 16 3a 82 bc 9e b3 71 bd 0f c3 23 bd
       0.0068086595 -0.015896838 -0.059009187 -0.039980944

lin.4.bias f4 [4]
000000 3a f8 07 3e 04 28 f2 3d 3e 98 b3 3d 9b 25 e0 3d
       0.13278285 0.118240386 0.08769272 0.10944673
