snapshots.pth (torch, 135892 bytes, 10 tensors)

conv.0.weight f4 [16, 7, 3, 3]
0	0x3e670fa7	0.22564565
1	0xbe2de3f4	-0.16981488
2	0x3e218e64	0.15776974
3	0x3e9c7a8c	0.30562246
4	0xbca12efe	-0.019675728
5	0x3d78eb63	0.060771357
6	0xbb8f7eb4	-0.004379118
7	0xbd8f68c6	-0.07002406
8	0x3e2d160a	0.16902938
9	0xbd841af8	-0.064504564
10	0x3e0e6fab	0.13909785
11	0xbc2cf6e5	-0.010556911
12	0x3dc9d16f	0.098543994
13	0xbd929487	-0.071572356
14	0xbd925d20	-0.071466684
15	0x3c493897	0.0122815585
16	0x3db2a541	0.08722926
17	0x3dbedb1f	0.09319138
18	0xbe247638	-0.16060722
19	0xbda88a04	-0.082294494
20	0xbda2b0e1	-0.07943893
21	0xbde7df73	-0.113219164
22	0x3e71ce19	0.23613776
23	0x3e0166c6	0.12636861
24	0xbe0b7d2f	-0.13621973
25	0xbe57815e	-0.21045443
26	0x3e181967	0.1485344
27	0xbdb8f854	-0.0903174
28	0x3da6e69a	0.081494525
29	0xbe102bce	-0.1407921
30	0x3e17d0da	0.14825764
31	0xbe10d1eb	-0.14142577
32	0x3da79795	0.08183209
33	0x3d5ef716	0.05443486
34	0xbe067b55	-0.13132985
35	0x3dd39543	0.10331204
36	0x3d541333	0.051776122
37	0x3d955dca	0.072932795
38	0xbdc4ad14	-0.096033245
39	0xbd9a7003	-0.07540896
40	0xbcaae954	-0.020863213
41	0xbdab0cf8	-0.08352083
42	0x3da5b9dd	0.08092091
43	0x3e3daee4	0.18523747
44	0x3d7410f8	0.059586495
45	0x3d6a9f6d	0.057280947
46	0x3dfd1590	0.12357628
47	0x3d13699a	0.03598938
48	0x3d618f32	0.055068202
49	0xbe2b661b	-0.16738169
50	0xbe2f2f82	-0.17107967
51	0xbc87769d	-0.016536051
52	0xbe00823f	-0.12549685
53	0xbbd2a375	-0.006428177
54	0xbae62f26	-0.0017561659
55	0xbd577927	-0.052605774
56	0xbd82e042	-0.0639043
57	0x3d1e1143	0.03859068
58	0x3dcf4429	0.101204224
59	0xbe1217dc	-0.14266914
60	0xbcc35aa9	-0.023846941
61	0xbe101539	-0.14070596
62	0x3ccaf033	0.024772739
63	0x3e82de7b	0.25560364
64	0xbb587c59	-0.0033033101
65	0x3dc183f7	0.094489984
66	0x3e7cbfea	0.24682584
67	0xbe25a779	-0.16177167
68	0xbc18f9db	-0.009336914
69	0xbe3a851a	-0.18214837
70	0x3ea7c34b	0.32766184
71	0x3ce1f050	0.02758041
72	0x3db62fdb	0.088958465
73	0xbe48eb21	-0.19620945
74	0xbdffed77	-0.12496465
75	0xbc8d36f1	-0.017238112
76	0xbe40e666	-0.1883789
77	0xbd0b9267	-0.034075167
78	0xbda51f8e	-0.08062659
79	0x3dff2759	0.12458677
80	0xbd854000	-0.06506348
81	0xbdeffcd3	-0.11718144
82	0xbd5c4d5d	-0.053784717
83	0x3db92169	0.090395756
84	0x3df8edb5	0.12154714
85	0x3d8710d2	0.06595005
86	0xbe35945e	-0.17732379
87	0xbe0936d1	-0.13399817
88	0xbd7490e1	-0.05970848
89	0x3d10b41a	0.03532801
90	0xbcc8dfc4	-0.024520762
91	0xbe1a055a	-0.15041104
92	0x3b61a440	0.0034430176
93	0x3d2af876	0.041740857
94	0xbe4a72fd	-0.19770427
95	0xbe36e27c	-0.17859834
96	0x3dd76a6e	0.10518347
97	0x3cbc69d3	0.02299968
98	0xbe78b91e	-0.24289367
99	0xbe15d4d2	-0.14631966
100	0xbdd18288	-0.10229975
101	0xbd8f9121	-0.07010103
102	0xbc963d31	-0.018339725
103	0xbe176e04	-0.14788061
104	0xbdeb538b	-0.11490544
105	0xbc1d9b5e	-0.009619562
106	0xbded223c	-0.11578795
107	0xbd09d839	-0.03365347
108	0x3db251d1	0.087070115
109	0xbe1fd9cd	-0.15610428
110	0x3d596c9f	0.053082105
111	0x3d8f3983	0.06993391
112	0xbd63a0f0	-0.055573404
113	0xbdf0a79a	-0.117507175
114	0xbddb76a1	-0.10715986
115	0xbd93a1d5	-0.072086014
116	0xbda7acba	-0.08187242
117	0xbd80afaa	-0.06283505
118	0xbe169dbc	-0.14708608
119	0xbe070473	-0.13185291
120	0xbc15f38a	-0.0091523025
121	0xbcee0eab	-0.029059729
122	0xbdddc2c3	-0.108281635
123	0xbddeaf35	-0.10873262
124	0x3c9208cf	0.017826466
125	0xbe12a60c	-0.14321154
126	0xbe52726f	-0.20551465
127	0xbe01ebda	-0.12687626
128	0x3e167480	0.14692879
129	0x3d320a84	0.04346706
130	0x3e3ec9e5	0.18631704
131	0x3e3aee9f	0.18255089
132	0xbe5df43f	-0.21675204
133	0x3e72cf3a	0.23711863
134	0x3e33e3b3	0.17567329
135	0xbe86ced9	-0.26329687
136	0xbe563624	-0.2091909
137	0xbe5138ef	-0.20431875
138	0xbe539d96	-0.20665583
139	0xbe797269	-0.2436005
140	0xbc1288f6	-0.008943787
141	0xbe59c970	-0.21268249
142	0x3d501607	0.050802257
143	0x3d70cf22	0.058791287
144	0x3dd5347b	0.104104005
145	0xbbe53039	-0.006994274
146	0x3e1e7b22	0.15476659
147	0xbe23a5f5	-0.15981276
148	0x3dfbbd08	0.12291914
149	0xbe847244	-0.25868428
150	0xbe34cc44	-0.17656046
151	0xbe554236	-0.20826039
152	0xbe82caa1	-0.2554522
153	0xbe31e5fc	-0.17372888
154	0x3e074f37	0.13213812
155	0xbced6735	-0.028979877
156	0xbc9d2438	-0.01918231
157	0xbc2041c7	-0.009781308
158	0x3e0b5eb6	0.13610348
159	0xbd2a8be7	-0.041637328
160	0x3db927d0	0.09040797
161	0x3e5d9556	0.21638998
162	0xbd9d0e6a	-0.07668765
163	0xbe14ecd0	-0.14543462
164	0x3d4fa500	0.050694466
165	0xbe637394	-0.22212058
166	0xbd2c9cb6	-0.04214164
167	0x3da29d1f	0.07940125
168	0xbd8ea9ba	-0.069659665
169	0xbe0c9231	-0.13727643
170	0xbd9ee688	-0.07758814
171	0xbe1c2557	-0.15248619
172	0x3c895700	0.016765118
173	0xbd0f80f4	-0.03503509
174	0xbe0add2b	-0.13560931
175	0xbd2bcf54	-0.04194577
176	0xbd6f361b	-0.05840121
177	0xbd447542	-0.04796339
178	0x3d814155	0.06311289
179	0xbdf76838	-0.12080425
180	0xbe0399e2	-0.1285167
181	0xbc8d3c74	-0.01724074
182	0x3d04e874	0.032448247
183	0xbdfdae18	-0.123867214
184	0x3c7504b8	0.014954738
185	0x3d1a3f7a	0.037658192
186	0xbd84f092	-0.06491198
187	0xbd0f8097	-0.035034742
188	0xbd1f4d87	-0.038892295
189	0x3dfcc6e0	0.1234262
190	0x3e59814c	0.21240729
191	0xbe5b56b5	-0.21419795
192	0x3e89d9fb	0.26924118
193	0x3e68e8fb	0.22745125
194	0xbe18a332	-0.14906004
195	0xbe36407d	-0.17798038
196	0x3ccd7da1	0.025084319
197	0xbcaf76d7	-0.021418972
198	0x3da5c9c6	0.08095126
199	0x3e56d0e6	0.20978126
200	0xbdea5a10	-0.11442959
201	0x3d20a134	0.039216235
202	0x3e0b72b5	0.13617976
203	0x3cb76c5c	0.022390537
204	0xbbcd55f0	-0.006266348
205	0xbd9b9062	-0.07595898
206	0xbd9ddc38	-0.07708019
207	0xbde7210e	-0.112856016
208	0x3d1ee5a0	0.038793206
209	0xbcb23350	-0.021752983
210	0x3e4ea219	0.20179023
211	0x3d8d0968	0.0688656
212	0xbe566f4e	-0.20940897
213	0x3ddbf716	0.10740487
214	0x3e350255	0.17676671
215	0x3ea2edca	0.31822044
216	0xbd7b4557	-0.061345425
217	0xbdc2ea36	-0.095173284
218	0x3e4e56e2	0.2015033
219	0xbe3647e2	-0.17800859
220	0xbe06feaa	-0.13183084
221	0x3e5d8f9f	0.21636818
222	0xbe0f1693	-0.13973455
223	0xbe5cd714	-0.21566421
224	0xbd2c6311	-0.042086665
225	0xbb00b4f3	-0.0019639104
226	0xbc3fa830	-0.011697814
227	0x3ddbcd7f	0.10732555
228	0xbca1a866	-0.019733619
229	0xbdfea768	-0.12434274
230	0xbe092bc8	-0.13395607
231	0x3da69cac	0.081353515
232	0x3e1ada9a	0.15122452
233	0x3dfd5f50	0.12371695
234	0xbda83239	-0.08212704
235	0x3ba0f3e1	0.004911885
236	0x3b4595d8	0.0030149128
237	0xbe628303	-0.2212029
238	0xbddd37c9	-0.10801656
239	0xbdf15797	-0.117842846
240	0xbd0e2b5d	-0.034709323
241	0xbe2d1026	-0.16900691
242	0x3d13ad43	0.036053907
243	0x3bcc3fd4	0.006233195
244	0x3b01096d	0.0019689456
245	0xbdb59b2a	-0.08867486
246	0xbe3f2a04	-0.18668371
247	0xbd4f13ed	-0.050556112
248	0x3d025ac1	0.03182483
249	0x3cb8b64f	0.022547869
250	0xbd258d74	-0.040418103
251	0xbdfe0ef0	-0.12405193
252	0xbd71d40a	-0.059040107
253	0xbe5da5cf	-0.21645282
254	0xbe692bbb	-0.22770588
255	0xbdd1a393	-0.102362774

conv.0.bias f4 [16]
0	0xbdd170ef	-0.102266185
1	0xbd946957	-0.072466545
2	0xbb02bd1b	-0.0019949141
3	0xbd85c94c	-0.06532535
4	0xbd30bda9	-0.043149624
5	0xbd10b0ae	-0.035324745
6	0xbd26e379	-0.04074428
7	0x3c3a0984	0.011354808
8	0xbdc05a4b	-0.09392222
9	0x3d777869	0.060417566
10	0x3cfa96e6	0.030589532
11	0xbb44dfe6	-0.003004068
12	0xbdcf28fb	-0.10115238
13	0xbdddbb18	-0.10826701
14	0xbe1b87db	-0.15188543
15	0xbdb2ad19	-0.08724422

conv.2.weight f4 [32, 16, 3, 3]
0	0xbd31183d	-0.043236006
1	0x3d490938	0.049081057
2	0x3da8e1fb	0.08246227
3	0xbd50de4f	-0.05099326
4	0x3d94d30e	0.07266818
5	0xbc3deea7	-0.011592544
6	0x3d06eb52	0.032939263
7	0x3d955c27	0.07292967
8	0x3e193217	0.14960514
9	0xbbb3761d	-0.0054767267
10	0x3d56c075	0.052429635
11	0x3e29be71	0.16576554
12	0x3df9a504	0.12189677
13	0x3c137bad	0.009001655
14	0x3cc6a898	0.024250314
15	0xbd8fa931	-0.070146926
16	0x3d83f95b	0.06444045
17	0x3dfc56be	0.12321232
18	0x3d1f928e	0.038958125
19	0xbcdc33c8	-0.02688016
20	0xbd899805	-0.067184485
21	0xbc527639	-0.012845569
22	0xbd44c2b6	-0.048037253
23	0xbcd9f49f	-0.026605902
24	0x3d84dbaf	0.06487214
25	0x3c7a7374	0.015286315
26	0x3dd6d736	0.10490267
27	0xbe1e3705	-0.15450676
28	0xbece484b	-0.4028953
29	0xbe2fc788	-0.17165959
30	0xbe5df932	-0.21677092
31	0xbf0b2a9d	-0.543619
32	0xbe656d1c	-0.22404903
33	0xbe9aeb79	-0.30257776
34	0xbe2eb475	-0.17061026
35	0xbef25cba	-0.4733637
36	0xbd2a3645	-0.04155566
37	0x3c109d15	0.008826514
38	0x3daacc94	0.083398014
39	0x3d4aeba1	0.04954112
40	0xbdfcc653	-0.12342515
41	0x3d69e300	0.05710125
42	0xbded799d	-0.115954615
43	0x3d82fd06	0.06395917
44	0xbc998ce7	-0.018743945
45	0x3e5dfbe1	0.21678115
46	0x3c12ce10	0.008960262
47	0x3d59be90	0.05316025
48	0x3dbf2189	0.09332568
49	0x3da7249c	0.081612796
50	0xbe3c2611	-0.18373896
51	0x3d594462	0.05304373
52	0x3ceb0d77	0.028692944
53	0xbc90167c	-0.017588846
54	0xbd3293c5	-0.043597955
55	0xbd7b4430	-0.061344326
56	0xbe478026	-0.19482478
57	0xbc99316e	-0.018700328
58	0xbd8d8026	-0.06909208
59	0xbe7bd2c6	-0.24592122
60	0xbb8de386	-0.0043301014
61	0xbbd226cf	-0.0064133178
62	0x3da227f8	0.0791778
63	0x3c986a35	0.018605331
64	0xbe0ca022	-0.13732961
65	0xbd297dab	-0.041379612
66	0xbd86a674	-0.06574717
67	0x3d4019ef	0.046899732
68	0xbe08a116	-0.133427
69	0x3b897c9a	0.004195762
70	0x3d322cd4	0.043499783
71	0x3d908752	0.0705706
72	0xbd14858c	-0.036260173
73	0x3d7cf1aa	0.061753906
74	0xbcfe1706	-0.031016838
75	0xbd06337e	-0.03276395
76	0xbce0e6ff	-0.027453898
77	0xbcadea87	-0.021229995
78	0xbe80a07f	-0.2512245
79	0x3d75fd21	0.060055856
80	0xbdda77ac	-0.10667357
81	0x3df43467	0.119240575
82	0x3c6134e9	0.013745525
83	0xbda3ff4d	-0.08007679
84	0x3db3422a	0.08752854
85	0xbc89727a	-0.01677822
86	0xbdca632b	-0.09882196
87	0xbd9f53b0	-0.07779634
88	0xbda3ec8a	-0.080041006
89	0x3dc610f0	0.09671199
90	0x3d925778	0.071455896
91	0x3d12658e	0.03574138
92	0xbe04ca03	-0.12967686
93	0x3df6dda7	0.120539956
94	0x3cd3cd68	0.025854781
95	0xbacfe0ce	-0.0015859844
96	0xbd682b00	-0.056681633
97	0xbe247ae0	-0.16062498
98	0x3c910f75	0.017707566
99	0xbe808c4c	-0.25107038
100	0x3d9b2454	0.075752884
101	0xbe0c4bb3	-0.13700752
102	0xbdae0a6b	-0.08498081
103	0x3d828841	0.063736446
104	0x3d430bbe	0.04761862
105	0xbc86894b	-0.016422888
106	0xbde20275	-0.11035625
107	0x3dc2d1da	0.09512682
108	0x3b15fb4a	0.0022885376
109	0x3e034b17	0.12821613
110	0x3e7b9b1f	0.24570893
111	0x3d97123d	0.073765256
112	0x3e913ef2	0.28368336
113	0x3e8458eb	0.2584909
114	0xbbae113a	-0.005312112
115	0x3e652d61	0.22380592
116	0x3e82a9a8	0.25520062
117	0x3df85d4b	0.12127169
118	0x3dee8922	0.1164725
119	0xbd70cb41	-0.058787588
120	0x3cff3965	0.031155298
121	0xbd1137c1	-0.03545356
122	0xbd1f48b0	-0.03888768
123	0xbe213831	-0.15744092
124	0xbdc15ba7	-0.094413094
125	0x3c6b45ac	0.014359873
126	0xbd8be118	-0.068300426
127	0x3e019d04	0.12657553
128	0xbd9fb078	-0.077973306
129	0x3d2bd855	0.041954357
130	0x3df92b0c	0.12166414
131	0xbd6a2b82	-0.0571704
132	0x3e526f76	0.20550331
133	0x3de5bd24	0.11217716
134	0x3e4a1fdc	0.19738716
135	0x3e33ec2e	0.17570564
136	0xbc676ef5	-0.014125575
137	0xbd818473	-0.06324091
138	0x3e32111f	0.17389344
139	0x3dda9afb	0.106740914
140	0xbe96c2b2	-0.29445416
141	0xbb161d05	-0.002290548
142	0xbd27af16	-0.04093846
143	0x3e2c9570	0.16853881
144	0x3e37deeb	0.1795613
145	0x3dcf6f83	0.10128691
146	0x3dbe5cd1	0.09295047
147	0x3ac5a2dc	0.0015078443
148	0xbcc8f46e	-0.024530616
149	0x3db99696	0.09061925
150	0x3e42ada8	0.19011557
151	0x3e046698	0.12929761
152	0x3e1b4b87	0.1516553
153	0x3d8ef656	0.069805786
154	0x3d9235bc	0.07139155
155	0x39c3a058	0.00037312764
156	0x3d29e7a3	0.04148067
157	0x3d14b09d	0.036301244
158	0x3dbdebb3	0.09273472
159	0x3c82a620	0.015948355
160	0x3db09575	0.08622257
161	0xbd860574	-0.06544009
162	0x3c1cb5c7	0.0095648235
163	0xbd34e164	-0.04416026
164	0x3d544bfb	0.051830273
165	0x3d151418	0.036396116
166	0x3cc2d7dc	0.02378457
167	0x3e184355	0.14869435
168	0x3cae409a	0.021271039
169	0x3d7eb2e4	0.062182322
170	0x3ce2c9c4	0.0276841
171	0xbe5cf10b	-0.21576326
172	0xbe156019	-0.1458744
173	0xbd85d6f2	-0.06535138
174	0xbdca9086	-0.09890847
175	0xbdfe0ef5	-0.124051966
176	0xbe8ed1bb	-0.27894387
177	0xbea1177f	-0.3146324
178	0xbea25186	-0.31702822
179	0xbd91ea46	-0.07124762
180	0xbe2e4806	-0.17019662
181	0xbd895414	-0.0670549
182	0x3da7707f	0.08175754
183	0x3d7f3955	0.062310535
184	0x3e03f402	0.1288605
185	0x3dcb5726	0.099287316
186	0xbd9796e5	-0.07401828
187	0x3d937504	0.07200053
188	0x3db12c21	0.08650995
189	0x3dc19430	0.09452093
190	0xbe02bb9a	-0.12766877
191	0x3d8d33e7	0.06894665
192	0x3dd1debd	0.10247562
193	0xbcc30f81	-0.023811104
194	0x3da85f07	0.0822125
195	0xbd197be1	-0.037471656
196	0xbe283d9a	-0.16429749
197	0x3db92b9d	0.09041522
198	0x3cf8580c	0.030315422
199	0xbcda4ef9	-0.026648985
200	0x3de50e3b	0.11184355
201	0xbd7af929	-0.061272774
202	0x3d5ae6d8	0.053442806
203	0x3e31884b	0.17337148
204	0xbc8c4791	-0.01712397
205	0xbbba0ac0	-0.005677551
206	0x3d9e33bc	0.07724711
207	0x3cdd9b65	0.027051637
208	0xbd29daef	-0.041468557
209	0x3b1009a9	0.0021978414
210	0x3d9a393c	0.07530448
211	0xbcf76b82	-0.03020263
212	0x3c7c2fc4	0.015392248
213	0x3c60163e	0.013677178
214	0xbbc0ccc2	-0.005883784
215	0x3d16eec5	0.036848802
216	0xbd4b4316	-0.049624525
217	0xbd78c326	-0.060732983
218	0xbc3d59b5	-0.011557032
219	0x3d0b255b	0.03397117
220	0x3dd5d507	0.10441022
221	0x3cafda5b	0.021466425
222	0xbd6af1d3	-0.057359528
223	0x3d1bcbf8	0.038036317
224	0xbd621b7f	-0.055202004
225	0xbd1a6396	-0.03769263
226	0x3cd82bf4	0.026388146
227	0xbdbd3151	-0.09237922
228	0xbc8c9d57	-0.01716487
229	0xbd889895	-0.06669728
230	0xbd8de88f	-0.06929123
231	0xbd2a5434	-0.04158421
232	0xbdb5f9c9	-0.08885533
233	0xbcaba15f	-0.020950971
234	0x3de280f1	0.1105975
235	0x3a7c33f0	0.00096207764
236	0x3d93f11e	0.07223724
237	0xbbd84cf8	-0.0066009723
238	0xbe4f5cbd	-0.2025022
239	0xbe1bc016	-0.15209994
240	0x3d6101a4	0.054933205
241	0x3da8b1f6	0.08237068
242	0xbd1f4bce	-0.038890652
243	0x3d178a61	0.036997203
244	0xbdacfaa9	-0.08446247
245	0xbe2bb81c	-0.16769451
246	0x3d0eafe0	0.034835696
247	0x3ce57995	0.028012076
248	0xbdc68512	-0.0969335
249	0xbb50d54b	-0.0031865414
250	0xbdb73781	-0.089461334
251	0x3c5a09e0	0.013308018
252	0x3ebfe70b	0.3748096
253	0x3e9b2e65	0.30308834
254	0x3d3dbab7	0.046320643
255	0x3e580c33	0.21098404

conv.2.bias f4 [32]
0	0x3c81f770	0.015865058
1	0xbd93e79c	-0.0722191
2	0xbd9a5951	-0.07536567
3	0x3db75bcc	0.08953056
4	0xbd8fd873	-0.07023706
5	0xbcc4cce0	-0.024023473
6	0xbc244d47	-0.01002819
7	0xbd98f394	-0.07468334
8	0xbdda6b5c	-0.106650084
9	0xbd89529e	-0.06705211
10	0xbcae0ef3	-0.021247363
11	0xbd930047	-0.07177787
12	0xbd48f7de	-0.04906451
13	0xbc3bf5ec	-0.011472207
14	0xbc01468c	-0.007890355
15	0xbb206226	-0.0024472564
16	0xbd57a21a	-0.052644826
17	0xbca5cb53	-0.020238554
18	0xbd9fae09	-0.077968664
19	0x3c8bc558	0.017061874
20	0xbcc29e60	-0.02375716
21	0x3cc89eb4	0.024489738
22	0xbd1e71eb	-0.03868286
23	0x3d8a4a88	0.06752497
24	0xbc12f1e1	-0.008968801
25	0x3db96c2d	0.09053836
26	0xbd462662	-0.04837645
27	0xbdb58024	-0.088623315
28	0xbdc2827d	-0.09497545
29	0xbdf688bc	-0.12037799
30	0xbcd38c2e	-0.025823679
31	0xbdc77df0	-0.097408175

conv.4.weight f4 [64, 32, 3, 3]
0	0xbcedb555	-0.02901713
1	0x3d45e3f3	0.048313092
2	0x3d06db4f	0.032923993
3	0xbcfd1a89	-0.030896442
4	0x3d1f143f	0.038837668
5	0xbad26929	-0.0016053069
6	0xbc030ea7	-0.007999099
7	0xbc7a616b	-0.015282015
8	0xbc68aa99	-0.01420083
9	0xbe1b0d91	-0.15141894
10	0xbe2b718a	-0.1674253
11	0xbe340d58	-0.17583215
12	0x3c5b6313	0.01339032
13	0xbdd0998e	-0.10185538
14	0xbe363288	-0.17792714
15	0xbcb40983	-0.021977192
16	0xbd9013e2	-0.07035042
17	0xbe0a167b	-0.13485138
18	0xbdfd0d88	-0.123560965
19	0xbd9cdfdf	-0.076598875
20	0xbe021747	-0.12704192
21	0x3d9f811e	0.07788299
22	0xbd54918a	-0.05189661
23	0xbdeaf1df	-0.114719145
24	0x3d355ebf	0.04427981
25	0x3db94fad	0.090484
26	0xbd368ca9	-0.044567738
27	0xbe0db2ab	-0.13837688
28	0xbd8f4b88	-0.06996828
29	0xbdc20995	-0.09474484
30	0xbdfe4044	-0.124146014
31	0xbd89beef	-0.06725871
32	0xbd8ca628	-0.06867629
33	0xbbea2409	-0.007145409
34	0xbdb8dcfb	-0.09026524
35	0xbd78605d	-0.060638774
36	0x3d184269	0.03717271
37	0x3dcfdf7e	0.101500496
38	0x3d5ca212	0.0538655
39	0x3e379c2e	0.17930672
40	0x3cdd2bbe	0.026998397
41	0x3de7ecbb	0.1132445
42	0x3d94740c	0.07248697
43	0x3dda9b40	0.10674143
44	0x3d08fde2	0.033445247
45	0xbe0efe53	-0.13964204
46	0xbe27bf48	-0.16381562
47	0xbd600b36	-0.05469819
48	0xbda6f89a	-0.08152886
49	0xbdda0369	-0.10645182
50	0xbd9f77ed	-0.07786546
51	0xbdd699ca	-0.10478552
52	0xbe1f5038	-0.15557945
53	0xbd92d83b	-0.07170149
54	0x3d3d0852	0.046150513
55	0x3d7cb986	0.061700366
56	0x3d0dc247	0.034609105
57	0x3d7edab1	0.06222028
58	0xbc4616d7	-0.012090406
59	0x3c0bc1e7	0.008530117
60	0xbca3c293	-0.019990241
61	0x3b4e55d1	0.0031484256
62	0x3d10335f	0.03520524
63	0xbdcee7fd	-0.10102842
64	0xbda8b562	-0.08237721
65	0xbe467f30	-0.19384456
66	0xbd9c140b	-0.076210104
67	0xbde62040	-0.1123662
68	0xbdeeee0a	-0.11666496
69	0xbda09507	-0.07840925
70	0xbdd61b52	-0.1045443
71	0xbd6f9e5a	-0.058500625
72	0x3ea2640c	0.31716955
73	0x3ea46751	0.32110074
74	0x3ea17d88	0.31541085
75	0x3e85e155	0.26148477
76	0x3eb2304c	0.34802473
77	0x3e6f0a1f	0.23343705
78	0x3e801fa8	0.25024152
79	0x3eab5295	0.33461443
80	0x3e8cd266	0.2750427
81	0x3cc4978e	0.023998048
82	0xbb85738d	-0.0040726126
83	0xbc33009c	-0.010925438
84	0x3dff57ea	0.1246794
85	0x3db6a2b2	0.089177504
86	0x3e0842a6	0.13306674
87	0x3d4f0fa6	0.050552033
88	0x3d1dd394	0.038531855
89	0x3d6b75c2	0.05748535
90	0x3dbb1d55	0.09136454
91	0x3d8ba23e	0.068180546
92	0x3d6eee8b	0.05833296
93	0x3d9281c0	0.07153654
94	0x3dedbb4c	0.1160799
95	0x3df52033	0.11969032
96	0x3e20ec75	0.15715201
97	0x3d6ede10	0.058317244
98	0x3e1b0e4a	0.1514217
99	0x3d9023ff	0.07038116
100	0xbe2946f0	-0.16530967
101	0xbdbc477d	-0.09193323
102	0xb9a6cb8f	-0.0003181365
103	0x3d01582b	0.031578224
104	0x3cf0b0a8	0.029381111
105	0x3dba319f	0.09091496
106	0x3d9c21ed	0.07623658
107	0x3cad073f	0.02112162
108	0x3ce8e3d0	0.028428942
109	0xbca324f4	-0.019915082
110	0xbc6b3110	-0.014354959
111	0xbc8b2153	-0.016983664
112	0x3c9ea268	0.01936455
113	0x3b295c09	0.002584221
114	0x3d950b03	0.07277491
115	0xbd11078b	-0.035407584
116	0xbd9e5064	-0.07730177
117	0xbdb92d87	-0.09041887
118	0xbd12182d	-0.035667587
119	0xbda5c46a	-0.08094104
120	0xbc865e74	-0.01640246
121	0xbd73df89	-0.05953935
122	0xbd041bdf	-0.032253142
123	0xbcf0cd1e	-0.029394682
124	0x3d3f37d9	0.04668412
125	0xbdb7bf15	-0.08971993
126	0xbd19abc8	-0.03751734
127	0xbd0744c2	-0.033024557
128	0xbdf213d7	-0.118201904
129	0xbcf2fd20	-0.029661715
130	0xbdb8291b	-0.08992215
131	0xbd99a19a	-0.07501526
132	0xbd09ed09	-0.03367332
133	0xbdbeb73f	-0.09312295
134	0xbcb4e796	-0.022083085
135	0xbe395327	-0.18098126
136	0xbe16ae35	-0.14714892
137	0xbd8f7b93	-0.07005992
138	0x3c9420e2	0.018082086
139	0xbe0eb122	-0.13934758
140	0xbe3eea31	-0.18644024
141	0xbdce9f7a	-0.100890115
142	0xbb36401b	-0.0027809206
143	0xbc2a3dea	-0.010390738
144	0x3df1a3b3	0.11798801
145	0x3d7bcd8c	0.06147532
146	0x3da697a9	0.08134396
147	0x3d8a415b	0.06750747
148	0x3d5ec18d	0.054383803
149	0x3d022c30	0.03178042
150	0x3e3a2e0f	0.18181632
151	0x3d9b25f4	0.07575598
152	0x3e201d14	0.15636092
153	0x3d0b39eb	0.03399078
154	0x3cc71dce	0.024306204
155	0x3d0b37a6	0.033988617
156	0x3dd3fb33	0.10350647
157	0x3df11919	0.11772365
158	0xbcaa08f3	-0.02075622
159	0x3d50d4c4	0.05098416
160	0x3de441d0	0.11145365
161	0x3de50918	0.11183375
162	0xbcebf8ea	-0.028805215
163	0xbde773df	-0.113013975
164	0xbd59b9e9	-0.053155813
165	0xbbd9d680	-0.006647885
166	0x3cb6ccea	0.022314508
167	0xbd80c823	-0.06288173
168	0x3d9f08e9	0.07765371
169	0x3c9a9ef2	0.01887462
170	0xbcc3ced2	-0.02390233
171	0xbd6610da	-0.056168415
172	0xbd68c0f1	-0.05682463
173	0xbd8a4eee	-0.06753336
174	0xbc0ded9b	-0.008662607
175	0xbc17ede0	-0.009273022
176	0xbd00a206	-0.031404518
177	0xbd1751dc	-0.0369433
178	0xbc9a4d77	-0.018835766
179	0x3bdc896d	0.0067302496
180	0xbd7a6a23	-0.061136376
181	0xbd4f7247	-0.050646093
182	0x3d0dc8dc	0.034615383
183	0xbd0e47d6	-0.034736477
184	0x3d610e2b	0.054945152
185	0xbb205722	-0.0024465998
186	0x3c67298f	0.014109029
187	0x3d42f6ec	0.047598764
188	0xbd3e8704	-0.04651548
189	0x3bb181ce	0.0054170853
190	0xbdba4748	-0.09095627
191	0xbd4b42e3	-0.049624335
192	0xbddd04a4	-0.10791901
193	0xbddb48b6	-0.10707228
194	0xbd53f83f	-0.051750418
195	0xbc9b2542	-0.018938664
196	0xbdbb6e9d	-0.09151957
197	0xbda2b32e	-0.07944332
198	0xbc70335c	-0.0146606825
199	0x3c7bac37	0.015360883
200	0xbe0d80b3	-0.13818626
201	0xbcdeff25	-0.027221272
202	0xbd8e0a05	-0.06935505
203	0xbd1baa7f	-0.038004395
204	0x3c458636	0.012055924
205	0xbdcb1c4c	-0.099175066
206	0xbd4d3579	-0.050099824
207	0xbd0a19c7	-0.03371599
208	0xbddec70f	-0.10877811
209	0xbdb25cff	-0.08709144
210	0xbe0e0d72	-0.13872316
211	0xbddd750f	-0.10813343
212	0xbda831c6	-0.082126185
213	0xbd8c2739	-0.06843419
214	0xbdc1dbeb	-0.09465774
215	0xbde08e48	-0.10964638
216	0x3e33ad68	0.17546618
217	0x3db7029d	0.08936045
218	0x3e043e53	0.129144
219	0x3e1a1996	0.15048823
220	0x3df96e96	0.12179296
221	0x3dc1a699	0.09455604
222	0x3e1db577	0.15401255
223	0x3d9941ea	0.07483275
224	0x3cf4f4a9	0.02990182
225	0xbd957ab2	-0.07298793
226	0xbd8c265d	-0.06843255
227	0x3d403b67	0.04693165
228	0xbd90378e	-0.07041846
229	0xbd8f6c23	-0.07003047
230	0xbd731844	-0.059349313
231	0xbdf85b9f	-0.1212685
232	0xbd7eec9d	-0.06223737
233	0x3c64ddef	0.013968929
234	0x3d2af226	0.041734837
235	0xbdd0ee99	-0.10201759
236	0xbe3fb310	-0.1872065
237	0x3cac93b5	0.021066526
238	0xbdc05994	-0.09392086
239	0xbe4c4dd4	-0.19951564
240	0x3c9ff84a	0.019527573
241	0xbe057481	-0.13032724
242	0xbe2e8ac8	-0.17045128
243	0x3dd8fa89	0.10594661
244	0x3d562986	0.052285694
245	0x3aa32be4	0.0012448994
246	0x3dee1ac3	0.11626198
247	0x3cb9556c	0.02262374
248	0x3d9519b5	0.07280294
249	0x3ddd9277	0.108189516
250	0x3db25100	0.08706856
251	0x3d2d0fb5	0.042251308
252	0xbc87fbb0	-0.016599506
253	0x3d315bb2	0.043300338
254	0x3d10c49d	0.035343755
255	0x3cd57334	0.02605591

conv.4.bias f4 [64]
0	0x3bd5938a	0.006517832
1	0xbd4026d3	-0.046912026
2	0x3dfd6702	0.12373163
3	0xbd32acad	-0.043621708
4	0xbd9bcd3e	-0.07607506
5	0xbd8b8d17	-0.0681402
6	0xbd433352	-0.047656365
7	0x3c271a0b	0.01019908
8	0xbc21acce	-0.00986786
9	0x3c4fa7c1	0.012674273
10	0x3cf4170d	0.029796148
11	0xbd7b9483	-0.06142093
12	0x3cd9a679	0.026568638
13	0xbc1999ca	-0.009375045
14	0x3bdc12c3	0.0067161038
15	0x3bb20f5f	0.0054339613
16	0xbd8880fa	-0.06665225
17	0xbcb57274	-0.022149302
18	0x3d39b5ce	0.045339398
19	0x3bb68322	0.0055698315
20	0x3cbb7f79	0.022887932
21	0xbd3017c9	-0.042991433
22	0xbc90042b	-0.017580112
23	0x3d067724	0.032828465
24	0xbbf7fd65	-0.007568049
25	0xbd7d6b2e	-0.061869793
26	0xbdb1844e	-0.08667813
27	0xbc8a7bab	-0.016904673
28	0xbd4b9867	-0.04970589
29	0xbc2a6ed2	-0.010402398
30	0xbd7f2257	-0.06228861
31	0xbbb7b37c	-0.005606113
32	0xbd14a78e	-0.036292605
33	0xbd968ec2	-0.07351448
34	0xbc30b834	-0.010786105
35	0xbc40d0c7	-0.011768526
36	0x3d9fff06	0.07812314
37	0xbcae37a6	-0.02126677
38	0xbcb3f991	-0.021969588
39	0xbc8d9f15	-0.01728777
40	0xbd306108	-0.043061286
41	0x3d355185	0.044267196
42	0xbc9d0005	-0.019165048
43	0x3cae440d	0.021272684
44	0xbbda8df3	-0.0066697537
45	0x3cff109d	0.031135852
46	0xbd4b2ad0	-0.049601376
47	0x3c1fa063	0.009742829
48	0xbd80a523	-0.06281497
49	0x3de298ec	0.11064324
50	0x3b999242	0.0046866247
51	0xbd7b2423	-0.06131376
52	0x3c04aa00	0.008097172
53	0x3a71a9ea	0.00092187396
54	0xbd91a51b	-0.071115695
55	0xbd23476d	-0.03986304
56	0xbd0390e9	-0.03212062
57	0xbca09d77	-0.019606335
58	0xbd8df701	-0.06931878
59	0x3d2d71a9	0.042344723
60	0xbdb08012	-0.086181775
61	0xbbc75843	-0.0060835197
62	0xbc363c5b	-0.011122788
63	0xbdf63ad4	-0.12022939

lin.2.weight f4 [128, 64]
0	0x3c946620	0.018115103
1	0xbdd88660	-0.10572505
2	0xbdf81be7	-0.12114697
3	0x3cdf74e4	0.027277417
4	0xbd84d714	-0.064863354
5	0x3d75b5f4	0.059987977
6	0xbe1e5f5f	-0.15466069
7	0xbc62ec9c	-0.013850357
8	0xbe1ded32	-0.15422514
9	0x3ca23389	0.019799965
10	0x3d9d1608	0.07670218
11	0x3d116722	0.035498746
12	0xbbf136f2	-0.0073612863
13	0x3d867601	0.06565476
14	0x3d93637a	0.07196708
15	0x3cfe1094	0.031013764
16	0x3c5ca8fb	0.013468022
17	0x3d1d8f68	0.03846684
18	0xbc10005e	-0.00878915
19	0x3d6be6bf	0.057593103
20	0x3da943ff	0.08264922
21	0xbd7e53c1	-0.062091593
22	0x3c082b05	0.008311038
23	0x3ce18453	0.027528917
24	0xbded7a6b	-0.11595615
25	0xbddc9b39	-0.10771794
26	0xbd0d2a28	-0.03446403
27	0x3c953110	0.018211871
28	0x3da32ea2	0.07967879
29	0x3cb69969	0.022289949
30	0x3cbbb3e9	0.022912936
31	0xbd513fc0	-0.051086187
32	0xbd099fa0	-0.033599496
33	0xbdf92cec	-0.12166771
34	0xbc43621d	-0.0119252475
35	0xbd24fef8	-0.04028222
36	0xbe00c10e	-0.12573645
37	0x3d7a8883	0.061165344
38	0x3d13a38e	0.03604465
39	0x3c263522	0.010144504
40	0xbdc78677	-0.09742444
41	0xbd01231f	-0.031527635
42	0xbe12f073	-0.14349537
43	0xbd6cf30f	-0.057848986
44	0x3d203901	0.039116863
45	0x3d97fe85	0.074215926
46	0xbdd036f2	-0.1016673
47	0xbd7a71ef	-0.06114381
48	0xbd9ec159	-0.07751722
49	0x3d83ab20	0.06429124
50	0x3da33425	0.0796893
51	0xbe0bf526	-0.13667735
52	0xbdbd3f96	-0.09240644
53	0xbc919a2b	-0.017773708
54	0xbdf13dae	-0.117793426
55	0xbe1f193e	-0.15536973
56	0xbdb0017e	-0.085940346
57	0x3d829b94	0.063773304
58	0x3c27c837	0.010240606
59	0xbd9990d6	-0.074983284
60	0xbc908968	-0.017643645
61	0x3d99741e	0.07492851
62	0xbe0e058e	-0.13869306
63	0x3d46857a	0.048467137
64	0xbcbba7f5	-0.022907237
65	0xbdf780c6	-0.120851085
66	0x3d8d5e5f	0.069027655
67	0xbd94b324	-0.07260731
68	0x3dc06cf0	0.09395778
69	0x3c18ab10	0.009318128
70	0xbc096e94	-0.00838818
71	0xbd36b4f9	-0.044606183
72	0xbe0d8faf	-0.13824342
73	0x3d09ee77	0.033674683
74	0xbda462f9	-0.0802669
75	0x3b5169ec	0.0031954003
76	0x3dc61720	0.096723795
77	0xbd81022a	-0.06299241
78	0xbc6a1c8f	-0.014289035
79	0x3c1958f8	0.009359591
80	0xbd864acb	-0.065572344
81	0x3d6c4928	0.057686955
82	0xbdd3ea86	-0.10347466
83	0x3d422c0e	0.047405295
84	0xbd8c3473	-0.068459414
85	0xbc9bb85f	-0.019008813
86	0xbd936a17	-0.071979694
87	0xbc70e304	-0.014702562
88	0x3d794fc3	0.060867082
89	0xbaa8ae78	-0.0012869379
90	0xbd335e78	-0.043791264
91	0x3df06fe6	0.11740093
92	0x3dde57b9	0.108565755
93	0xbda2627a	-0.07928939
94	0xbdef32bd	-0.116795994
95	0xbe0684fd	-0.13136669
96	0x3cb335a0	0.021876156
97	0x3deeac85	0.11653999
98	0x3c6dd2a4	0.014515553
99	0x3ca3e60c	0.020007156
100	0xbe237967	-0.1596428
101	0x3c1838a2	0.009290846
102	0x3d1e3c97	0.038632
103	0xbd7c3858	-0.06157717
104	0xbda0311f	-0.07821869
105	0xbd43c9e4	-0.04779996
106	0xbe06e364	-0.1317268
107	0x3da706a2	0.08155562
108	0xbdedbee4	-0.11608675
109	0x3db270b6	0.08712904
110	0xbdfdf82c	-0.12400851
111	0x3d4cc190	0.049989283
112	0xbda31ef2	-0.07964887
113	0xbe0e936d	-0.13923426
114	0x3bbc7bf6	0.005752082
115	0x3db1c3bd	0.08679912
116	0xbdc3d2e5	-0.09561709
117	0xbcc91f35	-0.024551013
118	0xbdfee225	-0.124454774
119	0x3d26d5ec	0.040731356
120	0x3dabac7b	0.083825074
121	0xbd89f5ff	-0.06736373
122	0x3dbfadc9	0.09359319
123	0x3d33de45	0.043913145
124	0x3c8a3288	0.016869798
125	0xbdb90600	-0.090343475
126	0x3d6db2b6	0.05803176
127	0xbcbc9407	-0.023019804
128	0xbdb551dc	-0.08853504
129	0xbdfbd6fc	-0.122968644
130	0xbe182923	-0.14859442
131	0x3e02e78b	0.12783639
132	0xbd874a0e	-0.06605922
133	0xbdbefd82	-0.093256965
134	0x3d2fb8d9	0.042900894
135	0xbda0216e	-0.07818876
136	0xbdfb8b6d	-0.12282453
137	0x3cc8da8a	0.02451827
138	0xbca0fe4e	-0.019652512
139	0x3c232b46	0.009959048
140	0x3dc039cb	0.09386023
141	0xbd761721	-0.06008065
142	0x3d6d91f3	0.058000516
143	0xbd5cb762	-0.053885825
144	0xbd9829bf	-0.074298374
145	0x3d2ac1b8	0.04168865
146	0xbd5266d4	-0.051367596
147	0xbb8ca377	-0.0042919475
148	0x3c190f35	0.009342005
149	0xbdbfb9e1	-0.093616255
150	0x3cc9b695	0.024623195
151	0x3df12eae	0.117764816
152	0xbd13c36f	-0.036075052
153	0x3daf6f1d	0.08566115
154	0x3dc1778c	0.0944663
155	0xbd0faf48	-0.03507927
156	0xbd6790bc	-0.056534514
157	0x3d90713f	0.0705285
158	0xbd7f45db	-0.06232248
159	0xbd191892	-0.037376948
160	0xbc0c00b0	-0.008545086
161	0xbdaca25b	-0.08429404
162	0x3d3f110f	0.046647128
163	0xbda74b16	-0.081686184
164	0xbe0bf81f	-0.1366887
165	0xbe10f009	-0.14154066
166	0xbd434570	-0.047673643
167	0xbc9e8f15	-0.019355336
168	0xbdf8b861	-0.121445425
169	0x3d169677	0.03676459
170	0xbdf5d513	-0.12003531
171	0xbd1d8b16	-0.03846272
172	0xbd705889	-0.058678184
173	0xbc1bae5a	-0.009502018
174	0x3da53108	0.080659926
175	0xbda1789b	-0.07884332
176	0xbb95907c	-0.004564343
177	0x3d79e739	0.061011527
178	0x3d6aaf47	0.057296064
179	0x3cff43a9	0.031160193
180	0xbc39c079	-0.011337393
181	0xbdba050b	-0.09082993
182	0xbe069aa2	-0.13144925
183	0x3dac6e4e	0.084194764
184	0xbe14fecc	-0.14550322
185	0xbd88a16f	-0.06671416
186	0x3d5727e4	0.052528277
187	0xbd719535	-0.058980186
188	0xbdd6fc4e	-0.10497342
189	0x3db9d15b	0.090731345
190	0xbd813fdd	-0.06311009
191	0x3b27fbc0	0.0025632232
192	0x3d8ba5ca	0.06818731
193	0xbd4133ad	-0.047168422
194	0xbe5f0c8c	-0.2178213
195	0x3d861dd2	0.065486565
196	0xbdbac3dc	-0.091193885
197	0xbd99c60f	-0.0750848
198	0xbe1197f5	-0.14218123
199	0x3dad6145	0.08465818
200	0xbd73a27b	-0.059481125
201	0x3de3cff5	0.11123649
202	0x3e55562a	0.2083365
203	0x3bff722d	0.0077955932
204	0x3e0baa80	0.1363926
205	0x3db429fb	0.0879707
206	0x3df78c6f	0.120873325
207	0x3df561d8	0.11981553
208	0xbe502ae8	-0.20328867
209	0x3c581148	0.013187714
210	0x3e00e2e7	0.12586556
211	0x3d47232d	0.04861753
212	0x3e81d731	0.2535949
213	0x3e3593f3	0.1773222
214	0xbf1513d2	-0.5823337
215	0xbaa05075	-0.0012231009
216	0x3d95d338	0.073156774
217	0xbdc8242b	-0.097725235
218	0xbde711df	-0.112827055
219	0x3e8bb2ed	0.27284947
220	0x3d8964da	0.06708689
221	0x3dcd49a1	0.10023809
222	0xbd08f028	-0.033432156
223	0x3e6212dd	0.22077508
224	0xbe65b7b3	-0.22433357
225	0x3d48312d	0.048875023
226	0x3dc5e8cf	0.09663545
227	0xbd3b6541	-0.04575086
228	0x3e015daf	0.12633394
229	0xbcb1e3fe	-0.02171516
230	0x3cfdece8	0.030996755
231	0x3d873751	0.06602348
232	0x3da4e157	0.08050793
233	0x3eacbf84	0.33739865
234	0xbd541609	-0.051778827
235	0x3d8de780	0.06928921
236	0x3e32d05c	0.17462295
237	0x3e5079a6	0.20358905
238	0x3dd8bb9b	0.10582658
239	0xbd9b6a21	-0.07588602
240	0x3d5c6e7e	0.05381631
241	0xbd811c0d	-0.063041784
242	0x3dea5d22	0.11443545
243	0xbda11c0c	-0.07866678
244	0x3d9aa4f0	0.075509906
245	0x3e0ed5a0	0.13948679
246	0x3c699216	0.014256021
247	0x3d0e94c5	0.034809846
248	0x3c890c70	0.016729563
249	0x3cf3d6ef	0.029765574
250	0xbde3a435	-0.111153044
251	0x3e3428f9	0.17593755
252	0x3dbd5e08	0.09246451
253	0xbdd68230	-0.1047405
254	0x3df9e488	0.12201792
255	0x3d212204	0.03933908

lin.2.bias f4 [128]
0	0xbdac09fa	-0.084003404
1	0xbdce8d9d	-0.10085604
2	0xbd8cdfbe	-0.06878613
3	0x3d10b298	0.03532657
4	0xbd26a11c	-0.04068099
5	0x3dc0ff2e	0.09423672
6	0xbd8e1891	-0.069382794
7	0xbd417fd4	-0.047241047
8	0xbda6c356	-0.08142726
9	0xbda0c968	-0.07850915
10	0x3ddbd7e4	0.10734537
11	0x3e0aa55f	0.13539647
12	0xbe3a276d	-0.18179102
13	0x3ac3cf3c	0.001493908
14	0x3dba1f79	0.09088034
15	0xbdbc0923	-0.0918143
16	0xbde4ae70	-0.11166084
17	0x3d5b9b54	0.05361493
18	0xbde993b8	-0.11405128
19	0x3c5e6b9d	0.013575462
20	0x3db5ea14	0.088825375
21	0x3dff3222	0.12460734
22	0x3d5e9721	0.054343347
23	0x3e5d3579	0.2160243
24	0x3db6015e	0.088869795
25	0xbd7c8a53	-0.061655354
26	0xbd9c5b4c	-0.07634601
27	0xbde983ae	-0.11402069
28	0xbdbf136d	-0.09329877
29	0x3de4e4d3	0.11176457
30	0x3da6a1db	0.0813634
31	0xbd9185e6	-0.07105617
32	0x3d2e26cb	0.042517465
33	0xbd2c55e5	-0.042074103
34	0x3d94ac1e	0.07259391
35	0xbdb0dfda	-0.08636446
36	0xbd008f6b	-0.031386774
37	0x3cc6b5cc	0.02425661
38	0x3cc37ad8	0.023862287
39	0xbd9376fb	-0.07200428
40	0x3d8b4d6d	0.06801877
41	0xbdd65ba6	-0.10466699
42	0xbce200a8	-0.027588204
43	0xbdf846c3	-0.12122872
44	0x3da780a6	0.081788346
45	0xbdc2335f	-0.094824545
46	0x3da8589b	0.08220025
47	0xbcbbf38f	-0.022943286
48	0xbd81f8e2	-0.06346299
49	0x3dba8358	0.09107083
50	0xbdbc5f10	-0.09197819
51	0x3d55fc74	0.05224271
52	0x3e07709a	0.13226548
53	0xbe11a8d8	-0.14224565
54	0x3d6e5916	0.058190428
55	0xbde0bb1a	-0.10973187
56	0x3db578d2	0.08860935
57	0xbdb0660c	-0.08613214
58	0x3cf9de81	0.030501606
59	0xbda30ea4	-0.07961777
60	0x3daadb0a	0.0834256
61	0xbc1dbd70	-0.009627685
62	0xbdcd509c	-0.10025141
63	0xbdbf37bc	-0.09336802
64	0x3e3966d2	0.18105629
65	0xbd9e9426	-0.07743101
66	0xbc3abfd3	-0.0113982735
67	0x3dbcdda8	0.09221965
68	0x3dc772df	0.09738707
69	0x3db90e25	0.09035901
70	0x3e27741c	0.16352886
71	0x3d10f09f	0.035385724
72	0xbc9d51c8	-0.019204035
73	0xbdbf8e2c	-0.09353289
74	0xbd0170aa	-0.031601585
75	0xbde10c1f	-0.1098864
76	0xbccfeb33	-0.025380706
77	0xbdcae86e	-0.09907614
78	0xbda22221	-0.07916666
79	0xbd542aa8	-0.051798493
80	0x3deb9ad6	0.11504142
81	0x3d849ff8	0.06475824
82	0xbdbb148a	-0.09134777
83	0xbd9549b7	-0.072894506
84	0xbe51bcb9	-0.20482148
85	0x3d769796	0.060203157
86	0x3e09a390	0.134413
87	0x3ddd8ca6	0.10817842
88	0xbde4e2d3	-0.11176076
89	0xbddcbb12	-0.10777868
90	0xbdddb176	-0.108248636
91	0xbe1b1145	-0.15143307
92	0xbda87660	-0.08225703
93	0x3e05f65c	0.1308226
94	0xbdc91cd4	-0.09819952
95	0x3d4a7822	0.049430974
96	0x3d8b5df0	0.068050265
97	0x3d531146	0.051530145
98	0xbdfa04e0	-0.12207961
99	0x3e091ea1	0.1339059
100	0x3dc72d1f	0.09725403
101	0xbe03ecfa	-0.12883368
102	0xbdd108e7	-0.10206776
103	0x3d81cc2f	0.06337773
104	0xbd5bbe1e	-0.053648107
105	0xbcd6077c	-0.026126616
106	0xbc892b14	-0.016744174
107	0xbe0a3334	-0.13496095
108	0x3da2f2f5	0.079564966
109	0x3e08afbe	0.1334829
110	0x3d576afa	0.052592255
111	0x3d277d9a	0.040891267
112	0xbd9f1420	-0.077675104
113	0xbcf8d161	-0.030373277
114	0x3d079e4f	0.03310996
115	0x3d39c7c8	0.045356542
116	0x3e0e5172	0.13898256
117	0x3cabca90	0.020970613
118	0xbdfd2ce8	-0.12362081
119	0xbda2e60a	-0.07954033
120	0x3da7f993	0.082018994
121	0x3dd1580c	0.10221872
122	0x3d7e75f9	0.062124226
123	0x3d602af4	0.054728463
124	0x3dd4f449	0.10398156
125	0xbe11253b	-0.14174359
126	0xbe0d20c2	-0.13782027
127	0xbd876bc4	-0.066123515

lin.4.weight f4 [4, 128]
0	0xbbd3675c	-0.0064515304
1	0xbcc6a081	-0.024246456
2	0x3d6036de	0.054739825
3	0xbdd2b172	-0.10287751
4	0x3ae8a200	0.0017748475
5	0xbe166b60	-0.14689398
6	0xbd472855	-0.048622448
7	0x3d8dbcad	0.06920753
8	0x3d9014ad	0.070351936
9	0xbd2ce914	-0.042214468
10	0x3da8ef97	0.08248823
11	0x3d939410	0.07205975
12	0x3e3e54cc	0.18587035
13	0xbcfcfa38	-0.030881032
14	0xbe02ab23	-0.12760596
15	0xbcb1a246	-0.021683823
16	0x3d434866	0.047676466
17	0xbc41ff72	-0.011840688
18	0x3d3906f2	0.04517264
19	0xbe1a8b63	-0.15092234
20	0x3d9bd960	0.0760982
21	0x3ecf00bc	0.40430248
22	0xbd824dad	-0.06362472
23	0x3ec9da69	0.39424446
24	0x3dc686f1	0.09693707
25	0x3afcb980	0.0019281358
26	0xbcfffd03	-0.031248575
27	0x3bd9fe60	0.0066526383
28	0xbcd89344	-0.02643741
29	0x3d1400b3	0.03613348
30	0xbe0d3ce2	-0.13792756
31	0x3cf36934	0.02971325
32	0x3cc4f128	0.024040774
33	0xbd403162	-0.046922095
34	0xbd38c17a	-0.04510639
35	0x3c845844	0.01615537
36	0xbe112711	-0.14175059
37	0xbc140061	-0.009033293
38	0xbe10157a	-0.14070693
39	0x3c17c5f9	0.009263509
40	0xbc952ef3	-0.018210864
41	0xbd855282	-0.06509878
42	0xbc67d390	-0.0141495615
43	0xbce8e5d9	-0.028429912
44	0xbca15440	-0.019693494
45	0x3c24ea70	0.01006566
46	0xbc8c6e65	-0.017142484
47	0xbe24b825	-0.1608587
48	0x3dc4f00e	0.09616099
49	0x3e10316e	0.14081356
50	0xbd74134c	-0.059588715
51	0xbbaddb38	-0.005305674
52	0x3cd2e1ec	0.025742494
53	0x3bc22ab0	0.005925499
54	0x3cc73e64	0.024321742
55	0xbd0b06f6	-0.033942185
56	0x3d329145	0.04359557
57	0x3c8d5349	0.017251628
58	0xbe3d577f	-0.18490408
59	0xbcb005fe	-0.021487232
60	0x3e96418b	0.2934688
61	0x3cfcaedc	0.030845098
62	0xbd9b1d66	-0.07573967
63	0xbd8ec0e0	-0.06970382
64	0x3ee80fcb	0.4532455
65	0x3cd9a4e0	0.026567876
66	0xbd985946	-0.074389026
67	0xbd314eac	-0.043287918
68	0xbd84cb92	-0.064841405
69	0xbe945b46	-0.28975886
70	0x3e2f48c2	0.17117599
71	0xbe09ac91	-0.13444735
72	0xbd2cac2c	-0.042156383
73	0x3daef649	0.08543069
74	0xbd72aada	-0.059244968
75	0xbd13a429	-0.036045227
76	0x3b19b85c	0.0023455834
77	0xbd3e03da	-0.046390392
78	0xbba3ebbe	-0.005002468
79	0x3d3cc8f2	0.046090074
80	0x3dd2879f	0.10279774
81	0xbc167f22	-0.009185584
82	0x3d72bb3c	0.059260592
83	0xbcf2c937	-0.029636962
84	0x3e894976	0.2681386
85	0xbe14c1be	-0.14527032
86	0x3d95c936	0.073137686
87	0xbdcff00a	-0.10153206
88	0xbd571adb	-0.052515846
89	0xbda4b271	-0.080418475
90	0x3c5773e8	0.013150193
91	0x3eb6762b	0.3563703
92	0xbd7ae90c	-0.061257407
93	0x3db64f4d	0.08901844
94	0xbca75d24	-0.020430155
95	0xbcb19338	-0.021676645
96	0xbdf11260	-0.11771083
97	0xbe06f0c1	-0.13177778
98	0xbc52aef0	-0.012859091
99	0x3db00ed9	0.08596582
100	0xbe17d66c	-0.14827889
101	0xbd314945	-0.043282766
102	0xbd895673	-0.06705942
103	0xbaeb1953	-0.0017936624
104	0xbdbc059b	-0.09180757
105	0xbeb35f1b	-0.35033497
106	0xbd3cbb0a	-0.04607681
107	0xbd3de134	-0.04635735
108	0xbdca3a9a	-0.098744586
109	0xbcff3a36	-0.031155687
110	0xbde5ba35	-0.11217157
111	0x3dd949d5	0.106097855
112	0xbb70b280	-0.0036727488
113	0x3da17d7b	0.078852616
114	0x3ba58f22	0.005052463
115	0x3de4795d	0.11155961
116	0x3e252af1	0.16129662
117	0x3b31b107	0.0027113573
118	0x3d7deffb	0.06199644
119	0xbd5131ba	-0.051072814
120	0xbc92fddb	-0.017943313
121	0x3e4bbd13	0.19896345
122	0xbc08f01a	-0.008358026
123	0xbe080d32	-0.13286284
124	0x3e9ca222	0.30592448
125	0xbd987558	-0.074442565
126	0x3da5b2bf	0.08090734
127	0x3e4b0856	0.19827399
128	0xbc53ba10	-0.012922779
129	0x3d69025b	0.056887012
130	0x3c84e3fc	0.016221993
131	0xbe1548c3	-0.14578538
132	0xbd8130dc	-0.06308147
133	0x3d29e35f	0.041476604
134	0xbd8483f7	-0.06470483
135	0x3ccf9990	0.025341779
136	0xbcd1106c	-0.025520526
137	0x3d038c50	0.032116234
138	0xbd964e37	-0.07339137
139	0x3ddfb177	0.109225206
140	0xbd8bf78f	-0.068343274
141	0xbb6c4ddd	-0.0036057152
142	0xbdec9c1e	-0.115532145
143	0x3c53e0b0	0.012931988
144	0xbd2b61e3	-0.0418414
145	0xbdf0c429	-0.117561646
146	0xbcb1ce3c	-0.021704786
147	0xbc4a5796	-0.012349984
148	0x3c8cb5b3	0.017176485
149	0x3cbadb10	0.022809535
150	0x3a0d3536	0.0005386652
151	0x3dbae41e	0.09125541
152	0xbe18d330	-0.14924312
153	0xbb57edab	-0.0032948058
154	0x3bc326df	0.0059555615
155	0x3d8d399f	0.06895756
156	0xbd08d07f	-0.033401962
157	0xbda2cd7a	-0.07949348
158	0xbdb2afcf	-0.08724939
159	0xbcc31878	-0.023815379
160	0xbdb49dba	-0.088191465
161	0x3dbb70e8	0.091523945
162	0xbdbe7e9a	-0.09301491
163	0xbd7a2aba	-0.061075903
164	0xbd8e3ee2	-0.06945588
165	0xbc0e8db2	-0.008700775
166	0x3da34c65	0.079735555
167	0x3cd52f9c	0.026023678
168	0x3d88c48c	0.06678113
169	0x3b9e9541	0.00483957
170	0xbda692a9	-0.08133442
171	0x3cc07e60	0.02349776
172	0x3c2f4809	0.010698327
173	0xbd072eda	-0.033003666
174	0x3c8a052f	0.016848175
175	0xbe09b499	-0.13447799
176	0x3d5119f8	0.051050156
177	0xbdb30e88	-0.08743006
178	0x3d80f669	0.06296999
179	0x3d8d7890	0.06907761
180	0x3dc64f70	0.0968312
181	0xbcc538f8	-0.024075016
182	0xbdd52770	-0.10407913
183	0x3d7a8dee	0.06117051
184	0xbe087f35	-0.13329776
185	0x3d64832d	0.05578916
186	0xbba0adaa	-0.004903515
187	0xbd5212a9	-0.051287327
188	0x3d1213d7	0.035663452
189	0x3d8ff337	0.070288114
190	0xbc97c5a4	-0.01852686
191	0xbccebc0c	-0.025236152
192	0x3e775c95	0.24156411
193	0x3cf32974	0.029682852
194	0x3c96a440	0.018388867
195	0x3d583ac4	0.05279042
196	0xbe118371	-0.14210297
197	0x3c942ecf	0.018088726
198	0xbdaf172f	-0.08549344
199	0x3d58e85f	0.05295598
200	0xbcc384cc	-0.023867033
201	0x3da08e95	0.07839695
202	0xbc106ae9	-0.008814552
203	0xbd9aaf22	-0.07552935
204	0x3d2df39b	0.04246865
205	0x3da952d5	0.08267752
206	0xbd7cfb16	-0.06176289
207	0x3c60efd8	0.013729058
208	0x3c3212aa	0.010868708
209	0xbdb88b17	-0.09010904
210	0x3d4740e3	0.048645865
211	0xbd8d61b1	-0.06903399
212	0xbe8b4488	-0.27200723
213	0x3daa406a	0.08313067
214	0xbe19b71d	-0.15011258
215	0xbd09611b	-0.033539873
216	0x3ce0c3aa	0.02743705
217	0xbc209c70	-0.009802923
218	0x3d044fce	0.03230267
219	0x3e944785	0.28960815
220	0xbada5140	-0.0016656294
221	0xbd0444ab	-0.03229205
222	0x3d13ca2c	0.036081478
223	0x3d040209	0.032228503
224	0xbd82dd41	-0.06389857
225	0x3db43599	0.087992854
226	0x3a8ec500	0.0010892451
227	0xbe12e398	-0.14344633
228	0x3d7d330d	0.061816264
229	0x3d25fc03	0.04052354
230	0x3cdc6aa8	0.026906326
231	0xbcf5a3fd	-0.029985422
232	0x3d925e5c	0.07146904
233	0xbdf91a8c	-0.121632665
234	0xbcb4f45c	-0.022089176
235	0xbd82655c	-0.06366989
236	0xbccb9afa	-0.024854172
237	0xbe07bab2	-0.13254812
238	0x3daa0806	0.083023116
239	0xbddde49c	-0.108346194
240	0xbb9c4a60	-0.0047696084
241	0xbd13c65d	-0.036077846
242	0x3cf2659c	0.029589467
243	0x3ca7cbbb	0.020482888
244	0x3da968bd	0.0827193
245	0x3d5f2b95	0.054484922
246	0x3d1455a1	0.036214475
247	0x3da991bb	0.08279749
248	0xbd687aa7	-0.056757595
249	0xbd04c839	-0.03241751
250	0x3de1982e	0.11015354
251	0x3d066d98	0.03281936
252	0x3d9d25e2	0.07673241
253	0xbd3825fe	-0.044958107
254	0xbd8b0207	-0.06787496
255	0x3dd390dc	0.10330364

lin.4.bias f4 [4]
0	0x3c17544c	0.009236407
1	0xbd42d722	-0.047568448
2	0xbd68907f	-0.056778427
3	0x3d82e78b	0.063918196
