snapshots.pth (torch, 139540 bytes, 10 tensors)

conv.0.weight f4 [16, 7, 3, 3]
000000 1f 40 83 3e e0 ff 05 3e 7f 6b c9 be c5 fe 27 3e
       0.25634858 0.1308589 -0.39339826 0.1640578
000010 9f 78 9b be 36 0f b3 3e 8c 97 2e bd 11 8e 55 bd
       -0.30365464 0.34972543 -0.042624995 -0.05213744
000020 cd 90 96 3e 19 8a 8e be b1 d1 70 3e 2d 7d 93 3e
       0.2940735 -0.27839735 0.23517491 0.2880644
000030 ff 67 1a 3e 09 e6 81 3e 84 fa f2 3d d2 40 6a be
       0.15078734 0.25370815 0.11864188 -0.2287629
000040 8b 22 5c 3d 7f ce 0f be 3c e8 bc 3d f4 60 96 be
       0.05374388 -0.14043616 0.09223983 -0.29370844
000050 2f 84 ad bd 6d 21 c1 3e 1c 05 81 be 79 f7 8b be
       -0.08472478 0.37720814 -0.2519921 -0.27337244
000060 61 09 d5 be a7 a3 be bc f1 46 0b be 4f 9d 44 be
       -0.41608718 -0.023271395 -0.13601281 -0.19200633
000070 bb 3b 4d 3e ea 23 8b be 86 4f 2f 3e 42 ee 7d be
       0.20042317 -0.27175838 0.1712018 -0.2479792
000080 cf ec 8f be bf f9 42 3e 9b 81 1c bf 71 c5 9e 3e
       -0.28110358 0.19040583 -0.6113526 0.3101001
000090 41 c4 f2 3d 44 38 14 3d f8 01 a3 bd 15 65 89 be
       0.11853839 0.03618647 -0.0795936 -0.26834932
0000a0 9e 22 87 bd 70 62 df bc 76 eb 88 bd 13 62 98 bd
       -0.065983996 -0.027268618 -0.066855356 -0.07440581
0000b0 1a ab b1 3d 62 3d 8c be b1 5b a7 3d de 46 96 bd
       0.08675213 -0.2739058 0.081717856 -0.073377356
0000c0 56 89 85 be 44 d0 86 be d2 16 20 be 29 a1 5b 3e
       -0.26081342 -0.2633077 -0.15633705 0.21448196
0000d0 26 0f 6d be 55 15 3b 3e 1b e1 34 be 31 d5 85 be
       -0.2315031 0.18269856 -0.17663996 -0.26139215
0000e0 66 c8 8b be 72 68 d4 bc 2a 36 93 bc 14 44 60 be
       -0.2730133 -0.02592871 -0.017970163 -0.2190097
0000f0 54 bf cf be 7b d4 c1 bd 48 f1 64 3e 0d e3 1e be
       -0.4057566 -0.094643556 0.22357666 -0.155163
000100 9c c8 3f 3e aa a9 5d 3d e2 0e 82 3e 33 f0 fc bd
       0.1872887 0.054116882 0.2540198 -0.12350502
000110 e9 68 2c 3e da eb 81 3e f6 b3 8b 3e fa e5 13 3e
       0.16836895 0.25375253 0.27285737 0.14443198
000120 f5 c8 8d 3d cb 84 86 be de f1 1f be 92 1f 2b bf
       0.06923095 -0.26273188 -0.15619609 -0.6684505
000130 68 79 8f be ce 75 22 be 0f dc 6f be 7c aa 67 be
       -0.28022313 -0.15865251 -0.2342379 -0.22623628
000140 50 e0 f9 bd 1e b5 b8 be 99 bc 24 be ff 08 92 be
       -0.12200987 -0.3607568 -0.1608757 -0.28522488
000150 b2 53 af be e2 af 95 be 60 65 ae be 36 89 d5 bd
       -0.34243542 -0.2923575 -0.34061718 -0.104265615
000160 a6 b0 71 bc 7c 02 0c 3f 21 db 68 3e 1a 10 4f bd
       -0.014751589 0.5469129 0.22739841 -0.050552465
000170 2b a5 61 3e 62 4c 4f 3e ee 2a 87 3e e2 61 01 bb
       0.22035663 0.20243981 0.2639994 -0.001974218
000180 d6 20 70 3e e4 fb 99 3c 5e 37 32 3e be 1c 99 3d
       0.23450026 0.018796869 0.17403933 0.07476185
000190 f4 01 70 3d ee 25 13 3d 8c c1 06 bf 38 03 88 be
       0.058595613 0.035924844 -0.5263908 -0.26564956
0001a0 90 42 75 be b0 77 27 3c 53 e4 89 be 66 62 65 be
       -0.23951173 0.010221407 -0.2693201 -0.22400817
0001b0 0e 4c 00 3e 47 55 83 be 9b bc f0 3d 20 2b 03 3e
       0.12529013 -0.25651 0.11754724 0.1280942
0001c0 0c 5e ba 3c e6 72 50 be 96 76 a9 bd 64 17 e1 bc
       0.022749923 -0.2035633 -0.082745716 -0.027476974
0001d0 bf c2 5d 3c af ea 2a bd 8c 67 90 be ef 1b 8a be
       0.013535201 -0.041727718 -0.28204 -0.26974437
0001e0 4b b9 5b bd 5b ec a8 3d cc 36 8e 3d b5 5e 62 3e
       -0.053643506 0.08248206 0.069440454 0.2210644
0001f0 27 c5 02 be c2 fc 92 be 8b 57 d2 be 4b 63 a2 3d
       -0.1277052 -0.28708464 -0.41082415 0.07929095
000200 fc 28 b8 3e dc 15 a4 bd 94 d7 67 3e 82 52 80 3e
       0.3596877 -0.08011982 0.2264083 0.25062948
000210 af b1 4a 3e 4e 3c 9e 3e fa 3e 00 3e f6 94 8d be
       0.19794343 0.30905384 0.12524024 -0.2765271
000220 b6 f0 6f bc 7b 8e 97 be 2f 7e 02 be d1 3a f3 bd
       -0.014644792 -0.2960089 -0.12743448 -0.11876453
000230 53 bc 4e 3d e2 b1 75 be a2 76 64 be e0 d1 7c bd
       0.05047257 -0.23993638 -0.2231088 -0.06172359
000240 21 7a a1 3e d1 cd 6f 3e eb 66 60 3e 69 7e 87 3e
       0.3153849 0.23418356 0.2191426 0.2646363
000250 22 20 02 3e b2 6e b4 be 19 ea d3 3e 45 a2 89 be
       0.1270757 -0.35240704 0.4138954 -0.26881614
000260 03 47 e1 bd d0 26 20 be 75 79 17 be c6 ce 0f bd
       -0.109998725 -0.15639806 -0.14792426 -0.035109304
000270 5e 63 8e be 93 48 e2 bc 9c 75 0f be fa 88 92 be
       -0.27810186 -0.027622497 -0.14009708 -0.2862013
000280 64 6f 95 3d ec cf c0 3d e8 6f 85 be d6 36 c0 bc
       0.07296637 0.09414658 -0.2606194 -0.023463648
000290 a2 4d a6 bd 85 82 30 3e a7 f0 86 3d 9c 53 73 3d
       -0.08120276 0.17237289 0.065888695 0.059405908
0002a0 d7 9e ad bd 3a ba 4c 3c 0d ab 91 bd 5a ae 1c 3e
       -0.08477562 0.012495572 -0.071127035 0.15300885
0002b0 6a 63 2b bd e9 48 a4 bd 20 d2 0f bd 3f 77 cc bc
       -0.041842856 -0.08021719 -0.0351125 -0.024959205
0002c0 89 41 27 be f4 f7 30 bd 2c 94 97 bc 71 f8 4a 3e
       -0.16333593 -0.043205217 -0.018503271 0.19821335
0002d0 f7 04 95 be 3e a8 d3 3c 41 0c 8d be 75 76 e4 be
       -0.2910535 0.02583706 -0.2754841 -0.44621626
0002e0 e1 b8 1a 3e 77 82 21 bf cf a8 f0 be 96 a0 a8 3c
       0.15109588 -0.630897 -0.4700379 0.020584386
0002f0 24 6a d3 be a1 a8 54 bd 81 60 1e 3e 34 1b 50 3e
       -0.41291916 -0.05191863 0.15466501 0.20322877
000300 6b 04 50 bd f3 a2 fd 3e 10 fd 92 3d ed d3 a5 3e
       -0.050785463 0.49538383 0.07177174 0.3238825
000310 8b 0b 88 be d4 1c 85 be 58 4a 7b 3e d3 82 25 3d
       -0.26571307 -0.25998557 0.24540079 0.040407967
000320 10 5a ea bd 28 e7 18 3d 9f fd 3c 3e 5f 6b 2f bc
       -0.11442959 0.037329823 0.18456124 -0.010706752
000330 25 e7 e5 3b 62 90 9b bd 38 dc 9d bd 0e 03 43 3e
       0.00701608 -0.07595898 -0.07708019 0.19044134
000340 53 a9 21 3e d0 86 50 3e 0d f0 5a 3e b4 4b 95 3e
       0.15787248 0.20363927 0.21380635 0.2915932
000350 4b 75 f6 3d 97 62 0f bd 48 b3 17 3e 9d 75 81 3d
       0.120340906 -0.035006132 0.14814484 0.06321261
000360 00 c9 b8 bb 37 65 f1 be 03 2c c3 bd f5 ae aa be
       -0.0056391954 -0.47147533 -0.09529879 -0.33336607
000370 15 d5 82 3d 7e 33 62 3e db cf bc be 92 cc fd 3d
       0.063882984 0.22089955 -0.3687733 0.12392534
000380 bc 12 16 be 58 c7 0d 3d e4 7d ae bd cf 7b 74 bd
       -0.14655584 0.034613937 -0.085201055 -0.059688386
000390 39 d0 4e be be 71 b3 3c 9e 39 b7 bd 52 59 2f bd
       -0.20196618 0.021904822 -0.089465365 -0.042809792
0003a0 e8 f6 f2 bd 04 4f f6 ba 49 2c 90 bd be 21 01 3b
       -0.118635 -0.0018791859 -0.07039697 0.001970395
0003b0 2b c5 f6 bc f8 a8 e0 be 50 d7 d5 bb e7 53 4f 3d
       -0.030123314 -0.43878913 -0.0065259114 0.050617125
0003c0 46 ce 8c 3d b7 27 f5 3d e3 d5 e2 3d 95 67 30 bd
       0.06875281 0.11970466 0.11075952 -0.043067534
0003d0 3f 43 4b bd fb c7 c3 be 1a 35 00 bd 06 18 bd bd
       -0.049624678 -0.3823851 -0.03130064 -0.09233098
0003e0 c3 d4 34 3d 23 2f e7 bd f3 34 a1 bd eb 66 07 3e
       0.044148218 -0.112882875 -0.078714274 0.13222854
0003f0 62 6c 4d 3e 8e ad 17 be fb e1 6d be 9f 76 b3 3c
       0.20060876 -0.148123 -0.23230736 0.021907149

conv.0.bias f4 [16]
000000 b1 87 00 be 3f 80 a4 bd 77 38 de bd 81 23 29 be
       -0.12551762 -0.080322735 -0.108506136 -0.1651745
000010 3d b8 30 be 0c fd 01 be 76 5b c2 bd ce 81 86 bc
       -0.17257781 -0.12694186 -0.09490101 -0.016419318
000020 04 98 2f be 69 15 09 be 58 c4 6f 3d 83 ef c7 bd
       -0.17147833 -0.13387074 0.058536857 -0.0976248
000030 96 28 56 be 00 64 2d be 67 ee 45 be f9 38 aa bd
       -0.2091392 -0.16932678 -0.19329225 -0.08311648

conv.2.weight f4 [32, 16, 3, 3]
000000 80 ca 23 3e 11 31 04 bd f1 56 83 bd 94 ce a4 be
       0.15995216 -0.032273356 -0.06413067 -0.32188857
000010 90 88 93 be 8d a6 b3 be 04 9e a9 bf 8b b4 19 bf
       -0.28815126 -0.35088006 -1.3251348 -0.6004111
000020 d4 35 74 be 91 07 73 3e 2d 1d e9 3d 52 bb 6e 3e
       -0.23848659 0.23733355 0.11382518 0.23313645
000030 18 d9 8f 3d 99 32 92 3d 69 1d 0d be a8 d2 e2 3e
       0.07023829 0.07138557 -0.1378075 0.44301343
000040 4d d2 8c 3e 1e 69 ae b9 0c 0e a6 be 66 5d 68 ba
       0.27504197 -0.00033266185 -0.32432592 -0.0008864015
000050 8a c7 5b bd 28 93 12 be 03 cc 0a 3e 6a 06 45 3e
       -0.053657092 -0.14313948 0.13554387 0.19240728
000060 6b 01 43 be 04 95 18 be d4 44 1c 3d 3d 00 82 be
       -0.1904351 -0.14900595 0.038151577 -0.25390807
000070 b4 a0 f5 3d 6e 56 9c 3e a4 a4 b1 bd f4 a3 15 3e
       0.11993542 0.3053469 -0.08673981 0.14613324
000080 2d 2c 74 be 15 74 e9 bc f8 48 d5 be 1c 27 55 3e
       -0.23844977 -0.028497735 -0.41657233 0.208157
000090 51 f0 b7 bd 33 af 8a 3e 21 34 a1 3c 80 9b 5e 3e
       -0.089813836 0.2708679 0.019678177 0.21739006
0000a0 df a1 35 3d 80 ff 8b be 7c b0 2d bf fc 24 89 be
       0.044343825 -0.2734337 -0.6784742 -0.2678603
0000b0 99 fe 2b be 88 96 77 bd 4d 76 26 3e 4e 91 28 3d
       -0.1679634 -0.060446292 0.16256066 0.0411542
0000c0 a8 64 05 be e8 10 20 be c7 26 e3 3d fe 1a 6e be
       -0.13026679 -0.15631449 0.110913806 -0.23252484
0000d0 47 49 20 be 9b 76 18 3e 62 c9 ac 3c 0e 48 8f 3d
       -0.15652953 0.14888994 0.02109212 0.06996165
0000e0 17 ad 26 be d4 02 ae be 27 09 1d be 8f e6 7a bf
       -0.16276966 -0.33986533 -0.15335523 -0.98008054
0000f0 a0 96 f3 be cb fc 81 be c9 e1 91 3e bd fe 74 be
       -0.47575855 -0.25388178 0.28492573 -0.239253
000100 95 bb 92 bd 69 df d0 bd 97 da 01 3d 94 40 2a bd
       -0.07164685 -0.10198862 0.031702604 -0.041565493
000110 09 6e 80 be 28 68 a1 be d1 51 b4 3c 8a 8e 21 bd
       -0.2508395 -0.31524777 0.02201167 -0.039442576
000120 2b 32 76 3d 9a 8c a6 3e 9e 5c 78 3e 58 0e 0a 3e
       0.060106438 0.32529145 0.2425408 0.13482034
000130 26 87 a8 3e 1d 14 00 3e 7b d2 83 3e b4 dd a4 3e
       0.3291561 0.12507673 0.2574652 0.32200396
000140 10 ae ab 3d be 26 11 bf 94 c2 5c be c8 5c 17 3e
       0.08382809 -0.5669974 -0.215586 0.14781487
000150 90 fd 44 bf d6 8b f6 bd 88 68 a1 bd 50 83 9c be
       -0.76949406 -0.1203839 -0.07881266 -0.30568933
000160 dd d9 6b be b7 ff c0 bd 64 8d 08 3e 51 3d 83 3e
       -0.23032327 -0.09423774 0.13335186 0.25632718
000170 e6 ed 08 3d ba 18 79 3e 43 84 5f 3d ab 2d da 3d
       0.033430003 0.24325839 0.054569494 0.10653242
000180 8d db 6a be 05 71 0e be 1b d3 57 bd c4 1b ae 3d
       -0.22935314 -0.13910301 -0.05269156 0.085013896
000190 2a 19 6f 3d 9b f6 05 be 4e 12 60 bd 53 98 13 3e
       0.058373608 -0.13082354 -0.054704957 0.14413576
0001a0 93 1a fd 3d 1a c6 60 bd 19 d4 1a 3e 5a 69 8f be
       0.12358584 -0.054876424 0.15119971 -0.28010064
0001b0 f2 12 c2 bd d8 1b 1d bf 22 bb 3f 3e b6 18 f9 be
       -0.0947627 -0.6137061 0.18723729 -0.48651665
0001c0 5f 37 05 3e 80 5b 8e 3e 93 7f 17 bf 63 a6 4d 3e
       0.13009404 0.27804184 -0.5917904 0.20083003
0001d0 b2 f6 02 bf d2 bf 57 be 5a 2e 37 bd 3f f2 45 3e
       -0.5115768 -0.21069267 -0.04472194 0.19330691
0001e0 ac 3d df ba 34 a8 48 be 09 40 6b 3d 66 85 1a bf
       -0.001703193 -0.19595414 0.057434116 -0.603598
0001f0 3a 8a e7 be 11 58 86 3d cf 23 f2 bd 94 9c 1c 3e
       -0.45222646 0.06559766 -0.11823236 0.15294105
000200 62 93 b5 bd b5 f4 99 3c 66 c7 aa 3c e1 74 10 3e
       -0.08866002 0.018793443 0.020847034 0.14107086
000210 3a cc 88 be 82 8b a1 3d da 09 07 bf e9 a5 21 3e
       -0.26718313 0.07887937 -0.5274941 0.15785946
000220 fa 0f b5 3d 29 3d 39 3e d2 e3 44 3e 0b 62 35 3e
       0.08840938 0.18089737 0.19227532 0.17713182
000230 30 cd b1 bd 4f 72 02 3e fd 32 48 3e 3d 20 ae 3e
       -0.086817145 0.12738918 0.195507 0.3400897
000240 21 2e 10 be d0 9f 3b be b9 61 93 bd a3 91 91 3e
       -0.14080097 -0.18322682 -0.071963735 0.28431424
000250 56 f4 6c 3d f3 a4 8e 3e 22 d8 8d bc d0 6c 27 3e
       0.057850204 0.2786022 -0.017314974 0.16350102
000260 44 ac 49 3e c0 8e 32 3e 0e e6 d9 3d b7 5e 1c be
       0.1969462 0.17437267 0.106395826 -0.15270506
000270 8a 28 f6 be 8e b3 23 bf d6 d9 8f 3d 23 68 41 be
       -0.48077804 -0.63945854 0.07023971 -0.18887381
000280 97 a4 e4 3e 43 87 01 bf 8f 85 0e be 35 34 e3 3c
       0.44656822 -0.5059702 -0.13918136 0.027734855
000290 6a 60 2a bd f0 dc 53 3e 57 4f cc 3d ff 06 4a 3e
       -0.041595854 0.2068975 0.099760704 0.19729231
0002a0 38 30 a3 3d 73 28 22 3d c1 7c 2b 3e 4c 50 65 3d
       0.07968181 0.039589357 0.16746809 0.05598478
0002b0 d7 7c 45 bd b1 61 38 3e d1 dd 2d 3e 48 8d a2 bd
       -0.04821476 0.18006016 0.16979147 -0.079371035
0002c0 85 b3 39 be 9b 8e 0d be c4 22 6f 3d 58 75 ad 3e
       -0.18134888 -0.13823931 0.058382764 0.3387859
0002d0 54 96 c4 3d e7 47 bf 3c fe ce 0d 3e 52 a0 d8 3e
       0.09598985 0.023349715 0.13848493 0.42309815
0002e0 dd 68 95 3e 7f f0 81 3e 26 c1 41 3e 6b ad ba bc
       0.29181567 0.25378796 0.18921337 -0.02278777
0002f0 db 37 07 3e a7 73 76 3e 62 68 19 be 3d f3 06 be
       0.13204901 0.24067555 -0.14981225 -0.13178726
000300 25 37 81 3d f5 c5 52 be c8 88 b5 be 97 f6 6a 3e
       0.06309346 -0.20583327 -0.35455918 0.22945629
000310 b3 0c 0f 3e 5b fc b4 bd 80 09 b6 be 11 6d ad 3c
       0.13969688 -0.088371955 -0.35554123 0.021170171
000320 0b 84 94 be e0 2a 39 3d f4 7a 1d 3e 9a 02 97 3d
       -0.2900699 0.045206904 0.15378934 0.07373543
000330 50 af 1e bd a6 ee 06 3c f2 72 5f 3e 27 67 5f be
       -0.03874141 0.008235609 0.21821192 -0.21816693
000340 71 73 e2 3d 07 82 3c 3e e7 b8 3f be 41 94 1a be
       0.11057175 0.18408976 -0.18722878 -0.15095617
000350 c2 08 cd bd fd 50 8d be 49 3b 84 bd 13 e4 e8 bd
       -0.10011436 -0.27600852 -0.0645662 -0.11371627
000360 e9 a4 6b 3e d0 fc c4 3c 8c 70 cd 3e 58 7c d5 3d
       0.23012127 0.024046332 0.4012493 0.10424107
000370 99 2e b9 3e c0 55 af 3e e2 11 6d 3b c6 02 5f 3d
       0.36168364 0.3424511 0.003617399 0.054446004
000380 27 88 21 be 67 89 10 be 88 8b 66 3e 2c 6a ba bd
       -0.15774594 -0.14114915 0.22514164 -0.09102282
000390 20 c8 88 be c3 d1 16 3e 82 58 d4 3d 99 58 97 3e
       -0.26715183 0.14728455 0.10368444 0.29559782
0003a0 73 c9 db 3d ce 26 9e 3d 6d a7 49 bd 2f 28 2b 3e
       0.10731783 0.07722245 -0.049231935 0.16714548
0003b0 b9 26 8a 3d 78 44 20 3e 2e 54 56 be 9c 9b 47 be
       0.06745667 0.15651119 -0.2093055 -0.19492954
0003c0 f8 53 92 bd 91 07 9a be 58 dc 50 be 3f 59 74 bd
       -0.07144922 -0.30083898 -0.20396554 -0.059655424
0003d0 7c f0 63 bf ed 2d a5 be c9 7b b1 be 4c d7 53 be
       -0.89038825 -0.322616 -0.34664753 -0.20687598
0003e0 ce 59 34 3d a7 7d e2 bd 53 9a c8 be 26 9d 4c 3e
       0.044030957 -0.110591225 -0.3918024 0.19981822
0003f0 28 2f ce 3e 94 c1 07 3f 6f 39 e9 3e 61 79 36 be
       0.40270352 0.5302975 0.4555163 -0.1781974

conv.2.bias f4 [32]
000000 bf 87 49 bd a8 46 7c be 38 24 33 bd 77 69 cb bd
       -0.049201723 -0.24636328 -0.043735713 -0.09932225
000010 79 b4 2e be 52 22 7c bd b5 fa 0a be ab 97 4b bd
       -0.17061032 -0.061556168 -0.135722 -0.04970519
000020 a2 03 c6 bd 93 2f 12 be ca ca a4 bd 76 57 df bd
       -0.09668662 -0.1427596 -0.080464914 -0.10905354
000030 0a fe 19 be eb d0 73 bd f1 fd 11 be eb 9f 0e 3e
       -0.15038314 -0.05952541 -0.14257027 0.13928191
000040 fc 83 93 bd f6 02 04 be 20 76 bf bd de 2f fb bc
       -0.072029084 -0.12891755 -0.093487024 -0.030662473
000050 82 8b 7f bd 7e 96 f0 3d 30 be e5 bd 6c ae 18 3e
       -0.062388904 0.11747454 -0.11217916 0.14910287
000060 c8 9c 6c 3c da 1b ee bd e0 01 cc bd f9 54 5b be
       0.014441676 -0.11626406 -0.09961295 -0.21419133
000070 8a dc 6f be 79 b4 40 be 8b 0a b0 bd 0e 2b 1f be
       -0.23423973 -0.18818845 -0.08595761 -0.15543768

conv.4.weight f4 [64, 32, 3, 3]
000000 fa a4 a6 be 9d e6 aa bc 38 38 86 bc 7a b7 89 be
       -0.32547742 -0.020861918 -0.016384229 -0.26897794
000010 94 93 47 be f0 13 6b be 17 3a 99 be 3f f4 51 be
       -0.1948989 -0.22956824 -0.29927132 -0.20503329
000020 59 14 e6 bd 3d 8a 21 bf 0d 3d 14 be 79 8b 38 be
       -0.1123435 -0.6310156 -0.14476414 -0.18021955
000030 7d bf fd be 6a c8 4c be 20 1d e8 bd 95 c5 4e bd
       -0.49560156 -0.19998327 -0.1133368 -0.050481398
000040 e9 e6 e8 bd 27 48 07 be 89 9b bb be ae 62 7f be
       -0.113721676 -0.13211118 -0.366421 -0.24939987
000050 4e 35 1c be 4a b9 a4 bd bf b0 1a be 73 b0 55 3e
       -0.15254709 -0.080431536 -0.15106486 0.20868091
000060 fc 39 d2 bd a6 2e b0 bd b5 44 6e 3e 0f 3a bc be
       -0.10264966 -0.086026475 0.23268397 -0.36763045
000070 5a c9 8c be 14 aa 5b be 82 e3 a4 be 57 4f 45 be
       -0.2749737 -0.21451598 -0.32204825 -0.19268547
000080 1b 36 34 3d 31 e3 76 3d f8 db 6d bd c6 ac 52 3e
       0.04399691 0.06027526 -0.058071107 0.2057372
000090 8e fc 86 be 78 1c 26 be 90 17 16 bd 11 df cf 3d
       -0.2636456 -0.16221797 -0.036643565 0.101499684
0000a0 06 ff 98 be c7 a9 ef bc 08 38 43 be aa 40 1a be
       -0.29882067 -0.02925576 -0.19064343 -0.1506373
0000b0 20 c0 8e be e1 dd 88 be ed d7 3d be 22 15 2d 3e
       -0.27880955 -0.2673178 -0.185394 0.16902593
0000c0 c0 7e 97 be 67 fb f1 bd ee 03 d9 3d 54 15 58 be
       -0.2958889 -0.11815529 0.10596453 -0.21101886
0000d0 5f 45 9d bc f6 e7 98 bb 06 5a 03 3e 79 7b b6 bc
       -0.019198118 -0.004666324 0.1282731 -0.022275673
0000e0 2f 99 56 3b 36 d3 20 be 64 5f c4 be cc a4 90 ba
       0.0032745113 -0.1570557 -0.38354027 -0.0011035441
0000f0 a6 e3 af be b5 39 a3 be 51 14 6a 3c 04 e4 85 bc
       -0.3435337 -0.31879964 0.01428707 -0.016344078
000100 9c 10 8b 3d 01 1a 01 3e 2b fe 01 3e 6c e2 a1 3d
       0.06790277 0.12607576 0.12694614 0.07904515
000110 bc 60 fe 3d 5f a2 4b bd 6d e6 4b 3d 6d eb 06 3e
       0.12420794 -0.049715396 0.049780298 0.13175745
000120 15 48 af bc 83 c4 18 3d de da 65 bc 81 4b 3e bd
       -0.021396676 0.037296783 -0.014029233 -0.046458725
000130 cf 5c 3b 3d ea 2c 6d bc 8f 81 c8 bc f6 f9 90 3b
       0.045742806 -0.01447604 -0.02447584 0.004424329
000140 fd 9d 1b ba bd 1c 7a be d9 6f 26 be 5d 9c ae bd
       -0.0005936323 -0.24425025 -0.16253604 -0.08525918
000150 53 0f d6 be fa c5 72 be 0b ee 8c 3c 09 53 f2 be
       -0.41808566 -0.23708335 0.017203351 -0.47328976
000160 76 5d 9f be 7b 2b 22 3d 01 58 4f be 68 e4 38 be
       -0.31125993 0.039592247 -0.20248415 -0.1805588
000170 22 e3 d5 bc 8a d3 41 be c4 ca f9 bd fe 59 45 3e
       -0.026109282 -0.18928352 -0.121968776 0.1927261
000180 57 52 36 3d e4 78 0a 3b 97 49 84 3e be a5 10 bf
       0.04451212 0.0021129185 0.25837395 -0.565029
000190 f5 64 24 bf e3 ac 9f be ed 56 f9 be 57 61 02 bf
       -0.6421655 -0.3118659 -0.48699132 -0.5092978
0001a0 20 f1 2c be 3c bc 81 be de 47 ba bd da 5d 02 be
       -0.16888857 -0.25338924 -0.09095739 -0.12731114
0001b0 d6 14 1e be 27 1a 42 bc e0 aa a9 3d 9e ff a0 be
       -0.15437636 -0.0118470555 0.08284545 -0.3144502
0001c0 6d 9d 2f be 58 22 a5 3d 3f 85 a8 be dd af 7b be
       -0.17149897 0.08063191 -0.3291416 -0.24578805
0001d0 28 43 5a 3c 7d 15 b7 3e e3 ee 8c 3e cb fa d1 3e
       0.013321675 0.35758582 0.27526006 0.41011652
0001e0 3d bd bd 3e 60 17 28 3e d6 c8 cd 3e 37 c1 55 3e
       0.3705844 0.16415167 0.40192288 0.20874487
0001f0 8c 6b a2 3e 33 59 2a 3e 9a 6d 56 be 3c de 95 be
       0.31722677 0.1663559 -0.20940247 -0.29271114
000200 09 91 c0 be f1 e2 b8 be 3b f1 97 be 9a 05 97 3a
       -0.37610653 -0.36110643 -0.29676232 0.0011522055
000210 4f 37 d8 bd e1 d0 3c be 7c 34 03 3e 7c ea 51 3d
       -0.10557424 -0.18439056 0.1281299 0.051249012
000220 87 0f ed 3d b7 41 0c 3e 63 ee f3 3d 2c 62 e1 3c
       0.11575227 0.13696943 0.11910703 0.027512632
000230 53 47 27 3c d8 7c 98 3d c9 2a fe 3d 9c ca f8 3d
       0.010209876 0.07445687 0.12410504 0.1214802
000240 26 52 06 be 16 ed 06 bd bd 31 fc 3d 21 fd 4f be
       -0.13117275 -0.032940947 0.12314174 -0.20311405
000250 f0 da 49 be 2e 89 6c 3d 34 9c 42 3d 42 89 87 bd
       -0.19712424 0.057748012 0.04751225 -0.06617977
000260 2a 7c 17 3e c5 db ba be 72 1d 75 bd 8d 5a db bd
       0.14793459 -0.36495796 -0.059842534 -0.107106306
000270 82 06 a1 be 2e 1b 75 be ec ba e2 3b b3 10 1d bf
       -0.31450278 -0.2393615 0.0069192555 -0.61353606
000280 9c 79 0c bf e4 4e 2b be 62 5a 09 3b b5 02 5a bc
       -0.5487306 -0.16729313 0.0020958413 -0.0133063095
000290 28 4d 2c bc 2f 7c a7 bc 05 99 ec 3c c7 16 74 bd
       -0.010516442 -0.020444958 0.02888156 -0.059592035
0002a0 50 de 55 3d 89 9e 00 b9 c9 42 08 bd bb d7 f0 be
       0.052213967 -0.0001226609 -0.033266816 -0.4703959
0002b0 d0 43 84 be d7 06 91 be 8d 1a 5c 3b f4 b0 11 be
       -0.25832987 -0.2832553 0.0033585161 -0.14227659
0002c0 9f 3b 5d 3d 12 d4 a8 3d 07 b5 fa bc fb 9e 38 3e
       0.054011937 0.08243574 -0.030603899 0.18029396
0002d0 4a d5 e8 be ae 5e 09 bf de 30 d4 bd d1 da 0e be
       -0.45475227 -0.53660095 -0.10360883 -0.1395066
0002e0 d7 a6 d0 be 88 f6 04 bd c5 3d 20 be 29 ee 96 be
       -0.4075229 -0.032461673 -0.15648563 -0.29478577
0002f0 4e 1e 85 bd 6c 14 c3 3d 72 13 8b ba 04 bb 5d 3d
       -0.06499921 0.095253795 -0.0010610654 0.05413343
000300 00 b4 46 bd df 01 9a bc 3b 93 64 3d e4 fd 04 3d
       -0.048511505 -0.01879972 0.055804472 0.03246869
000310 b7 d5 1b bd 86 d5 34 bd f7 11 15 bd 06 d3 a9 3c
       -0.03804561 -0.044148944 -0.036394086 0.020730507
000320 00 b4 1f 3e a5 8e 3a be a3 e6 88 ba 4b 8e 43 3b
       0.15596008 -0.18218477 -0.0010444712 0.0029839452
000330 09 60 ad bd 79 01 f6 bd ac 5c fe 3d 47 b4 e7 3d
       -0.08465583 -0.12012 0.124200195 0.11313682
000340 5e 57 01 3e bb 81 bb 3d e2 cf 86 3d 26 a1 eb 3d
       0.12630984 0.091556035 0.06582619 0.11505346
000350 e7 8c e5 3d d5 18 1e 3e 2a 55 18 3e e4 4b ae 3d
       0.112085156 0.1543916 0.14876238 0.08510569
000360 07 43 cd 3d d8 8a 34 3d 3c 8f db 3d 02 d9 07 3e
       0.1002255 0.044077724 0.10720679 0.13266376
000370 e6 f9 b7 3d 4b 6b d6 3d e7 6c 54 3e fc ea b6 3d
       0.08983211 0.10469683 0.20744668 0.089315385
000380 25 ea be 3d 50 2f 8a be 76 a7 97 be 5c 1d a2 bd
       0.09322003 -0.26989222 -0.2961995 -0.07915756
000390 42 4b cb be d5 62 65 be d8 c5 79 3d fb 98 91 be
       -0.39705855 -0.22400983 0.060979694 -0.28437027
0003a0 2d fb 9e 3e 48 ff cd 3e 01 43 8d be ab 17 f0 be
       0.31051007 0.40233827 -0.27590182 -0.46893057
0003b0 6f 8a 01 bf 40 4d 68 be 01 dd 1c bf 89 e7 fb be
       -0.5060186 -0.22685719 -0.61274725 -0.49200085
0003c0 6e 9b a7 be 62 08 2c bf 89 ac f1 be 63 2c 57 be
       -0.3273577 -0.6720029 -0.47201946 -0.21013026
0003d0 89 63 96 be 52 88 47 bd 4f 4e 43 3e e1 58 ca 3d
       -0.29372814 -0.04871399 0.19072841 0.098802336
0003e0 78 d1 c2 3e 50 e7 5d 3d 53 f6 2b 3e fd 32 6d 3e
       0.38050437 0.054175675 0.16793184 0.23163982
0003f0 6f bf 49 3c 72 1d fb 3d 41 42 c7 3e ca c6 5f 3d
       0.012313708 0.122614756 0.38917735 0.05463294

conv.4.bias f4 [64]
000000 b2 31 06 3e 47 6e 8b bd df 20 46 bc a5 2f 25 be
       0.13104895 -0.06808143 -0.012092798 -0.16131456
000010 8b bc f3 bd 6c 41 ae bc 1a 7d 2f bd 2b 5d 05 be
       -0.11901196 -0.02127143 -0.042843916 -0.13023822
000020 77 2e ed bd 74 6a 8e bd ee 26 64 3c 4f e7 9c bd
       -0.11581128 -0.06953898 0.013925297 -0.07661306
000030 e0 82 59 3d 80 98 44 bd f9 e2 a2 bd 5a 1e f4 bd
       0.053103328 -0.047996998 -0.07953448 -0.119198516
000040 c3 d8 1f bd 07 e9 81 bd e4 50 e8 3c 92 95 02 be
       -0.03902508 -0.063432746 0.028358884 -0.12752369
000050 54 8a ef bc 82 94 e9 bd 47 b7 88 bd 14 df 9a bd
       -0.029240765 -0.11405279 -0.066755824 -0.0756208
000060 5a e1 14 bd 44 fd 2b be 42 a6 f6 bd 1b 40 23 bd
       -0.036347724 -0.16795832 -0.1204343 -0.039856058
000070 a8 ea 10 be 4d 42 f8 bd cf 27 2b be f1 d6 d9 bb
       -0.14152014 -0.12122021 -0.16714405 -0.0066479375
000080 ea 46 0c be 28 6e 36 bd 53 1c a7 3d 19 14 03 be
       -0.13698927 -0.044538647 0.08159699 -0.12800635
000090 c1 e6 d4 bd a9 2c f8 bd 3b f3 c6 bd 5f 2f f7 3d
       -0.10395575 -0.12117893 -0.09714361 0.12069582
0000a0 e1 72 2b be 4e 14 c5 bd e1 ff 0d be a6 c0 37 bd
       -0.16743042 -0.096230134 -0.13867141 -0.04486146
0000b0 06 a3 f8 3c c8 6a 5e bd 4c 1d b7 bd 81 70 dd 3d
       0.030351173 -0.054301053 -0.08941135 0.10812474
0000c0 0b d9 ea bd 9d b5 89 bd 62 a2 a0 bd 09 e8 a7 bd
       -0.11467179 -0.06724093 -0.07843472 -0.08198554
0000d0 46 f7 02 be 9f f9 a1 bd 06 99 24 be b5 b1 e4 bc
       -0.1278964 -0.079089396 -0.16073999 -0.027916769
0000e0 f9 1e 1f be bb 71 c5 bc 13 75 32 be 70 bf 57 be
       -0.15539159 -0.024102082 -0.17427473 -0.21069121
0000f0 de 5d cf bd fd 0d 29 3e 53 b2 30 be f2 cc ee bd
       -0.101253256 0.16509242 -0.17255525 -0.11660184

lin.2.weight f4 [128, 64]
000000 29 90 71 3e 76 9b 61 bd 57 5e c5 bd 50 ed 22 be
       0.23590149 -0.0550799 -0.096371345 -0.1591084
000010 7f b1 1e be 83 99 22 be ee ec e6 bd ea d6 5f bd
       -0.15497397 -0.15878873 -0.112756595 -0.054648317
000020 7d 57 d3 be 1b 8f c8 3c d5 3f 54 3e 4a 2d 6d 3c
       -0.41277686 0.0244823 0.20727475 0.01447613
000030 57 e9 4c bf 90 78 3d 3d 76 7f 82 be 7c 13 8c 3d
       -0.8004355 0.046257555 -0.2548787 0.06839654
000040 be 2d 57 3d 05 bc 1e 3d 19 8e 22 3e e4 4a c8 bc
       0.052533858 0.03875353 0.15874518 -0.024449773
000050 da 61 5c 3d 8c 42 13 be 56 b2 d8 be 44 0f 8b 3d
       0.053804256 -0.14380854 -0.4232356 0.06790021
000060 39 aa 8b bd 88 ba 90 be 28 2a 0d bd 10 31 95 3c
       -0.06819577 -0.28267312 -0.03446403 0.018211871
000070 9f f9 76 3d c5 5e 6f 3e c3 da 88 bf ee 3a 8b 3e
       0.06029665 0.23375995 -1.0691761 0.27193397
000080 34 06 0e be ec 2c f9 bd 4d 57 21 3e a2 4e 5b 3e
       -0.13869554 -0.12166771 0.15755959 0.21416715
000090 24 67 c4 be 26 02 5c be 96 6b 9d 3d 63 37 86 3e
       -0.3835994 -0.21485195 0.07686536 0.26214132
0000a0 05 fd 82 bd 06 89 06 bd 7e da 51 be 89 7b 11 3e
       -0.06395916 -0.03284552 -0.20493504 0.14207281
0000b0 7b 9d 25 3e 48 b2 d8 bc 6f c7 bf bd 1f 45 f7 3d
       0.16173355 -0.026452199 -0.09364211 0.12073731
0000c0 25 0c f7 3d 5a 3e 16 be 59 e5 ed 3d b0 5e 89 be
       0.12062863 -0.14672223 0.1161601 -0.26830053
0000d0 c9 1b 26 be 1c 37 cb be 5d ef 3d be 73 da a2 bd
       -0.16221537 -0.39690483 -0.18548341 -0.07951822
0000e0 e6 b7 3f bf fb 35 21 bf 6d 80 59 bc 05 54 17 be
       -0.7488998 -0.6297299 -0.013275248 -0.14778145
0000f0 68 89 90 bc ed 66 a4 3e 74 c1 69 be da 9e 21 3d
       -0.017643645 0.32109776 -0.22827703 0.039458133
000100 87 f3 6b bc c6 80 f7 bd 7e e8 da 3d b0 63 81 bd
       -0.014401323 -0.120851085 0.106888756 -0.06317842
000110 3d c0 af 3d 10 ab 18 3c 60 d9 ea 3c e1 cf da bc
       0.085815884 0.009318128 0.028668106 -0.026710453
000120 13 f1 d8 bd 8e 0c 80 3d b0 6e 5a bd 24 2e 40 3d
       -0.10592856 0.062523946 -0.053328216 0.046919003
000130 1a 5f f1 3d 4c a3 13 bd 0d c8 72 3c cc c3 33 3d
       0.11785717 -0.036044404 0.014818204 0.0438879
000140 2c 12 21 bd 28 49 6c 3d 71 8d b5 bd 3a ee 8b 3d
       -0.03932397 0.057686955 -0.088648684 0.068325475
000150 0c 9d 40 bd 35 68 3b bc eb 58 5d bd 60 a6 5e 3c
       -0.04702477 -0.011438419 -0.054039877 0.013589472
000160 d7 94 9f 3d f7 64 89 3c 78 5e 33 bd e6 6f f0 3d
       0.07792061 0.016771777 -0.043791264 0.11740093
000170 75 10 d9 3d 58 6a 54 bd 04 be ae bd 5c 47 b5 bd
       0.10598842 -0.05185923 -0.08532336 -0.08851501
000180 6f 34 5e 3c 2e 2d ef 3d 70 a7 f0 3c 94 97 12 3d
       0.013562306 0.11678539 0.029376715 0.035789087
000190 be b0 f1 bd fb 51 2e 3d 86 34 89 3d 78 26 47 bd
       -0.11801289 0.04255865 0.06699471 -0.04862067
0001a0 ef 2e a7 bd f0 9b 78 bc 43 1c ea bd 98 aa d6 3d
       -0.08163249 -0.015173897 -0.11431172 0.10481757
0001b0 74 25 b0 bd 4a 68 e6 3d 2c f8 fd bd 68 a9 8e 3d
       -0.086008936 0.1125036 -0.12400851 0.069659054
0001c0 0c 03 56 bd d2 70 d6 bd 24 fe 0f 3d 58 b2 eb 3d
       -0.052249 -0.104707375 0.035154477 0.11508626
0001d0 7b 0c 8c bd d3 2c 1a 3c e6 70 b8 bd 10 cf a6 3d
       -0.06838318 0.009410101 -0.09005909 0.08144963
0001e0 0a 1a e2 3d 5c 92 0b bd 09 0c e4 3d 97 c3 66 3d
       0.11040123 -0.034075126 0.11135108 0.056338873
0001f0 88 32 8a 3c db af 82 bd 58 95 a2 3d 80 b2 d2 3b
       0.016869798 -0.06381198 0.07938641 0.0064299703
000200 7b ed aa bd fc d6 fb bd 78 1f f8 bd 80 ec c1 3d
       -0.08346077 -0.122968644 -0.12115377 0.09468937
000210 53 f3 87 bd 45 c5 c6 bd 60 51 a2 3d 39 12 15 bd
       -0.06638207 -0.09705595 0.07925677 -0.03639433
000220 d8 fe be bd 40 ba ce 3c d9 09 47 bd 14 89 45 3d
       -0.09325951 0.025235295 -0.048593376 0.04822643
000230 36 b5 bf 3d 64 e4 00 bd 28 cc 91 3d e8 0d 0f bd
       0.09360735 -0.03146781 0.07119018 -0.03492537
000240 e8 e3 28 bd b8 c1 2a 3d c9 50 6d bd d4 8b 09 3d
       -0.041232973 0.04168865 -0.05793837 0.033580616
000250 d0 08 e4 3c d0 1f 02 be 6f 0c 73 bd 36 fe e6 3d
       0.027836233 -0.12707448 -0.05933803 0.11278956
000260 f2 55 f6 bc 82 b1 f2 3d 8c 77 c1 3d 48 af 0f bd
       -0.030070279 0.11850263 0.0944663 -0.03507927
000270 3f 71 81 bd ba 0d 7a 3c 77 3c cb bc cf ba 10 bd
       -0.06320428 0.015262062 -0.024809105 -0.035334405
000280 c4 c2 d8 bc 1e 55 a5 bd 8d af 46 3d da 86 8f bd
       -0.026460059 -0.080728754 0.048507262 -0.07008143
000290 62 37 03 be 2f f4 dc bd aa 50 a3 bd 66 b4 ea bb
       -0.12814096 -0.10788762 -0.0797437 -0.0071626185
0002a0 72 ef 00 be 8c 22 3d 3d aa 9c bb bd 38 ea 00 bd
       -0.12591341 0.046175525 -0.09160741 -0.03147337
0002b0 ff d4 75 bd 2c 64 19 bd 08 31 a5 3d 4d ad 96 bd
       -0.060017582 -0.037449047 0.080659926 -0.07357273
0002c0 53 e7 91 3c 60 e6 9a 3d 94 ef 7c 3d 33 48 28 3d
       0.0178105 0.07563472 0.061751917 0.04108448
0002d0 92 46 2a bd 0e b2 9e bd 28 0f d2 bd 7f a7 c3 3d
       -0.041571207 -0.07748805 -0.10256797 0.09553432
0002e0 49 8e f5 bd ee 6b fe bc 3c 84 bf 3d 8f 62 d4 bc
       -0.11990029 -0.031057324 0.093513936 -0.025925903
0002f0 4e fc d6 bd a3 e8 bc 3d 7e 91 3d bd ac de 55 3d
       -0.10497342 0.092240594 -0.04628133 0.05221431
000300 84 56 71 3d 64 30 9d bd 94 8e 03 be fc 69 d9 3d
       0.0589204 -0.076752454 -0.12847358 0.10615918
000310 d3 4f c3 be 3b 5b 12 3e e2 9a 07 be 2b c2 27 3e
       -0.3814684 0.14292614 -0.13242677 0.16382663
000320 ea 62 e3 bb 60 53 45 3d 20 04 45 3e 19 e3 a7 3d
       -0.0069392817 0.048175216 0.19239855 0.08197612
000330 90 e9 05 3e c4 da 39 3d f7 c6 1a 3e b2 37 f4 3d
       0.13077378 0.045374647 0.15114962 0.119246855
000340 dd dd fd bc 56 1d 4c 3d db 25 1c 3e 02 4d 37 3d
       -0.030989582 0.049832664 0.15248816 0.044751175
000350 a9 4f aa 3d 9c d9 40 3e 65 51 4c 3e bd d4 c9 bd
       0.08315975 0.18833011 0.19952925 -0.0985503
000360 8c 7b ff 3d c1 bf ed bd fc ab ee bd f4 6a ad 3d
       0.124747366 -0.1160884 -0.11653897 0.08467665
000370 f3 f3 31 be 5c 9d b1 3c d0 2f 9a 3d 3d 40 94 bd
       -0.17378215 0.02168148 0.07528651 -0.07238815
000380 1f 08 56 be 3d 3f 89 3d ba 70 82 3d da 85 c6 be
       -0.20901535 0.06701515 0.06369157 -0.38773996
000390 bb 3c 49 3e da 2d 39 be 2c 08 1b bd 9b f6 99 3d
       0.19652073 -0.18083897 -0.03784959 0.075177394
0003a0 59 51 e0 be f8 b4 ea 3d e4 8e c1 be 6b 07 53 3e
       -0.43812063 0.11460298 -0.3780433 0.20608298
0003b0 75 99 33 3e 80 d7 0d 3c 62 13 d7 3d 6b dd df bd
       0.17539008 0.008657336 0.10501744 -0.10930904
0003c0 cd f1 25 be 3b 81 0a be 19 7b 03 3e b8 83 0a 3f
       -0.16205521 -0.1352586 0.12839927 0.54107237
0003d0 fd b1 b1 3d fd ab 46 be 73 1c 99 be 6d 17 bf 3e
       0.08676527 -0.19401546 -0.29904518 0.3732256
0003e0 2a 1e 1a 3d 54 bb 4a bf d9 82 d3 be 4c e2 f4 3d
       0.037626423 -0.7919209 -0.41310766 0.11957225
0003f0 1a c0 dd 3d 16 e4 14 be d1 df 37 3e 83 68 a9 3d
       0.10827656 -0.14540133 0.17956473 0.08271887

lin.2.bias f4 [128]
000000 f2 8e 1c 3e 92 88 b2 bd e3 9a 77 bd 4c e7 d1 3c
       0.15288904 -0.08717455 -0.060450446 0.025622986
000010 c3 e5 a5 3c 06 0b 22 3e 62 fa 72 3d d4 7f 41 bd
       0.02025116 0.15824518 0.059320815 -0.047241047
000020 70 7c e0 bd a1 bd c8 bd 3c d1 0f 3d a5 cb 32 3e
       -0.109612346 -0.09801794 0.03511165 0.17460497
000030 6a f2 c5 bd 77 a8 42 3e 0b b8 c6 3d 10 06 b8 bd
       -0.096653774 0.19009577 0.09703072 -0.08985531
000040 70 ae e4 bd b1 30 99 3d 8f 67 0d be 89 87 3e 3d
       -0.11166084 0.0747999 -0.13809036 0.046515975
000050 01 f6 3d 3e 28 ee d4 3d 59 56 33 3e 19 bb 94 3c
       0.18550874 0.10396987 0.17513408 0.018155621
000060 b4 b4 19 3e 61 72 80 bd 0a 3c a8 3d 48 b9 12 be
       0.15010339 -0.06271816 0.082145765 -0.14328492
000070 6d c8 f6 bd 73 b5 fd bd 98 8a 9a 3c 08 62 2e 3e
       -0.12049947 -0.12388124 0.018864915 0.17029583
000080 ec 03 64 3d cd b0 fb bc 94 6c 16 3e 42 ac 8b bd
       0.055667803 -0.030723954 0.14689857 -0.06819965
000090 15 34 09 bd fe e7 9e 3b c0 fb 33 3e 94 b8 76 bd
       -0.033496935 0.004849433 0.17576504 -0.06023462
0000a0 54 f8 1e 3e c5 1a e3 bd 81 0f 57 3d 71 12 19 be
       0.15524417 -0.1108909 0.05250502 -0.14948441
0000b0 2f 29 47 3d 90 52 7c bd 8d 30 b7 3d b6 de 0b bd
       0.04862326 -0.061602175 0.08944807 -0.03414794
0000c0 28 55 90 bd e4 c3 0b 3c 9e f3 ee bd dd 1d 05 3e
       -0.07047492 0.008530591 -0.1166756 0.12999673
0000d0 0d 42 90 3d 43 ae 13 be f3 3a de bd 1a bb e0 bd
       0.07043848 -0.14421944 -0.108510874 -0.10973187
0000e0 af c1 9d 3d f8 64 69 be 5f 45 a0 bd 48 ed bd bd
       0.07702958 -0.22792423 -0.078257315 -0.092737734
0000f0 8b ea e5 3d a0 c2 fc bc 81 3b 11 be bc 37 bf bd
       0.11226376 -0.030854523 -0.14182855 -0.09336802
000100 1b 90 10 bc 26 94 9e bd 80 6c 97 bb 3f 89 0b bc
       -0.00882342 -0.07743101 -0.0046210885 -0.008516609
000110 e7 31 3a 3e 3b 54 05 3c a2 33 12 3e 72 32 bb 3d
       0.18183099 0.008137758 0.14277509 0.09140481
000120 31 2c 08 bd 84 76 9e 3d 1b 39 3b bb b9 a5 cb bd
       -0.03324527 0.07737449 -0.0028567973 -0.099437185
000130 bc ca e5 bc c6 65 05 be 25 e7 bc bd 23 bb b4 bd
       -0.028050773 -0.13027105 -0.09223775 -0.08824756
000140 53 02 24 bd 6f 9c ad 3c 92 68 1e bd 75 94 03 be
       -0.04004128 0.021192757 -0.038673945 -0.128496
000150 2c 08 18 be 61 cd 41 bc 6d cb 17 3d b6 96 9b bd
       -0.14846867 -0.011828751 0.037059236 -0.07597105
000160 ab 1b e4 bd 0a 19 08 be f9 a8 04 be e5 bb f2 bd
       -0.1113809 -0.13290802 -0.12955083 -0.11852244
000170 a7 6d d9 bd 17 10 d0 3d 8d 94 8f bd be 64 74 3d
       -0.10616618 0.10159319 -0.07010756 0.059666388
000180 63 bb 80 3d 6b cd 56 3e 3f cc 16 be f5 e7 cd 3d
       0.06285741 0.20976798 -0.14726351 0.10054008
000190 7a c0 28 3d ab ae 27 be 86 54 0b be 2d 0d 06 3d
       0.041199185 -0.16375224 -0.13606462 0.03272741
0001a0 cc 7f f1 bc 3d 0a 1a be 16 da 11 bd 28 e8 1d be
       -0.029479884 -0.15042968 -0.035608374 -0.15420592
0001b0 45 9d 89 3d 33 46 de 3d 7d 4d 22 3d ea 53 23 bd
       0.0671945 0.10853233 0.03962468 -0.03987495
0001c0 97 d8 d5 bd f7 ba 18 3e e3 2f 2d 3e 01 9d 74 3d
       -0.10441702 0.14915071 0.16912799 0.059720043
0001d0 9d a8 3f 3d 40 83 c3 3c 18 d2 0f be 0a e6 a2 bd
       0.04679166 0.023866296 -0.14044988 -0.07954033
0001e0 74 78 6b bd 3e 00 46 3c 3c 36 e6 bb 82 40 06 be
       -0.05748792 0.012085019 -0.007025508 -0.13110545
0001f0 4c d7 8a 3d 44 6d 24 be a2 43 0e be a7 00 ce bd
       0.06779346 -0.16057307 -0.13892987 -0.10058718

lin.4.weight f4 [4, 128]
000000 77 26 0a be 12 ac fe bc 5e ca 1c 3d 33 fb 4d be
       -0.13491236 -0.031087909 0.03827893 -0.20115356
000010 6d 20 e7 3e 0e 44 fc bc 32 7f bb be ad bc 8d 3d
       0.45141926 -0.03079417 -0.3662048 0.06920753
000020 66 d0 56 3d 12 7e bd bc 1f b2 50 bd 39 6c e0 3e
       0.052444838 -0.023131404 -0.05095112 0.43832567
000030 17 96 85 3d 0b 17 6b bd 65 c1 3b be fc f8 d7 bc
       0.06522768 -0.057395022 -0.18335493 -0.026363842
000040 66 48 43 3d 6d c2 0a bd 90 49 6d 3d 95 c4 aa 3e
       0.047676466 -0.033876825 0.057931483 0.33353105
000050 78 dd bb 3c f3 47 0f 3f 02 c3 5d bd a6 1e 58 3d
       0.022932753 0.5596916 -0.054141052 0.052763604
000060 03 d4 67 3e 80 b9 fc 3a cf be eb 3e 60 fe d9 3b
       0.2263947 0.0019281358 0.46044013 0.0066526383
000070 8b 81 90 bc 2d f1 6c bd 67 a3 8c bd 75 64 2e 3e
       -0.017639896 -0.05784719 -0.06867104 0.17030509
000080 3e 2d 87 3c 4e 00 48 bd 84 1f 9d be 50 d2 fd 3c
       0.016501065 -0.048828416 -0.30688107 0.030984074
000090 a5 e0 46 bd 9f 77 4a 3b 74 da cb b9 93 c3 99 bc
       -0.04855408 0.0030894054 -0.00038881938 -0.018770015
0000a0 fe 29 61 3e a1 5b 85 bc 94 24 f3 bd f8 0f 99 bd
       0.21988675 -0.016279044 -0.11872211 -0.07473749
0000b0 e9 47 98 bd e0 cb ab 3c 16 bf 63 3e 9b 84 8b b9
       -0.07435591 0.020971239 0.22240862 -0.00026610945
0000c0 21 ba 90 3d da 34 9e 3e 55 0c 3b bd cb 1d 51 3e
       0.07066751 0.30899698 -0.045666058 0.20421521
0000d0 be dd 34 bb 46 ea b9 b9 dc b9 9d 3d f6 06 0b bd
       -0.002759799 -0.00035460497 0.077014655 -0.033942185
0000e0 1d 1a 9e 3d 1b aa 84 bd c3 ca a2 3c 79 ce 1e bd
       0.077198245 -0.064777575 0.019872075 -0.038771126
0000f0 50 88 d9 3c 04 2b 39 3c ad 74 f9 bc e0 c0 8e bd
       0.026554257 0.01130176 -0.030451143 -0.06970382
000100 e1 83 4b bc e0 a4 d9 3c a0 cd 87 bd 38 04 b4 3a
       -0.012421579 0.026567876 -0.06631017 0.0013734167
000110 e7 c7 6b be 0a 05 b1 bd b1 43 86 3e 53 05 f9 be
       -0.23025475 -0.08643539 0.2622352 -0.48636875
000120 42 5f b5 bc c1 11 1f 3f 17 71 80 bd 4c 85 10 bc
       -0.022140149 0.62136465 -0.0627157 -0.008820843
000130 55 75 45 bd 7e 8f de bc 40 1f 2a 3c 88 c4 2d bc
       -0.0482076 -0.027168032 0.010383427 -0.010605939
000140 22 1d 60 3e 29 1a 6f 3e f8 5a 16 3d 48 94 ce be
       0.21886113 0.23349823 0.03670785 -0.40347505
000150 6f 37 88 3d 63 69 e6 be a6 f3 3c be c7 a1 c7 bd
       0.06651198 -0.4500228 -0.1845232 -0.097476535
000160 d6 d9 19 bd 71 b2 a4 bd e8 73 57 3c 4e 72 a0 3c
       -0.03756126 -0.080418475 0.013150193 0.019585755
000170 2c 33 d6 bc 2b 07 bb bd a0 0b a9 bc c4 dc cf 3d
       -0.026147448 -0.091322266 -0.020635426 0.101495296
000180 95 d8 60 be f9 84 1b 3e 6e aa 40 3c 49 a2 8a 3e
       -0.2195762 0.15187444 0.011759384 0.2707694
000190 1f 64 9f be 1d ef 3b bd 73 56 89 bd 8f 5d f1 be
       -0.31131074 -0.045882333 -0.06705942 -0.47141692
0001a0 74 0d 4a bd 48 0d 9a bb 12 e9 80 3c 64 2a 97 bc
       -0.049329236 -0.0047012903 0.015736137 -0.01845283
0001b0 7f 02 44 be a9 3c 9c be 10 14 6b bd 98 86 03 3d
       -0.19141577 -0.3051503 -0.05739218 0.03211078
0001c0 80 b2 70 bb 44 96 8b 3e 96 17 d6 3d a9 6e c3 3e
       -0.0036727488 0.2726308 0.104537174 0.38170364
0001d0 b1 6f 52 bc 6c b1 63 bd d7 8c aa 3d ba 31 51 bd
       -0.012844012 -0.055589125 0.08327644 -0.051072814
0001e0 69 df 53 bd d8 9c a3 be 63 57 b5 3b 6b ef a1 be
       -0.051726732 -0.319556 0.005534099 -0.31627974
0001f0 9e a0 3c 3e 3f d3 83 bc d3 a7 5a 3d 7a 68 4a 3d
       0.18420646 -0.01609194 0.053382706 0.049416043
000200 ac e1 b8 be c5 7e 90 3d d0 29 43 bc 8d ce 0e be
       -0.36109674 0.07055429 -0.011911824 -0.1394598
000210 5a d2 6e be 43 a7 0c 3e 57 9b 8e be 90 99 cf 3c
       -0.2332243 0.1373568 -0.2785289 0.025341779
000220 6c 10 d1 bc 68 99 be 3d 54 b2 25 3e 4f 20 b3 3e
       -0.025520526 0.09306604 0.16181308 0.34985587
000230 99 73 a0 3d b4 a2 16 3f 91 ab 31 bd 46 c7 87 bc
       0.078345485 0.58842015 -0.04337651 -0.016574513
000240 e3 61 2b bd 32 59 2f 3d 18 66 6d 3b 5e 28 11 3d
       -0.0418414 0.042809673 0.0036224183 0.035438888
000250 24 28 0c 3e ae 06 31 3e 80 09 0c 3e 44 9f 00 bc
       0.13687187 0.17287704 0.13675499 -0.007850472
000260 6e 5f 32 3d 40 36 78 3b f1 dc 61 bd 80 a4 37 3d
       0.04354804 0.0037874132 -0.055142347 0.044834614
000270 89 3f 54 bd 65 1c 89 be 56 aa 0a bc 7d ad 19 be
       -0.051818404 -0.26779476 -0.008463463 -0.15007587
000280 2a d1 67 bd 9c 95 95 3d 5f 03 55 bd ba 2a 7a bd
       -0.05659596 0.07303926 -0.052005168 -0.061075903
000290 ef 04 3b 3b 93 63 f2 bb a6 9e f3 3e f7 5a 24 bc
       0.0028536876 -0.007397124 0.47581977 -0.010031453
0002a0 31 8a 87 3e 20 db 2a 3d a6 14 f7 be 5a f3 96 3c
       0.2647262 0.04171288 -0.4825794 0.018426586
0002b0 1f d2 6e 3d c2 5e 8f 3c 8a a5 0c be d4 e3 34 bd
       0.058305856 0.017501239 -0.13735023 -0.044162586
0002c0 93 b2 a3 3d 52 ca 87 be 8b fa b1 3d 9d 37 01 3f
       0.07993045 -0.26521546 0.086903654 0.50475484
0002d0 9d 6f 86 3d 10 b7 02 3c 9e e8 0d bf ee 8d 7a 3d
       0.06564257 0.007978216 -0.5543307 0.06117051
0002e0 ae 10 31 be 05 0f a3 be bb 7f 8d 3b 5f b3 89 bd
       -0.17291519 -0.31847396 0.004318205 -0.067236654
0002f0 bf a9 6b bd f4 c5 94 3d 42 c1 0c bb 0c bc ce bc
       -0.05753493 0.07264319 -0.0021477495 -0.025236152
000300 ca c3 51 bd 74 29 f3 3c 14 1f a1 3c 30 21 9a 3d
       -0.05121211 0.029682852 0.01966814 0.07525861
000310 a4 d6 43 be 03 5a 29 3d 8d 91 ab 3e f5 af 57 3c
       -0.19124848 0.041345607 0.33509484 0.01316451
000320 d1 04 a3 bb 8c 24 ca 3c d4 7a 00 3b 4e 75 a8 bd
       -0.0049749394 0.02467563 0.0019604461 -0.08225499
000330 9e 22 0f bc d5 52 a9 3d aa c2 46 bd 50 50 d1 bc
       -0.008736281 0.08267752 -0.04852549 -0.025550991
000340 13 ec 91 3c 89 03 46 3e da ca d3 3c 88 46 70 be
       0.017812764 0.19337286 0.025853563 -0.23464406
000350 6a 18 7b bd 5f 14 6b 3e ea 68 0f bd ca de 88 bd
       -0.06130258 0.2295699 -0.035012163 -0.06683119
000360 a7 49 b0 3d 70 9c 20 bc fe 4e 38 3c db 60 8f 3d
       0.08607798 -0.009802923 0.011249302 0.070008956
000370 7a 4a 8a bd 2a 67 80 3e d7 f6 12 bd 62 ae 04 be
       -0.067524865 0.25078708 -0.035879936 -0.12957147
000380 1b d6 c2 3c 64 6a 95 3e 00 c5 8e 3a ee 78 71 3d
       0.023783734 0.29182732 0.0010892451 0.05895322
000390 10 8d b4 3c 91 c5 1a ba 61 7d 80 3c 5f e6 16 be
       0.02203992 -0.00059040735 0.015684785 -0.14736317
0003a0 57 f6 79 3d 99 d4 5c bc a9 04 33 bd 97 a1 74 3c
       0.061025944 -0.013478422 -0.043705616 0.014931104
0003b0 cc 45 8a 3e cc 81 bf be aa 8f 8b 3d 33 ce 4d bd
       0.27006376 -0.37403715 0.06814511 -0.050245475
0003c0 b7 6b 75 3c 7c e4 a9 3b 3a 79 7e 3e 36 48 4d be
       0.0149792945 0.005184708 0.24850932 -0.20047078
0003d0 e7 c9 67 3c 33 c9 87 bd 09 04 a0 3d bb 91 a9 3d
       0.014147258 -0.066301726 0.0781327 0.08279749
0003e0 65 29 44 bc 27 37 39 be ec e6 83 3d 56 66 58 3d
       -0.01197276 -0.18087445 0.06440529 0.05283197
0003f0 a7 18 01 3e 39 15 32 bd 04 a3 23 bd 87 f1 7a 3b
       0.1260706 -0.04347727 -0.039950386 0.0038290934

lin.4.bias f4 [4]
000000 5f 7e 14 3e 49 ff 34 3e f3 87 d4 3d aa 2b 09 3e
       0.14501332 0.17675509 0.10377493 0.13395563
