snapshots.pth (torch, 144084 bytes, 10 tensors)

conv.0.weight f4 [16, 7, 3, 3]
0.17040059 -0.002696114 0.09083365 0.24196278 -0.007797325 0.10329018 -0.05648613 -0.060160324
0.10521869 -0.16254973 0.040287297 -0.033681005 -0.007905829 -0.041217696 0.011725338 0.031994704
-0.0063294857 0.082586005 -0.110367835 0.007093792 -0.114431575 -0.019651169 0.1607774 -0.024935262
-0.09876952 -0.06490886 -0.035575874 -0.08180523 0.09226678 -0.12443587 0.14780153 -0.18808345
0.10060686 0.07897403 -0.099564314 0.08841771 0.057117097 0.0798215 -0.07796809 -0.09397079
-0.011974114 -0.12668315 0.054685727 0.21300232 0.12995036 0.015850483 0.086083874 0.0414681
0.07204915 -0.14653842 -0.14498886 -0.011195142 -0.1186081 0.011637044 0.019581614 -0.038465682
-0.022652743 0.04485248 0.08067544 -0.11153223 -0.042408813 -0.13181704 -0.04909669 0.14346154
-0.055550564 0.08714446 0.18207677 -0.14112781 -0.10987504 -0.18214837 0.28898096 0.05514447
0.07971028 -0.14995214 -0.12496465 -0.05600746 -0.17458323 -0.009960346 -0.14080788 0.074809596
-0.06506348 -0.14559773 0.011929842 -0.011973599 0.048302583 0.06322756 -0.12997521 -0.22155395
-0.102900274 0.12655035 0.045172665 -0.08433953 0.048494935 0.08591899 -0.13803376 -0.13627855
0.08433533 -0.0021153325 -0.22055018 -0.12190546 -0.07623682 -0.026401669 -0.01831888 -0.11373541
-0.071856424 -0.025150962 -0.13753408 -0.0638342 -0.11026636 -0.08022146 0.10597223 0.08854742
-0.025881408 -0.117507175 -0.082745716 -0.046023056 -0.03817303 -0.074886486 -0.12217897 -0.09770752
-0.026819184 -0.016070204 -0.08843982 -0.083288506 -0.05314616 -0.14185973 -0.121559925 -0.08783377
0.15365747 -0.1945454 0.17945176 0.13763118 -0.17643273 0.23536924 0.08279062 -0.23317744
-0.23306052 -0.20431875 -0.14845333 -0.13249162 -0.046422273 -0.104175985 -0.003647722 -0.092482075
0.02133181 -0.08365399 0.12588462 0.03110751 0.047430247 -0.2576001 -0.07287888 -0.122220226
-0.20240463 -0.17372888 0.12080191 -0.003933962 -0.04295777 -0.0025739237 0.13671081 -0.12796564
0.09844693 0.13824491 -0.06472527 -0.11398455 0.05811597 -0.14364502 -0.05153388 0.07522532
-0.11720637 -0.13534008 -0.18209253 -0.11365471 0.014290205 -0.0050728098 -0.13560931 -0.04858544
-0.048159566 -0.036000922 0.09456291 -0.11338275 -0.10673009 0.0045244694 0.043939516 -0.1259136
0.019647455 0.05563372 -0.06895461 -0.057537828 -0.055013336 0.14197281 0.13736208 -0.14326286
0.18384475 0.22280371 -0.12585793 -0.053205587 0.04185947 -0.030489158 0.08061864 0.12573902
-0.11442959 0.10868353 0.14298 0.049079314 -0.006266348 -0.07595898 -0.07708019 -0.112856016
0.056726277 0.013863007 0.105788365 0.028664254 -0.14698865 0.012102627 0.13644274 0.22799256
-0.09049234 -0.08737209 0.16098064 -0.14668012 -0.13648853 0.2009038 -0.111345775 -0.17045291
-0.023400158 0.016860975 0.0012368074 0.10007682 -0.09072739 -0.12434274 -0.10232493 0.14053865
0.12964058 0.14690736 -0.008726738 0.008648772 -0.0041695274 -0.15088695 -0.1121854 -0.117842846
-0.015884474 -0.15607236 0.028805211 -0.008283631 -0.027982859 -0.08867486 -0.15344214 0.010219392
0.020599766 0.06243379 -0.040418103 -0.09242079 0.0533241 -0.18225431 -0.07392167 -0.12163435
00000000: 7e7d 2e3e 49b1 30bb fe06 ba3d 17c5 773e
00000010: b480 ffbb cd89 d33d 005e 67bd ac6a 76bd
00000020: e67c d73d 7073 26be 4b04 253d 18f5 09bd
00000030: 7387 01bc e3d3 28bd a21b 403c e10c 033d
00000040: 9367 cfbb da22 a93d 8808 e2bd 0a73 e83b
00000050: 1a5b eabd 7dfb a0bc d5a2 243e 0945 ccbc
00000060: ad47 cabd f0ee 84bd 02b8 11bd 8089 a7bd
00000070: 5ef6 bc3d 3cd8 febd 4959 173e f398 40be
00000080: f80a ce3d 23bd a13d 60e8 cbbd 5814 b53d
00000090: 9ef3 693d 7479 a33d bcad 9fbd c273 c0bd
000000a0: 132f 44bc 3ab9 01be 24fe 5f3d 481d 5a3e
000000b0: b511 053e dfd8 813c be4c b03d 74da 293d
000000c0: 818e 933d 2b0e 16be f677 14be d46b 37bc
000000d0: cee8 f2bd 4da9 3e3c 9f69 a03c 318e 1dbd
000000e0: 3f92 b9bc 3cb7 373d 2a39 a53d 036b e4bd
000000f0: ddb4 2dbd 0cfb 06be 9c19 49bd 95e7 123e
00000100: fd88 63bd cb78 b23d 5572 3a3e cf83 10be
00000110: 2a06 e1bd 1a85 3abe 50f5 933e 2bdf 613d
00000120: 253f a33d 0e8d 19be 77ed ffbd 1468 65bd
00000130: f2c5 32be b830 23bc f12f 10be c635 993d
00000140: 0040 85bd 9217 15be 6275 433c ea2c 44bc
00000150: eed8 453d 737d 813d 3918 05be 0adf 62be
00000160: 61bd d2bd 6a96 013e f906 393d 34ba acbd
00000170: a0a2 463d 4cf6 af3d b958 0dbe 9b8c 0bbe
00000180: 00b8 ac3d 64a1 0abb e8d7 61be 92a9 f9bd
00000190: 0d22 9cbd 5048 d8bc 7a11 96bc 1cee e8bd
000001a0: 7629 93bd 6409 cebc bcd5 0cbe 81bb 82bd
000001b0: 54d3 e1bd 264b a4bd f807 d93d 5a58 b53d
000001c0: 3f05 d4bc 9aa7 f0bd 9676 a9bd ac82 3cbd
000001d0: 535b 1cbd 165e 99bd f838 fabd e11a c8bd
000001e0: e8b3 dbbc a9a5 83bc f01f b5bd 2a93 aabd
000001f0: caaf 59bd ad43 11be 69f4 f8bd 31e2 b3bd
00000200: 6258 1d3e e936 47be 34c2 373e 30ef 0c3e
00000210: c8aa 34be a204 713e 218e a93d 11c6 6ebe
00000220: 6ba7 6ebe ef38 51be 2604 18be e2ab 07be
00000230: 4825 3ebd 385a d5bd 9f0e 6fbb 3e67 bdbd
00000240: 0cc0 ae3c c852 abbd e6e7 003e 2dd5 fe3c
00000250: 3846 423d 29e4 83be 8641 95bd 994e fabd
00000260: 2943 4fbe fce5 31be fe66 f73d 77e8 80bb
00000270: 7df4 2fbd 46af 28bb ebfd 0b3e 6d09 03be
00000280: 8b9e c93d 1390 0d3e af8e 84bd bb70 e9bd
00000290: 030b 6e3d ae17 13be 3115 53bd bc0f 9a3d
000002a0: e509 f0bd 9796 0abe 7776 3abe cdc3 e8bd
000002b0: 7721 6a3c d039 a6bb 2bdd 0abe 8701 47bd
000002c0: f742 45bd b475 13bd 33aa c13d 3735 e8bd
000002d0: 4e95 dabd 0042 943b ecf9 333d 7fef 00be
000002e0: b3f3 a03c 2fe0 633d 1338 8dbd c9ac 6bbd
000002f0: aa55 61bd 5261 113e a5a8 0c3e 80b3 12be
00000300: cc41 3c3e a826 643e e7e0 00be 1aee 59bd
00000310: d674 2b3d 66c4 f9bc 631b a53d bbc1 003e
00000320: 105a eabd 7895 de3d 5969 123e 6407 493d
00000330: f055 cdbb 6290 9bbd 38dc 9dbd 0e21 e7bd
00000340: d059 683d aa21 633c 92a7 d83d 4cd1 ea3c
00000350: 3184 16be 194a 463c a5b7 0b3e e276 693e
00000360: 0c54 b9bd 23f0 b2bd 1cd8 243e 5033 16be
00000370: a6c3 0bbe bab9 4d3e 4109 e4bd 358b 2ebe
00000380: b0b1 bfbc 0720 8a3c 5f1c a23a 13f5 cc3d
00000390: 48cf b9bd 68a7 febd bc8f d1bd 5de9 0f3e
000003a0: 80c0 043e e26e 163e 98fa 0ebc 94b3 0d3c
000003b0: 88a0 88bb 1c82 1abe 76c1 e5bd 9757 f1bd
000003c0: 2820 82bc 6fd1 1fbe e8f8 eb3c 11b8 07bc
000003d0: 4f3c e5bc 2a9b b5bd f01f 1dbe 3d6f 273c
000003e0: d7c0 a83c 93ba 7f3d 748d 25bd 1c47 bdbd
000003f0: 5f6a 5a3d e0a0 3abe 3f64 97bd 6e1b f9bd

conv.0.bias f4 [16]
-0.094669014 -0.07447634 -0.009233181 -0.062400904 -0.08048487 -0.039056282 -0.03841382 0.0030081666
-0.09495183 0.04725182 0.047858395 0.013822228 -0.11897746 -0.07747443 -0.13805345 -0.07799236
00000000: d4e1 c1bd 0d87 98bd c546 17bc 1798 7fbd
00000010: 40d5 a4bd 7bf9 1fbd cf57 1dbd a924 453b
00000020: 1b76 c2bd 208b 413d 2a07 443d a076 623c
00000030: 74aa f3bd eaaa 9ebd e25d 0dbe 75ba 9fbd

conv.2.weight f4 [32, 16, 3, 3]
0.08876434 0.060596097 0.092367545 -0.018151201 0.034767214 0.025836365 -0.054245263 0.019733472
0.07259701 -0.057073317 0.062855415 0.1575515 0.09340777 -0.0053295344 0.0567449 -0.038787905
-0.012847731 0.106164396 0.056001958 0.046768177 -0.033621043 -0.011407452 0.045533556 0.037424102
0.044260707 -0.027588293 0.083016 -0.17440389 -0.16939022 -0.12989658 -0.09162255 -0.13846633
-0.14090587 -0.2711456 -0.11756483 -0.23112978 -0.061899517 0.012503128 0.08025477 0.028134199
-0.0472277 0.051669225 -0.09072034 0.039710067 0.012513464 0.12999748 0.1009426 0.04395553
0.050160907 0.07286616 -0.07379247 0.044156462 -0.010972567 0.0011948324 -0.06726349 -0.02595504
-0.06586621 -0.039548688 -0.05050238 -0.107331835 0.010063265 0.012934852 0.04817381 0.0068584434
-0.039741408 -0.06325163 -0.020121545 0.026371837 -0.06104672 -0.017268557 0.04264548 0.0048737195
-0.09046977 0.024983717 0.0049861264 0.00077443826 -0.06863636 0.01583883 -0.1483065 0.03839496
-0.05784367 0.056100097 0.024492854 -0.0099985935 0.020927707 0.017506225 -0.047894932 -0.07157326
-0.068204865 0.04471809 -0.03590199 0.0073898025 -0.07094683 0.026016215 0.02685672 -0.0141784
-0.062573984 -0.11202478 -0.014274153 -0.098456375 0.051585924 -0.07824118 -0.0095698545 0.059302054
0.035893552 -0.02668244 -0.08135487 0.061711464 0.13191266 0.10141858 0.25369427 0.1037836
0.19067489 0.25798064 -0.0075181155 0.1340311 0.2007557 0.009511447 0.037984468 -0.10340265
-0.011150157 -0.04146088 -0.06628692 -0.1187468 0.037566148 0.03964808 -0.024753863 0.14511605
0.11022288 0.04869215 0.046510257 0.077420786 0.10278207 0.1449673 0.054319523 0.118593514
0.01955136 -0.013733671 0.11335832 0.098041534 -0.11975631 0.08264865 -0.08561515 0.027341338
0.026896127 0.07232444 0.019305665 0.03503335 0.063609764 0.07103685 0.15030415 0.13749714
0.091395825 0.118427284 0.1200411 0.031823307 0.069248356 0.08150001 -0.027832175 0.022115802
0.111933164 -0.011967897 0.014201186 0.0004633584 0.077011295 0.073129624 0.01356233 0.10944345
0.034728277 -0.029066907 0.012491305 -0.22995844 -0.18728173 -0.06389937 -0.10620135 -0.1336049
-0.23400725 -0.23574673 -0.2641078 -0.12353591 -0.025255794 -0.014647184 0.041170903 -0.024654431
0.07827871 0.017393595 -0.03162765 -0.026885102 0.05461173 0.053489234 -0.09511172 0.094693445
0.06354988 -0.017864205 0.08757841 -0.020706534 -0.10933886 0.077799104 0.0053822263 -0.07168318
0.07189264 -0.07739821 0.058300838 0.09285894 -0.04738091 -0.066036314 0.08804176 0.010286485
0.02849428 0.013691019 0.059176255 -0.004832672 -0.01514659 0.0054093096 0.009244934 0.06595441
-0.003407432 -0.019217355 -0.08203829 0.010018131 0.09653418 -0.028809883 -0.026938256 -0.022950908
-0.075015016 0.01804039 0.01457922 -0.07148084 -0.013164244 -0.037036613 -0.052483477 0.0026231387
-0.10079803 0.0046050576 0.020857966 -0.06660834 -0.036822807 0.05200274 -0.061095245 -0.11551273
0.07651642 0.056125935 -0.084917165 0.051302914 -0.014654255 -0.08327089 0.022263529 0.055735398
-0.032681473 0.029973786 -0.051173873 0.039255265 0.27988794 0.24802968 0.04408965 0.23962498
00000000: 14ca b53d 9d33 783d 322b bd3d d4b1 94bc
00000010: 1168 0e3d c9a6 d33c 4830 5ebd 17a8 a13c
00000020: bead 943d b6c5 69bd 57ba 803d 2e55 213e
00000030: 934c bf3d 60a3 aebb 576d 683d 11e0 1ebd
00000040: 4a7f 52bc b86c d93d 4f62 653d fd8f 3f3d
00000050: 38b6 09bd 52e6 3abc 6581 3a3d 044a 193d
00000060: b74a 353d d800 e2bc 4b04 aa3d ef96 32be
00000070: a174 2dbe 9c03 05be 9aa4 bbbd 1eca 0dbe
00000080: a149 10be 99d3 8abe d4c5 f0bd 49ad 6cbe
00000090: 598a 7dbd ebd9 4c3c 9d5c a43d b179 e63c
000000a0: d571 41bd 1ca3 533d 96cb b9bd 06a7 223d
000000b0: 4605 4d3c 0f1e 053e feba ce3d b70a 343d
000000c0: 8675 4d3d da3a 953d 8220 97bd 68dd 343d
000000d0: 48c6 33bc ec9b 9c3a 71c1 89bd aa9f d4bc
000000e0: dde4 86bd cefd 21bd 95db 4ebd cbd0 dbbd
000000f0: 65e0 243c b4ec 533c e751 453d cbbc e03b
00000100: e3c7 22bd 128a 81bd f0d5 a4bc c009 d83c
00000110: 200c 7abd ca76 8dbc 07ad 2e3d b9b3 9f3b
00000120: 3748 b9bd a7aa cc3c a962 a33b ac03 4b3a
00000130: 3891 8cbd 6fc0 813c a9dd 17be 0944 1d3d
00000140: 7ced 6cbd 37c9 653d 3da5 c83c 24d1 23bc
00000150: 9570 ab3c 3769 8f3c 7a2d 44bd 0095 92bd
00000160: feae 8bbd 512a 373d f70d 13bd 2826 f23b
00000170: 924c 91bd f51f d53c a002 dc3c 854c 68bc
00000180: ca26 80bd 3f6d e5bd 23de 69bc 7fa3 c9bd
00000190: c34b 533d e93c a0bd e1ca 1cbc b6e6 723d
000001a0: 1e05 133d 2295 dabc 629d a6bd 29c5 7c3d
000001b0: 1d14 073e 8bb4 cf3d 37e4 813e 7f8c d43d
000001c0: 4740 433e 0a16 843e 865a f6bb 733f 093e
000001d0: e792 4d3e e6d5 1b3c 9a95 1b3d c5c4 d3bd
000001e0: 26af 36bc e2d2 29bd 70c1 87bd 8631 f3bd
000001f0: f6de 193d 0666 223d 9dc8 cabc 4d99 143e
00000200: 89bc e13d 6b71 473d 8a81 3e3d ca8e 9e3d
00000210: 687f d23d 4f72 143e 267e 5e3d 28e1 f23d
00000220: 2c2a a03c 3103 61bc 6828 e83d 00ca c83d
00000230: cc42 f5bd b243 a93d ff56 afbd f1fa df3c
00000240: 4455 dc3c d61e 943d ea26 9e3c 217f 0f3d
00000250: d645 823d c57b 913d 55e9 193e 0dcc 0c3e
00000260: bc2d bb3d 018a f23d 1cd8 f53d 2859 023d
00000270: 15d2 8d3d 7ae9 a63d 4d00 e4bc 332c b53c
00000280: 373d e53d 0015 44bc 17ac 683c e9ee f239
00000290: 19b8 9d3d fcc4 953d 8934 5e3c e323 e03d
000002a0: 3d3f 0e3d b91d eebc 55a8 4c3c 3a7a 6bbe
000002b0: c8c6 3fbe acdd 82bd 1880 d9bd b9cf 08be
000002c0: 999f 6fbe 9767 71be 2339 87be 6500 fdbd
000002d0: 3de5 cebc befa 6fbc d2a2 283d 17f8 c9bc
000002e0: 9750 a03d 037d 8e3c ff8b 01bd 253e dcbc
000002f0: 8db0 5f3d 8717 5b3d efc9 c2bd a3ee c13d
00000300: 7126 823d f457 92bc 4f5c b33d c0a0 a9bc
00000310: 0ded dfbd 2355 9f3d 635d b03b a2ce 92bd
00000320: 733c 933d f482 9ebd dccc 6e3d d42c be3d
00000330: 7c12 42bd 0c3e 87bd 3d4f b43d a588 283c
00000340: d66c e93c 4c50 603c cd62 723d 645b 9ebb
00000350: 6729 78bc 9440 b13b 1078 173c 1b13 873d
00000360: 394f 5fbb b76d 9dbc b103 a8bd 1623 243c
00000370: b6b3 c53d b402 ecbc 9ead dcbc 8b03 bcbc
00000380: 79a1 99bd 71c9 933c aedd 6e3c 8c64 92bd
00000390: d7ae 57bc b4b3 17bd eaf8 56bd f7e8 2b3b
000003a0: 336f cebd 06e6 963b 53de aa3c f469 88bd
000003b0: 83d3 16bd d300 553d 023f 7abd f091 ecbd
000003c0: a4b4 9c3d 4fe4 653d 0de9 adbd 0123 523d
000003d0: 6618 70bc ee89 aabd 0162 b63c cd4a 643d
000003e0: 02dd 05bd 968b f53c b29b 51bd 21ca 203d
000003f0: 794d 8f3e 7efb 7d3e 5997 343d 4060 753e

conv.2.bias f4 [32]
0.0014278399 -0.045105323 -0.062807515 0.044226438 -0.05020335 0.009818695 -0.0069227475 -0.02495077
-0.06571962 -0.04828989 -0.028163606 -0.08524326 -0.034463305 0.016655127 0.03579824 0.017411308
-0.04330315 -0.018792726 -0.06987468 0.010966843 -0.017838981 0.039593253 -0.026051063 0.05917471
-0.00028288437 0.055244263 -0.027785646 -0.08192307 -0.07944437 -0.088409916 -0.025036545 -0.073914245
00000000: 5b26 bb3a 5cc0 38bd 3aa1 80bd c826 353d
00000010: 07a2 4dbd 97de 203c 37d8 e2bb 8f65 ccbc
00000020: 0298 86bd 9fcb 45bd 5db7 e6bc 0594 aebd
00000030: 6529 0dbd 5570 883c 2da1 123d 29a2 8e3c
00000040: a55e 31bd 34f3 99bc 751a 8fbd 46ae 333c
00000050: 0e23 92bc 892c 223d 0a69 d5bc 2e61 723d
00000060: 1950 94b9 cf47 623d b99e e3bc 48c7 a7bd
00000070: bbb3 a2bd 4210 b5bd 7119 cdbc 5a60 97bd

conv.4.weight f4 [64, 32, 3, 3]
-0.01986048 0.029160768 0.054306723 -0.017617457 0.03776134 -0.0066933124 -0.013241486 -0.008775161
-0.027643148 -0.010518294 -0.025982922 -0.0479195 0.045765102 -0.01719448 -0.023522351 0.03758277
0.0144049395 -0.007661004 -0.078780845 -0.048595153 -0.07097868 0.0037145142 -0.036217112 0.008674294
0.00091454666 -0.021752082 -0.02877566 -0.04265874 -0.0020881759 -0.06859335 -0.0411526 0.03169933
-0.028886314 0.038763165 0.022099735 -0.027711011 0.028643442 0.123878926 0.09472304 0.14288372
0.03444374 0.112391375 0.04241935 0.086739525 0.054210566 -0.060438693 -0.0053012306 0.049629044
-0.0008364998 -0.01212828 0.047720533 -0.00014966237 -0.039629396 0.030006919 0.016300783 0.026406722
0.020879837 0.031116981 -0.044812534 -0.014837202 -0.04537032 -0.030866204 0.023117758 -0.062021952
0.017265936 -0.046815824 -0.012679921 -0.01946353 -0.035849575 -0.006963945 -0.041332994 0.046273995
-0.021331798 0.037296783 -0.014035948 -0.04639386 0.045742806 -0.016270775 -0.024410963 0.004417617
-0.00060034543 0.048404425 0.0175786 0.031677693 0.09037734 0.085014515 0.12267606 0.07210708
0.050067894 0.064501904 0.047732584 0.041492358 0.049707327 0.045620967 0.08041761 0.095447205
0.117095806 0.014864477 0.12964962 -0.012180821 -0.058561854 0.038213298 -0.037575163 -0.026210455
0.019899588 0.046255648 0.07677144 -0.0045122574 0.015109264 0.014494341 0.022182092 -0.023872515
0.0065010865 0.017304398 0.05541049 -0.035772666 -0.049899004 -0.061241597 0.00054389285 -0.05179928
-0.021303067 -0.03681433 0.0016263146 -0.05215892 0.027010145 -0.066969775 -0.027784137 0.013308323
-0.059009835 0.015144238 -0.024042154 -0.033264365 0.04351128 -0.020370102 0.010707688 -0.02871156
0.020622091 0.045301862 0.050306655 -0.042720355 -0.06743131 -0.04940366 0.008857438 0.013977813
0.03938367 0.03394791 0.0654728 0.025278918 0.023521978 0.051143296 0.116264254 0.025142593
0.11492235 0.012866996 0.038072187 0.059364125 0.060227424 0.058095492 -0.013111714 -0.008919024
0.03841693 0.06375543 0.020480232 0.005044703 0.02318736 0.014226673 0.063840926 -0.0076976833
0.0996187 0.047181632 0.029140206 -0.03321617 -0.049266033 -0.0655245 -0.0018206509 -0.0226118
-0.03632169 -0.015921172 -0.015700385 0.017888505 -0.0556434 -0.008822156 -0.0033902063 -0.04767188
0.055179708 -0.022004431 0.054041173 0.052860532 0.015001367 0.03156453 -0.058183245 -0.021136656
-0.06271275 -0.05122324 0.0025722482 0.030699378 -0.049816918 -0.039403725 -0.04684472 -0.017835276
-0.055562876 -0.07097054 -0.034628306 0.03998697 -0.0047128224 -0.035043225 0.03331794 0.021852879
0.014519167 -0.033820502 -0.025794726 0.013822343 -0.0017584134 0.029533587 0.020717593 -0.049953647
0.08515114 0.041597366 0.089455925 0.098500475 0.08379732 0.074692816 0.09252264 0.011998998
0.01926206 -0.0228252 -0.04076595 0.033836644 -0.006429855 -0.028169652 -0.038761966 -0.063684605
-0.008333006 0.040508807 -0.022086512 -0.010390502 -0.017099734 -0.00926943 -0.033291176 -0.07529228
0.013916595 -0.06787002 -0.061427113 0.11419751 0.12251468 0.059972126 0.134456 0.04169018
0.11146975 0.12774326 0.11203826 0.06851408 -0.013474252 0.072958134 0.05157894 0.008058624
00000000: 72b2 a2bc 90e2 ee3c ba70 5e3d 7c52 90bc
00000010: a3ab 1a3d 9353 dbbb d1f2 58bc b1c5 0fbc
00000020: e273 e2bc ec54 2cbc 23da d4bc 3d47 44bd
00000030: 3074 3b3d 70db 8cbc f2b1 c0bc 64f0 193d
00000040: b202 6c3c 2909 fbbb da57 a1bd b60b 47bd
00000050: 455d 91bd 356f 733b 6558 14bd a01e 0e3c
00000060: 30be 6f3a 6c31 b2bc efba ebbc eeba 2ebd
00000070: c7d9 08bb ac7a 8cbd a18f 28bd 28d7 013d
00000080: fea2 ecbc 20c6 1e3d 810a b53c 3402 e3bc
00000090: a7a5 ea3c 3cb4 fd3d 27fe c13d 1c50 123e
000000a0: e114 0d3d 732d e63d eabf 2d3d 7ea4 b13d
000000b0: e60b 5e3d 908e 77bd f2b5 adbb d347 4b3d
000000c0: 8d48 5bba b1b5 46bc 9b76 433d b0ee 1cb9
000000d0: 6f52 22bd 12d1 f53c 3889 853c e952 d83c
000000e0: 310c ab3c 0ae9 fe3c 598d 37bd bc17 73bc
000000f0: 3bd6 39bd 1fdb fcbc 7461 bd3c bb0a 7ebd
00000100: 4b71 8d3c f3c1 3fbd 72bf 4fbc fb71 9fbc
00000110: 01d7 12bd ce31 e4bb c94c 29bd cd89 3d3d
00000120: 06c0 aebc 83c4 183d 08f7 65bc 7d07 3ebd
00000130: cf5c 3b3d 4a4a 85bc 80f9 c7bc a8c1 903b
00000140: 8060 1dba b843 463d ff00 903c 78c0 013d
00000150: c117 b93d 171c ae3d 963d fb3d e0ac 933d
00000160: fe13 4d3d 9319 843d 3e83 433d e4f3 293d
00000170: e999 4b3d 0ddd 3a3d fdb1 a43d d379 c33d
00000180: edcf ef3d 238a 733c dfc2 043e 1192 47bc
00000190: 8ede 6fbd 8c85 1c3d 6ae8 19bd 4fb7 d6bc
000001a0: 7604 a33c 9076 3d3d 583a 9d3d 8fdb 93bb
000001b0: d98c 773c ac79 6d3c 38b7 b53c 4b90 c3bc
000001c0: 1107 d53b f4c1 8d3c 1cf6 623d 5c86 12bd
000001d0: e662 4cbd 78d8 7abd 0894 0e3a 7b2b 54bd
000001e0: c583 aebc 9fca 16bd 102a d53a 97a4 55bd
000001f0: 6144 dd3c 7327 89bd 8f9b e3bc 270b 5a3c
00000200: 4cb4 71bd 8a1f 783c 0df4 c4bc 3740 08bd
00000210: e238 323d 33df a6bc 4c6f 2f3c 8134 ebbc
00000220: a9ef a83c 728e 393d 5a0e 4e3d 8afb 2ebd
00000230: 6d19 8abd 7e5b 4abd ca1e 113c 3203 653c
00000240: c550 213d f70c 0b3d 9a16 863d bc15 cf3c
00000250: 2ab1 c03c a27b 513d f41b ee3d d7f7 cd3c
00000260: 695c eb3d 18d0 523c 95f1 1b3d cc27 733d
00000270: 08b1 763d 8af5 6d3d 84d2 56bc 1921 12bc
00000280: 125b 1d3d 3592 823d 29c6 a73c 094e a53b
00000290: 6bf3 bd3c fe16 693c 08bf 823d d93c fcbb
000002a0: e404 cc3d 8741 413d 71b7 ee3c ae0d 08bd
000002b0: 2ecb 49bd b631 86bd e8a2 eeba 623c b9bc
000002c0: 0dc6 14bd 1e6d 82bc 189e 80bc ea8a 923c
000002d0: 55ea 63bd ce8a 10bc 392e 5ebb 9743 43bd
000002e0: 1e04 623d a342 b4bc 475a 5d3d 4984 583d
000002f0: 4bc8 753c cf49 013d 8e51 6ebd c826 adbc
00000300: 8b6f 80bd 76cf 51bd 2a93 283b 437d fb3c
00000310: d30c 4cbd cd65 21bd 40e0 3fbd 491b 92bc
00000320: e695 63bd 0159 91bd 69d6 0dbd 61c9 233d
00000330: 056e 9abb 7c89 0fbd 6478 083d cf04 b33c
00000340: cde1 6d3c 5e87 0abd 764f d3bc 1c77 623c
00000350: 907a e6ba 6cf0 f13c f1b7 a93c 329c 4cbd
00000360: b963 ae3d 0062 2a3d ab34 b73d 9eba c93d
00000370: ee9d ab3d 8cf8 983d 837c bd3d 7297 443c
00000380: 78cb 9d3c eafb babc 32fa 26bd 4b98 0a3d
00000390: 88b1 d2bb 0bc4 e6bc dec4 1ebd 136d 82bd
000003a0: 2987 08bc 90ec 253d c6ee b4bc ed3c 2abc
000003b0: be14 8cbc cfde 17bc 545c 08bd d732 9abd
000003c0: 6e02 643c 70ff 8abd ff9a 7bbd 62e0 e93d
000003d0: fae8 fa3d 55a5 753d d5ae 093e 52c3 2a3d
000003e0: 414a e43d 21cf 023e 5174 e53d 1c51 8c3d
000003f0: 1cc3 5cbc 136b 953d 7044 533d 5208 043c

conv.4.bias f4 [64]
0.018647954 -0.043417554 0.04227501 -0.013527112 -0.057990722 -0.053622287 -0.034787703 0.006873082
-0.005842948 -0.017041184 0.010278842 -0.049180076 0.020136481 -0.010107578 -0.0028383648 -0.0021117046
-0.06629531 0.0084184 0.04756843 0.008501064 0.010776563 -0.013836696 -0.017557485 -0.011804754
0.0011774923 -0.045282647 -0.058174312 -0.040145263 -0.045250427 -0.032847837 -0.045010358 -0.011773822
-0.04708449 -0.054205067 -0.0020289817 -0.0052580023 0.031839233 -0.0021875366 -0.043802466 0.008477141
-0.045862246 -0.01439067 -0.005094445 0.008946603 0.0029850828 0.0040387153 -0.049331956 0.034177613
-0.049525924 0.020080682 -0.017462192 -0.058942392 -0.014692796 -0.012212334 -0.03699668 -0.041999087
-0.030947464 -0.014984497 -0.048243605 0.028824277 -0.05923443 -0.00877736 -0.005459646 -0.10444367
00000000: 98c3 983c 9bd6 31bd 9028 2d3d d2a0 5dbc
00000010: ae87 6dbd 0ba3 5bbd 8d7d 0ebd 9737 e13b
00000020: 3376 bfbb f499 8bbc 9768 283c 0c71 49bd
00000030: 43f5 a43c 419a 25bc dc03 3abb 8664 0abb
00000040: d6c5 87bd 54ed 093c 1dd7 423d 0c48 0b3c
00000050: 2e90 303c 4fb3 62bc b7d4 8fbc ba68 41bc
00000060: 1656 9a3a 4c7a 39bd 3048 6ebd 5c6f 24bd
00000070: 8358 39bd 748b 06bd c85c 38bd fde6 40bc
00000080: abdb 40bd 2206 5ebd aaf8 04bb 524b acbb
00000090: db69 023d c65c 0fbb 376a 33bd b5e3 0a3c
000000a0: 0dda 3bbd d8c6 6bbc 4def a6bb c694 123c
000000b0: 61a1 433b 3357 843b 4e10 4abd d3fd 0b3d
000000c0: b2db 4abd 3e80 a43c df0c 8fbc 946d 71bd
000000d0: 0eba 70bc 3e16 48bc d589 17bd 3c07 2cbd
000000e0: 8985 fdbc 8981 75bc 169b 45bd e420 ec3c
000000f0: cd9f 72bd ebce 0fbc d5e6 b2bb 90e6 d5bd

lin.2.weight f4 [128, 64]
0.03760164 -0.10572505 -0.09679976 0.052439872 -0.064863354 0.059987977 -0.1345729 0.008652669
-0.13378428 0.04248545 0.0997364 0.056179512 0.015125683 0.08186049 0.09490422 0.052260794
0.039234277 0.03846684 0.011955253 0.07568197 0.08599853 -0.03683512 0.023479536 0.05121721
-0.10741172 -0.10771794 -0.03446403 0.018211871 0.07967879 0.04662321 0.045960214 -0.029474447
-0.033599496 -0.12166771 -0.0119252475 -0.03646678 -0.10289116 0.061165344 0.06091784 0.02117716
-0.085696876 -0.030948542 -0.12440646 -0.036255717 0.05823076 0.09665543 -0.1016673 -0.041292824
-0.07657277 0.08837001 0.10314879 -0.11092518 -0.069128275 0.00398845 -0.116809115 -0.13363822
-0.085940346 0.0862468 0.010240606 -0.07279033 -0.017643645 0.09898779 -0.12856083 0.04895167
-0.019095935 -0.120851085 0.09822225 -0.07076675 0.09395778 0.009318128 0.0138221625 -0.032948136
-0.10915085 0.062523946 -0.05690056 0.032122694 0.10331263 -0.05089092 0.014818102 0.038700532
-0.03932397 0.057686955 -0.092972875 0.06101059 -0.059655387 -0.0020871162 -0.042802542 0.013589472
0.073175475 0.009903723 -0.043791264 0.11740093 0.11196071 -0.05185923 -0.08903405 -0.10263658
0.021876156 0.11653999 0.024875546 0.031192228 -0.13080008 0.035548132 0.06699471 -0.053200327
-0.077873096 -0.022641204 -0.12237468 0.10014204 -0.09030428 0.1125036 -0.12400851 0.06480869
-0.067111805 -0.110217616 0.035154477 0.11508626 -0.068545505 0.002856327 -0.09649593 0.07020224
0.0976807 -0.048864163 0.10489256 0.051348824 0.016869798 -0.06861398 0.07134336 0.0064299703
-0.07212588 -0.122968644 -0.1252835 0.12199262 -0.06605922 -0.093256965 0.06030827 -0.049657617
-0.1061672 0.0057960707 -0.035965983 0.02952194 0.09673005 -0.03146781 0.05278162 -0.054616336
-0.04167333 0.04168865 -0.045456275 0.026595987 0.013770235 -0.10010518 -0.02929771 0.09361739
-0.0060350336 0.11839579 0.0944663 -0.03507927 -0.056534514 0.04123433 -0.036957398 -0.016136035
-0.008545086 -0.080728754 0.07780406 -0.050927434 -0.112769425 -0.09763698 -0.0797437 0.0040865773
-0.120360434 0.043912802 -0.095635094 -0.022935882 -0.03099979 -0.037449047 0.080659926 -0.062067676
0.027925858 0.08444607 0.060714282 0.053183332 -0.027770171 -0.06546727 -0.092291966 0.100092396
-0.113410994 -0.03770724 0.08888877 -0.035689555 -0.10497342 0.10558819 -0.032237787 0.05221431
0.058717012 -0.046847872 -0.15435274 -0.0008859857 -0.100101635 -0.07686092 -0.13375798 0.09931897
-0.08310554 0.0537604 0.107790865 0.020434394 0.097364284 0.0824959 0.079573244 0.08694475
-0.07786749 0.055461854 0.13131821 0.049256116 0.20938936 0.0191419 -0.057928473 -0.08354311
0.06613395 -0.11936354 -0.11279836 0.11081295 0.09171527 -0.010362544 -0.012514425 0.23332684
0.114803016 0.038124397 0.06935053 -0.05404599 0.12627994 -0.02609789 -0.07779952 0.057155717
-0.042928867 0.33344993 -0.032562733 0.05737709 0.15829173 0.1998549 0.10582493 -0.08841137
0.03930124 0.033056214 0.08068587 0.074542664 -0.01508451 0.16699861 0.019111533 0.03404052
0.009963027 0.04437602 -0.12095445 0.14190494 0.10959175 -0.11370842 0.11207947 0.037137818
00000000: 2d04 1a3d 6086 d8bd f43e c6bd 31cb 563d
00000010: 14d7 84bd f4b5 753d 7acd 09be edc3 0d3c
00000020: bffe 08be 3905 2e3d 9942 cc3d 7d1c 663d
00000030: b6d1 773c 79a6 a73d 255d c23d 6a0f 563d
00000040: 1fb4 203d 688f 1d3d f7df 433c 26ff 9a3d
00000050: ff1f b03d 6ce0 16bd 2858 c03c 23c9 513d
00000060: adfa dbbd 399b dcbd 282a 0dbd 1031 953c
00000070: a22e a33d fbf7 3e3d c740 3c3d 6574 f1bc
00000080: a09f 09bd ec2c f9bd 1d62 43bc 315e 15bd
00000090: 9ab8 d2bd 8388 7a3d fc84 793d b97b ad3c
000000a0: d881 afbd cc87 fdbc d0c8 febd e080 14bd
000000b0: 6183 6e3d 48f3 c53d f236 d0bd aa22 29bd
000000c0: 2fd2 9cbd 56fb b43d ac3f d33d be2c e3bd
000000d0: 2093 8dbd 8bb1 823b 9e39 efbd 75d8 08be
000000e0: 7e01 b0bd 2aa2 b03d 37c8 273c 1913 95bd
000000f0: 6889 90bc 1cba ca3d 73a5 03be 8c81 483d
00000100: 146f 9cbc c680 f7bd bf28 c93d 28ee 90bd
00000110: f06c c03d 10ab 183c 5a76 623c a0f4 06bd
00000120: 7b8a dfbd 8e0c 803d 9010 69bd 1693 033d
00000130: 9295 d33d ff72 50bd a0c7 723c 7384 1e3d
00000140: 2c12 21bd 2849 6c3d 9068 bebd 3ee6 793d
00000150: 3559 74bd 00c8 08bb b851 2fbd 60a6 5e3c
00000160: 06dd 953d 3a43 223c 785e 33bd e66f f03d
00000170: a84b e53d 586a 54bd 7c57 b6bd 2133 d2bd
00000180: a035 b33c 85ac ee3d cdc7 cb3c d886 ff3c
00000190: 75f0 05be eb9a 113d 8634 893d 96e8 59bd
000001a0: ee7b 9fbd 0c7a b9bc 949f fabd 4517 cd3d
000001b0: 73f1 b8bd 4a68 e63d 2cf8 fdbd 6bba 843d
000001c0: ea71 89bd c6b9 e1bd 24fe 0f3d 58b2 eb3d
000001d0: 9661 8cbd 3731 3b3b a89f c5bd 31c6 8f3d
000001e0: d20c c83d ca25 48bd e9d1 d63d 2553 523d
000001f0: 8832 8a3c 7d85 8cbd 781c 923d 80b2 d23b
00000200: bcb6 93bd fcd6 fbbd 514a 00be 44d7 f93d
00000210: 0e4a 87bd 82fd bebd ce05 773d c965 4bbd
00000220: 306e d9bd f7ec bd3b 1151 13bd ffd7 f13c
00000230: 681a c63d 64e4 00bd 8a31 583d 61b5 5fbd
00000240: a7b1 2abd b8c1 2a3d 5c30 3abd d4df d93c
00000250: 8d9c 613c f203 cdbd c001 f0bc 79ba bf3d
00000260: 88c1 c5bb 7e79 f23d 8c77 c13d 48af 0fbd
00000270: bc90 67bd 54e5 283d a460 17bd b82f 84bc
00000280: b000 0cbc 1e55 a5bd bc57 9f3d 4999 50bd
00000290: a8f3 e6bd e6f5 c7bd aa50 a3bd b2e8 853b
000002a0: 887f f6bd e9dd 333d 55dc c3bd 08e4 bbbc
000002b0: 46f3 fdbc 2c64 19bd 0831 a53d ad3a 7ebd
000002c0: c5c4 e43c 10f2 ac3d 8aaf 783d c4d6 593d
000002d0: 457e e3bc b413 86bd 9203 bdbd 3efd cc3d
000002e0: 0644 e8bd e872 1abd 510b b63d 362f 12bd
000002f0: 4efc d6bd 9f3e d83d c50b 04bd acde 553d
00000300: 4081 703d 8ee3 3fbd a50e 1ebe 7e41 68ba
00000310: 1602 cdbd 4269 9dbd daf7 08be bf67 cb3d
00000320: 3d33 aabd dd33 5c3d 75c1 dc3d 0866 a73c
00000330: ed66 c73d 9cf3 a83d 4cf7 a23d 1710 b23d
00000340: fe78 9fbd f82b 633d 4878 063e c8c0 493d
00000350: 2a6a 563e 79cf 9c3c 6846 6dbd a618 abbd
00000360: 3d71 873d df74 f4bd d402 e7bd e6f1 e23d
00000370: 37d5 bb3d a9c7 29bc 4e09 4dbc 3bed 6e3e
00000380: d81d eb3d 5428 1c3d a707 8e3d 545f 5dbd
00000390: 874f 013e 3ecb d5bc 5b55 9fbd 1d1c 6a3d
000003a0: 2ed6 2fbd f3b9 aa3e 8060 05bd 3d04 6b3d
000003b0: 3a17 223e c3a6 4c3e beba d83d 0511 b5bd
000003c0: 56fa 203d f465 073d a23e a53d d3a9 983d
000003d0: 0525 77bc af01 2b3e ca8f 9c3c 136e 0b3d
000003e0: f73b 233c a1c3 353d f7b6 f7bd 874f 113e
000003f0: a471 e03d f6df e8bd ec89 e53d d31d 183d

lin.2.bias f4 [128]
-0.06758337 -0.092169836 -0.05010929 0.034586903 -0.04068099 0.07203818 -0.069382794 -0.047241047
-0.08142726 -0.07200796 0.08792488 0.11343025 -0.096653774 0.038051248 0.06679758 -0.06435998
-0.11166084 0.045131367 -0.11405128 -0.002786521 0.10841117 0.025069103 0.07335392 0.08576718
0.0710089 -0.041520476 -0.07634601 -0.11402069 -0.07326445 0.07448335 0.058353513 -0.07105617
0.026014237 -0.018480867 0.06324458 -0.086364314 -0.046568178 0.022067836 0.025594415 -0.042486407
0.06680992 -0.10466639 -0.027588204 -0.12122872 0.060295314 -0.0753113 0.06960476 -0.020373411
-0.050085127 0.09120464 -0.09097754 0.08336756 0.10616315 -0.11648072 0.05705699 -0.10973187
0.07680387 -0.09310122 -0.010708187 -0.07961777 0.047294676 -0.009627685 -0.10025141 -0.09336802
-0.010818675 -0.07743101 -0.0047777304 0.07717065 0.071748175 0.030091077 0.13480915 0.04758414
-0.019204035 -0.09353289 -0.0009835481 -0.1098864 -0.03891784 -0.09907614 -0.07916666 -0.051798493
-0.011399401 0.027352406 -0.08926144 -0.06198828 -0.1171041 0.051245987 0.11005572 0.072216436
-0.08392781 -0.10777868 -0.108248636 -0.11728388 -0.08225703 0.122202665 -0.095691204 0.06412595
0.047333054 0.05158757 -0.12207961 0.120666 0.07771848 -0.12883368 -0.10206776 0.044683486
-0.06260078 -0.05242645 -0.0060000545 -0.13429879 0.09220835 0.112672344 0.056947548 0.06488813
-0.077675104 -0.025514545 0.057910524 0.04167579 0.09643676 0.033097133 -0.099543765 -0.07954033
0.08982533 0.046112027 0.040343698 0.018086424 0.06409373 -0.14079197 -0.13782027 -0.06181547
00000000: 2669 8abd 8ac3 bcbd 663f 4dbd ffaa 0d3d
00000010: 1ca1 26bd c188 933d 9118 8ebd d47f 41bd
00000020: 56c3 a6bd e978 93bd f611 b43d 1e4e e83d
00000030: 6af2 c5bd a0db 1b3d 2bcd 883d 2acf 83bd
00000040: 70ae e4bd abdb 383d b893 e9bd 119e 36bb
00000050: ad06 de3d b85d cd3c 943a 963d b4a6 af3d
00000060: 1d6d 913d 6011 2abd 4c5b 9cbd ae83 e9bd
00000070: ac0b 96bd ba8a 983d 1804 6f3d e685 91bd
00000080: cf1b d53c 3065 97bc 6086 813d c6df b0bd
00000090: 46be 3ebd 9bc7 b43c 61ab d13c 3a06 2ebd
000000a0: a4d3 883d 555b d6bd a800 e2bc c346 f8bd
000000b0: 38f8 763d d03c 9abd f18c 8e3d 24e6 a6bc
000000c0: 1026 4dbd 80c9 ba3d 6f52 babd 9cbc aa3d
000000d0: 116c d93d 728d eebd 97b4 693d 1abb e0bd
000000e0: 594b 9d3d daab bebd 6471 2fbc a40e a3bd
000000f0: 10b8 413d 70bd 1dbc 9c50 cdbd bc37 bfbd
00000100: d040 31bc 2694 9ebd 828e 9cbb a50b 9e3d
00000110: b5f0 923d 9081 f63c 690b 0a3e 96e7 423d
00000120: c851 9dbc 2c8e bfbd 66ea 80ba 1f0c e1bd
00000130: 5068 1fbd 6ee8 cabd 2122 a2bd a82a 54bd
00000140: 8ec4 3abc 2712 e03c b4ce b6bd 6ce7 7dbd
00000150: 46d4 efbd 50e7 513d e564 e13d 36e6 933d
00000160: 58e2 abbd 12bb dcbd 76b1 ddbd 8832 f0bd
00000170: 6076 a8bd 6445 fa3d c0f9 c3bd 7754 833d
00000180: 4ee0 413d 7d4d 533d e004 fabd bc1f f73d
00000190: de2a 9f3d faec 03be e708 d1bd 0806 373d
000001a0: d634 80bd 1ebd 56bd 1b9c c4bb 9f85 09be
000001b0: bbd7 bc3d c2c0 e63d d541 693d 11e4 843d
000001c0: 2014 9fbd e103 d1bc 9633 6d3d 3cb4 2a3d
000001d0: a380 c53d dc90 073d 9add cbbd 0ae6 a2bd
000001e0: 58f6 b73d f7df 3c3d 6f3f 253d fb29 943c
000001f0: 9343 833d c52b 10be c220 0dbe 3832 7dbd

lin.4.weight f4 [4, 128]
-0.030946314 -0.024246456 0.02064214 -0.05344554 0.0017748475 -0.072679855 -0.048622448 0.06920753
0.070351936 -0.02231738 0.028800173 0.067860425 0.06522768 -0.020273553 -0.0770128 -0.026363842
0.047676466 -0.043409348 0.04517264 -0.04841563 0.033136696 0.10093841 -0.036511023 0.1189409
0.043575812 0.0019281358 -0.031248575 0.0066526383 -0.04944449 -0.011880413 -0.08901888 0.02971325
-0.011453489 -0.068990305 -0.026754724 0.016155502 -0.046671897 -0.008463221 -0.07978657 0.022220574
-0.018134737 -0.06509878 -0.0141495615 -0.028429912 -0.021339484 0.01006566 -0.02161279 -0.04563558
0.07066751 0.059055675 -0.024102274 0.0020399494 0.03532989 0.005925499 0.005080318 -0.033942185
0.007175112 0.04243975 -0.088341646 -0.021487242 0.031471424 0.030845098 -0.07573967 -0.06970382
0.001661852 0.026567876 -0.07857799 0.007135022 -0.05783671 -0.13909048 0.08092742 -0.08572852
-0.042156383 0.08543069 -0.06923847 -0.036045227 0.02986496 -0.046390392 -0.005002468 0.046090074
0.014581218 -0.04135482 0.09111386 -0.06499682 0.06651198 -0.081949174 0.029725317 -0.06292561
-0.03756126 -0.080418475 0.013150193 0.19700904 -0.061257407 0.031390034 0.016243327 0.003277826
-0.06765269 -0.08098183 -0.012859091 0.030363144 -0.098380245 -0.043282766 -0.06705942 -0.021438723
-0.057227287 -0.15178868 -0.049022768 -0.04635735 -0.06207087 -0.046776198 -0.041258305 0.05963001
-0.0036727488 0.09924414 -0.00083315576 0.042755105 0.025345182 -0.014466789 0.08327644 -0.051072814
-0.03552989 0.032037143 -0.0009850225 -0.042447403 0.07329649 -0.0747285 0.08090734 0.02248054
-0.012922779 0.0618751 -0.033253167 -0.1355703 -0.06308147 0.07404769 -0.06470483 0.025341779
-0.025520526 0.05671879 -0.059963897 0.09738465 0.078345485 0.0066908356 -0.10594653 0.012931988
-0.0418414 -0.12178357 -0.021704786 -0.029333854 0.010085127 -0.06335763 0.012494334 -0.010504584
-0.13380942 0.0037874132 0.0059555615 0.06895756 -0.0780514 -0.07086806 -0.0722898 -0.023815379
-0.091894865 0.07972861 -0.10832418 -0.061075903 -0.081502475 0.013741936 0.094562 0.026023678
0.080295816 0.004840111 -0.08133442 0.02349776 0.01734527 -0.0070880423 0.021586478 -0.14149398
0.07993045 -0.10356277 0.08068769 0.090459995 0.088080294 -0.024075016 -0.10364139 0.06117051
-0.11175721 0.046679277 0.012890744 -0.051287327 0.02521878 0.070288114 -0.01852686 -0.025236152
-0.046611894 0.029682852 0.018388867 0.07596075 -0.1303518 0.050315876 -0.0798933 0.07528699
-0.023867033 0.07839695 -0.008814552 -0.07552935 0.028130153 0.08267752 -0.06176289 0.013729058
-0.029032437 -0.08091487 0.03637481 -0.02963018 -0.06130258 0.10347696 -0.1098729 -0.025115998
0.08607798 -0.009802923 0.03230267 0.26544225 -0.0016656294 -0.025163095 0.013431702 0.04357872
-0.0345309 0.115304925 0.0010892451 -0.10561439 0.07917908 0.04052354 0.026906326 -0.015348417
0.07344765 -0.065134086 -0.025377104 -0.06366989 -0.01860388 -0.11487064 0.09677011 -0.12355815
-0.0047696084 -0.05374706 0.03173182 0.0046835383 5.0182512e-05 0.05708014 0.07268912 0.08279749
-0.055905357 -0.07266801 0.105230056 0.03331673 0.006051783 -0.044958107 -0.06787496 0.051693775
00000000: 2083 fdbc 81a0 c6bc b519 a93c b6e9 5abd
00000010: 00a2 e83a 2dd9 94bd 5528 47bd adbc 8d3d
00000020: ad14 903d f0d2 b6bc 57ee eb3c 68fa 8a3d
00000030: 1796 853d b914 a6bc e3b8 9dbd fcf8 d7bc
00000040: 6648 433d 00ce 31bd f206 393d 784f 46bd
00000050: 58ba 073d ccb8 ce3d 958c 15bd 4997 f33d
00000060: 8d7c 323d 80b9 fc3a 03fd ffbc 60fe d93b
00000070: 4e86 4abd 10a6 42bc 884f b6bd 3469 f33c
00000080: 6aa7 3bbc ca4a 8dbd b92c dbbc 8b58 843c
00000090: 082b 3fbd 52a9 0abc 2467 a3bd ec07 b63c
000000a0: 4d8f 94bc 8252 85bd 90d3 67bc d9e5 e8bc
000000b0: 24d0 aebc 70ea 243c 4e0d b1bc 60ec 3abd
000000c0: 21ba 903d 5de4 713d 2272 c5bc acb0 053b
000000d0: 13b6 103d b02a c23b cc78 a63b f606 0bbd
000000e0: 341d eb3b 4ed5 2d3d 77ec b4bd 0306 b0bc
000000f0: 2ee8 003d dcae fc3c 661d 9bbd e0c0 8ebd
00000100: 80d2 d93a e0a4 d93c 7fed a0bd e7cc e93b
00000110: 30e6 6cbd bc6d 0ebe 46bd a53d 6f92 afbd
00000120: 2cac 2cbd 49f6 ae3d e6cc 8dbd 29a4 13bd
00000130: 5ca7 f43c da03 3ebd beeb a3bb f2c8 3c3d
00000140: 10e6 6e3c ac63 29bd e799 ba3d 0e1d 85bd
00000150: 6f37 883d f8d4 a7bd 8282 f33c 24df 80bd
00000160: d6d9 19bd 71b2 a4bd e873 573c bdbc 493e
00000170: 0ce9 7abd d692 003d ba10 853c cbd0 563b
00000180: 7e8d 8abd cdd9 a5bd f0ae 52bc 21bc f83c
00000190: 957b c9bd 4549 31bd 7356 89bd 43a0 afbc
000001a0: 2967 6abd 7e6e 1bbe 19cc 48bd 34e1 3dbd
000001b0: 063e 7ebd 6698 3fbd 78fe 28bd 993e 743d
000001c0: 80b2 70bb 8340 cb3d 2368 5aba fa1f 2f3d
000001d0: b3a0 cf3c 1c06 6dbc d78c aa3d ba31 51bd
000001e0: ca87 11bd 6139 033d df1b 81ba 54dd 2dbd
000001f0: 781c 963d 410b 99bd bfb2 a53d 1c29 b83c
00000200: 10ba 53bc bf70 7d3d 7934 08bd f1d2 0abe
00000210: dc30 81bd 51a6 973d f783 84bd 9099 cf3c
00000220: 6c10 d1bc f651 683d b49c 75bd 9a71 c73d
00000230: 9973 a03d cc3e db3b 7ffa d8bd b0e0 533c
00000240: e361 2bbd aa69 f9bd 3cce b1bc 8d4d f0bc
00000250: 173c 253c a5c1 81bd 09b5 4c3c 6b1b 2cbc
00000260: 5605 09be 4036 783b df26 c33b 9f39 8d3d
00000270: 6ad9 9fbd 4623 91bd ad0c 94bd 7818 c3bc
00000280: 6033 bcbd c148 a33d 11d9 ddbd ba2a 7abd
00000290: c5ea a6bd db25 613c b9a9 c13d 9c2f d53c
000002a0: 2272 a43d cb99 9e3b a992 a6bd 607e c03c
000002b0: ab17 8e3c cf42 e8bb 20d6 b03c cce3 10be
000002c0: 93b2 a33d b818 d4bd 963f a53d 1743 b93d
000002d0: 7163 b43d f838 c5bc f041 d4bd ee8d 7a3d
000002e0: f7e0 e4bd c532 3f3d b333 533c a912 52bd
000002f0: 9d97 ce3c 37f3 8f3d a4c5 97bc 0cbc cebc
00000300: 1dec 3ebd 7429 f33c 40a4 963c 4f91 9b3d
00000310: f17a 05be 0518 4e3d 199f a3bd 1130 9a3d
00000320: cc84 c3bc 958e a03d e96a 10bc 22af 9abd
00000330: 3571 e63c d552 a93d 16fb 7cbd d8ef 603c
00000340: 6fd5 edbc b2b6 a5bd c1fd 143d feba f2bc
00000350: 6a18 7bbd baeb d33d 0b05 e1bd 11c0 cdbc
00000360: a749 b03d 709c 20bc ce4f 043d 0ce8 873e
00000370: 4051 daba d622 cebc a410 5c3c 9a7f 323d
00000380: 4670 0dbd fd24 ec3d 00c5 8e3a 5b4c d8bd
00000390: a428 a23d 03fc 253d a86a dc3c ed77 7bbc
000003a0: b96b 963d 0565 85bd a5e3 cfbc 5c65 82bd
000003b0: 2a67 98bc 4c41 ebbd 682f c63d 0e0c fdbd
000003c0: 604a 9cbb e125 5cbd 3af9 013d 5e78 993b
000003d0: 107b 5238 ddcc 693d 09de 943d bb91 a93d
000003e0: 04fd 64bd f7d2 94bd db82 d73d 2077 083d
000003f0: 094e c63b fe25 38bd 0702 8bbd dabc 533d

lin.4.bias f4 [4]
0.0062316754 -0.041190498 -0.035617765 0.039439715
00000000: 1533 cc3b 5eb7 28bd efe3 11bd 8a8b 213d
